PruningAMR/checkpoints/NS_PINN/NS_PINN_lists.ckpt (torch, 47856 bytes, 22 tensors)

weights_list f4 [32, 3]
0	0xbe58eea1	-0.2118478
1	0xbeb406cc	-0.35161436
2	0xbe10b9c5	-0.14133365
3	0x3d5e68a9	0.05429903
4	0x3e4ab275	0.19794638
5	0xbe404024	-0.18774468
6	0x3d913647	0.07090431
7	0x3e0e6fe2	0.13909867
8	0x3f7e2430	0.9927397
9	0xbd764c51	-0.060131375
10	0x3d956f66	0.07296638
11	0x3e8f35b9	0.27970675
12	0x3e5cdb3c	0.21568006
13	0xbe46e3f4	-0.19422895
14	0x3d7fcd37	0.062451568
15	0x3e9ca906	0.30597705
16	0xbe527c40	-0.2055521
17	0x3e110d6c	0.14165276
18	0x3e05feb6	0.13085446
19	0xbf0cae9a	-0.5495392
20	0x3d97c138	0.074099004
21	0xbec78fd9	-0.38976935
22	0xbedc65e2	-0.4304648
23	0xbdff6003	-0.12469485
24	0x3e3bae61	0.18328239
25	0xbe9316e7	-0.2872841
26	0x3e783237	0.24237905
27	0xbc904150	-0.017609268
28	0xbf13ac82	-0.576851
29	0xbcf57067	-0.029960824
30	0x3e0ccdd7	0.13750397
31	0x3c034073	0.008010971
32	0x3e4e5c50	0.20152402
33	0xbd3ccb0c	-0.046092078
34	0xbdc10cce	-0.094262704
35	0x3ea058df	0.31317803
36	0xbd08d4a0	-0.0334059
37	0x3ec5780f	0.3856816
38	0x3e1bb6d5	0.15206464
39	0xbe05a9af	-0.1305301
40	0x3e4b2782	0.1983929
41	0xbe373d6a	-0.17894521
42	0x3e4bed10	0.19914651
43	0xbecb37e5	-0.39691082
44	0xbe6fda46	-0.23423108
45	0xbc1b1966	-0.009466505
46	0x3e259862	0.1617141
47	0x3e8b38fb	0.2719191
48	0xbc914160	-0.017731369
49	0x3e9cdce6	0.30637282
50	0xbe451c15	-0.19248994
51	0xbc1daef5	-0.009624233
52	0xbd403c2e	-0.04693239
53	0x3e8ee79b	0.27911076
54	0xbe007870	-0.12545943
55	0xbecbaf06	-0.3978197
56	0x3e879a17	0.2648475
57	0xbdf684b1	-0.120370276
58	0xbd314611	-0.04327971
59	0x3ecb5282	0.39711386
60	0xbe16993d	-0.14706893
61	0x3e24a5b4	0.16078836
62	0xbd8e6a70	-0.06953895
63	0x3d2675f5	0.040639836
64	0xbe94f245	-0.29091087
65	0x3ebbc4e1	0.36673644
66	0xbcf298c4	-0.02961386
67	0xbe24084c	-0.1601879
68	0xbe758bb1	-0.2397907
69	0xbe834fe3	-0.25646886
70	0xbcb5f297	-0.022210402
71	0x3f852a71	1.0403577
72	0xbe704dc2	-0.23467162
73	0xbe2ae590	-0.16689134
74	0x3e7499d6	0.23886809
75	0xbe01b869	-0.12668003
76	0xbeabdea1	-0.3356829
77	0x3d92baf5	0.071645655
78	0x3ddb7e8b	0.107174955
79	0x3ead2c9c	0.33823097
80	0x3ed3e56d	0.41385975
81	0x3d052119	0.032502268
82	0x3e3b2cec	0.18278855
83	0xbea5168f	-0.32243773
84	0x3d9ce38b	0.07660588
85	0x3dbe1c04	0.09282687
86	0xbfa7bfa0	-1.3105354
87	0xbdb9ac67	-0.09066086
88	0x3d9b5502	0.07584573
89	0x3e7cc096	0.2468284
90	0x3d2cb881	0.042168144
91	0x3d0a8a13	0.033823084
92	0x3dfde39b	0.12396928
93	0xbe95c6ef	-0.29253337
94	0x3eca1306	0.3946764
95	0x3db9f769	0.09080393

weights_list f4 [32, 32]
0	0x3ea32650	0.31865168
1	0xbe0c476f	-0.13699125
2	0x3d1322bf	0.03592181
3	0x3f11b7b8	0.5692096
4	0xbe8fb019	-0.2806404
5	0x3e090c53	0.13383608
6	0xbe15b970	-0.1462152
7	0x3e2d43f3	0.16920452
8	0x3e3d3fe8	0.1848141
9	0xbe4b48b5	-0.19851954
10	0x3c8a2102	0.016861442
11	0x3f2adbcc	0.66741633
12	0xbe9d5990	-0.30732393
13	0xbe4e1333	-0.20124511
14	0xbe44ef30	-0.19231868
15	0x3e99da70	0.30049467
16	0x3df9f05b	0.12204047
17	0x3bfcf56c	0.0077196863
18	0xbde40d2f	-0.11135327
19	0xbe24cc97	-0.1609367
20	0x3ee36740	0.4441471
21	0xbd8772cc	-0.06613693
22	0xbe142e38	-0.14470756
23	0xbe51f52f	-0.20503686
24	0xbe75d81d	-0.24008222
25	0xbda65f69	-0.08123667
26	0xbd92cbf8	-0.0716781
27	0xbe23e24b	-0.16004293
28	0xbdd01663	-0.1016052
29	0xbe141d1d	-0.14464231
30	0xbda00407	-0.07813268
31	0xbe0bb145	-0.13641842
32	0x3c7ec733	0.0155504225
33	0x3d537059	0.051620815
34	0x3f151672	0.58237374
35	0x3d63a198	0.05557403
36	0xbd4d2a7d	-0.050089348
37	0x3e8b38b5	0.27191702
38	0x3db08a99	0.086201854
39	0x3cbfd046	0.023414742
40	0x3ea916af	0.3302512
41	0x3e96744a	0.29385597
42	0xbdca143c	-0.09867141
43	0x3d0edf2d	0.034880806
44	0xbe5c28a1	-0.21499874
45	0x3dd4d684	0.10392478
46	0x3e60d824	0.21957451
47	0x3ec6cd81	0.38828662
48	0xbea55a31	-0.32295373
49	0x3ed1f6e8	0.41008687
50	0x3eccb1d2	0.39979416
51	0x3eceea54	0.40413153
52	0xbe6517da	-0.2237238
53	0x3e7c52b2	0.24640921
54	0xbdf23e1f	-0.11828255
55	0x3d547310	0.051867545
56	0x3e85fdee	0.26170295
57	0x3d4edefe	0.05050563
58	0x3dbcd9b2	0.092212096
59	0xbf2649e5	-0.64956504
60	0xbe90b7e7	-0.28265306
61	0x3d530c2d	0.051525284
62	0xbd25bf50	-0.040465653
63	0x3d8b4897	0.06800955
64	0x3dcc5380	0.09976864
65	0xbe1ef29d	-0.15522237
66	0x3ddf2dee	0.10897432
67	0xbb000c35	-0.0019538526
68	0x3cce688b	0.025196334
69	0xbe810e00	-0.25205994
70	0xbe155b1e	-0.1458554
71	0xbf0ef0c9	-0.5583616
72	0x3e8663d8	0.2624805
73	0xbf4a334c	-0.7898452
74	0x3ed7d213	0.4215246
75	0x3e3752cf	0.17902683
76	0x3ea9d678	0.3317144
77	0x3e6d3b42	0.23167136
78	0xbf0ca477	-0.54938453
79	0x3e152801	0.14566042
80	0x3e046f1c	0.1293301
81	0xbda0172a	-0.07816918
82	0xbcba797d	-0.022763008
83	0xbe77644b	-0.24159352
84	0x3dda574d	0.106611826
85	0xbe54f778	-0.20797527
86	0xbe751a7d	-0.23935886
87	0x3da0798f	0.078356855
88	0xbe34dd07	-0.1766244
89	0xbeac978d	-0.33709374
90	0x3e42716f	0.18988584
91	0x3ee02927	0.43781397
92	0x3dd59277	0.104283266
93	0x3da7ecc4	0.08199456
94	0xbd945fd5	-0.07244841
95	0xbe56286d	-0.20913859
96	0xbe6aea18	-0.22940862
97	0x3e492f66	0.19646987
98	0xbde53aef	-0.11192881
99	0x3d3ca7b7	0.046058383
100	0xbdf9efe5	-0.122039594
101	0xbe8ed442	-0.27896315
102	0xbec8de9e	-0.39232343
103	0x3f2adb94	0.667413
104	0xbe215967	-0.1575676
105	0xbdb68cc7	-0.0891357
106	0xbe18e8f0	-0.14932609
107	0xbdab429b	-0.08362313
108	0x3deb6c8e	0.114953145
109	0x3ede2d81	0.43394092
110	0xbb87de30	-0.00414636
111	0x3e86380d	0.26214638
112	0x3e4a7bb5	0.19773753
113	0x3f01e0c0	0.50733566
114	0x3da5e07f	0.0809946
115	0x3ef82d00	0.48471832
116	0x3e1ecdd9	0.15508212
117	0xbe51b12a	-0.20477739
118	0x3ec8ddba	0.39231664
119	0xbe882683	-0.26591882
120	0x3d640b44	0.055674806
121	0x3e84ceb1	0.25938943
122	0xbe802aff	-0.25032803
123	0xbe56458a	-0.20924965
124	0xbe8ed55a	-0.2789715
125	0x3e685a4b	0.22690694
126	0xbe3e93c4	-0.18611056
127	0x3e324744	0.17409998
128	0x3e427617	0.1899036
129	0xbd8241f5	-0.063602366
130	0xbeb36cdc	-0.3504399
131	0x3dc607f9	0.096694894
132	0xbeb84921	-0.35993293
133	0xbc9b159c	-0.018931203
134	0x3e682a17	0.22672306
135	0xbea055db	-0.31315503
136	0x3e882222	0.2658854
137	0xbe1addc0	-0.15123653
138	0x3e28893c	0.16458601
139	0xbcbf9505	-0.023386488
140	0xbdb70b11	-0.089376576
141	0xbe628be3	-0.22123675
142	0x3ea167c8	0.3152449
143	0xbe4a37b0	-0.19747806
144	0xbd938769	-0.07203562
145	0xbd54bde8	-0.05193892
146	0xbee1f9b8	-0.44135833
147	0xbd8ba64e	-0.068188295
148	0xbe6d8c70	-0.23198104
149	0xbe62062a	-0.22072664
150	0xbe9c4925	-0.30524555
151	0xbf368142	-0.7129098
152	0xbe8943d6	-0.26809567
153	0xbd8be336	-0.068304464
154	0xbde35934	-0.111009985
155	0xbd8ecf9d	-0.06973193
156	0x3e8631f2	0.2620998
157	0x3d310748	0.043219835
158	0xbd256286	-0.040377162
159	0xbeddb8ca	-0.43305045
160	0x3ee98e7b	0.45616516
161	0xbc881019	-0.016609238
162	0xbdf80d82	-0.121119514
163	0x3d1be473	0.038059663
164	0x3d62f9ca	0.055414
165	0x3ebf0331	0.37307122
166	0x3e1249f8	0.1428603
167	0xbe93f00a	-0.28894073
168	0xbda60dee	-0.081081256
169	0xbc973bb6	-0.01846109
170	0xbc436cc0	-0.0119277835
171	0x3e8453fa	0.2584532
172	0x3eb0fa9a	0.34566194
173	0xbe6d64a1	-0.23182918
174	0x3e1a3051	0.15057494
175	0x3e28f0a9	0.16498055
176	0xbe7aca28	-0.24491179
177	0x3e7348d6	0.23758253
178	0x3e54abf2	0.20768717
179	0x3e2497c5	0.1607352
180	0x3cc873d8	0.024469301
181	0x3e0e642d	0.13905402
182	0x3d3a5e79	0.045500252
183	0xbf184778	-0.5948405
184	0x3ebf461e	0.37358183
185	0x3e2cebe5	0.16886862
186	0x3e376b05	0.17911918
187	0xbe3fa9cf	-0.1871712
188	0x3e89c290	0.26906252
189	0x3f25b4a8	0.64728785
190	0x3e25d200	0.1619339
191	0xbe7fdab0	-0.24985766
192	0xbe4048dd	-0.18777795
193	0xbdde4445	-0.10852865
194	0xbf0c96a3	-0.54917353
195	0x3ea289fb	0.31745896
196	0xbe3ceb23	-0.18449073
197	0xbdd1fee2	-0.10253693
198	0xbe01fbec	-0.12693757
199	0x3d661ea0	0.05618155
200	0x3e4e6d10	0.20158792
201	0x3e892ca2	0.26791865
202	0x3e3e71d0	0.18598104
203	0x3e660e88	0.2246648
204	0x3e90cf3f	0.28283116
205	0xbdb029bf	-0.086017124
206	0xbea14a05	-0.31501785
207	0x3f1cea57	0.61295074
208	0xbe887f3e	-0.26659578
209	0x3dc3f987	0.09569078
210	0xbe667ed2	-0.22509316
211	0x3dede24a	0.11615427
212	0x3df76fcd	0.12081871
213	0x3e0f7553	0.140096
214	0xbe7bd87d	-0.24594302
215	0xbe9149ef	-0.2837672
216	0x3e6c64fc	0.23085397
217	0x3d88b38e	0.06674872
218	0x3efed3e6	0.4977104
219	0xbea359bb	-0.31904396
220	0x3ebd9d7d	0.37034217
221	0x3e71a126	0.2359663
222	0x3dc48baf	0.09596955
223	0xbdd70280	-0.10498524
224	0xbe47600d	-0.19470234
225	0xbe3f67b8	-0.1869191
226	0x3ea55888	0.32294106
227	0x3b99b900	0.004691243
228	0x3e134361	0.14381172
229	0x3e8b0c40	0.27157784
230	0xbf0d96e5	-0.5530837
231	0xbdcc7121	-0.09982515
232	0xbee37cca	-0.44431144
233	0xbef567cd	-0.47930756
234	0x3c8689a5	0.016423056
235	0xbd4ed19e	-0.050492875
236	0x3e9100e7	0.28321
237	0x3edfdd8e	0.4372372
238	0xbe7632a5	-0.24042757
239	0xbd1389fa	-0.036020257
240	0x3f10cde7	0.5656418
241	0xbcf92ba5	-0.03041632
242	0x3e42d0e2	0.19024995
243	0xbeaa52d0	-0.33266306
244	0x3e876228	0.26442075
245	0x3dc517f9	0.09623713
246	0xbd814584	-0.06312087
247	0x3e5a218a	0.21301857
248	0xbccc1bda	-0.024915624
249	0x3ddcfff3	0.10791006
250	0xbcfb81d2	-0.030701552
251	0x3d3e2ac7	0.046427514
252	0xbce46fd0	-0.027885348
253	0x3e7834b7	0.24238859
254	0xbe25f84d	-0.16208
255	0x3ed1d3b2	0.40981823

weights_list f4 [32, 32]
0	0x3dbf5f90	0.09344399
1	0xbe861bfb	-0.26193222
2	0xbee28224	-0.44239914
3	0x3f0f30c1	0.5593377
4	0x3c18c20c	0.009323608
5	0x3e2a7121	0.16644718
6	0xbeaf5ee3	-0.3425208
7	0x3d4c5ab4	0.04989119
8	0xbe9b4563	-0.30326375
9	0xbe4006df	-0.18752621
10	0xbdb65d40	-0.08904505
11	0xbd75969c	-0.059958085
12	0x3f1acfa1	0.60473067
13	0xbe97c285	-0.29640594
14	0x3ea988c7	0.33112165
15	0x3de91744	0.11381391
16	0xbe4955a4	-0.19661576
17	0x3da2c222	0.07947184
18	0x3e7e9d46	0.24864683
19	0x3d8bc295	0.06824223
20	0xbee88bf6	-0.45419282
21	0x3e503993	0.20334463
22	0x3e3c307b	0.18377869
23	0xbe0de477	-0.13856684
24	0x3e8379b8	0.25678802
25	0xbe82b234	-0.25526583
26	0x3e78a8cf	0.24283145
27	0x3e1f6d61	0.15569068
28	0x3e9398f2	0.28827626
29	0xbe348ca5	-0.17631777
30	0xbe8c5736	-0.27410287
31	0x3b98d3f6	0.0046639396
32	0xbe915edf	-0.28392693
33	0xbd1791e4	-0.037004367
34	0xbdc082e1	-0.09399963
35	0x3ccb031e	0.02478176
36	0x3e02447d	0.12721439
37	0xbe52981b	-0.20565836
38	0xbf1389bb	-0.57632035
39	0xbe3321ef	-0.17493413
40	0x3e538a2e	0.2065818
41	0x3e332e90	0.17498231
42	0xbe21b41e	-0.15791366
43	0xbe857dbb	-0.26072487
44	0xbe5c1efa	-0.21496192
45	0x3df99ef3	0.1218852
46	0xbe8032ab	-0.25038657
47	0xbf1e93a4	-0.6194403
48	0xbd9448bf	-0.07240438
49	0xbe777559	-0.24165858
50	0xbe5cb1c6	-0.2155219
51	0xbd9f920f	-0.0779153
52	0x3c507aec	0.012724619
53	0x3eb10e0a	0.34581023
54	0x3e9556d3	0.29167804
55	0xbd651502	-0.055928238
56	0xbd17727b	-0.03697441
57	0x3e1afc1e	0.15135238
58	0xbd4ef891	-0.05053002
59	0x3dc6945b	0.09696265
60	0x3edcfcc7	0.43161604
61	0xbeabb4db	-0.3353642
62	0x3edcae96	0.43101948
63	0xbe25d4c1	-0.1619444
64	0x3dce6c46	0.10079245
65	0x3cb8b4e1	0.022547187
66	0xbdda392f	-0.10655438
67	0xbe8af56e	-0.27140373
68	0x3ebb7cf0	0.36618757
69	0x3f2f6283	0.6850969
70	0x3f401fcf	0.75048536
71	0xbe210091	-0.15722872
72	0xbe892a53	-0.26790103
73	0x3e59ffd1	0.21288992
74	0xbe1b888b	-0.15188806
75	0x3e88d449	0.2672446
76	0x3e977039	0.29577807
77	0xbde1ecc7	-0.1103149
78	0x3e3c903b	0.18414395
79	0xbe92a57a	-0.28641874
80	0xbcafa0ca	-0.021438975
81	0x3ecbbb18	0.3979118
82	0x3e8b803e	0.2724628
83	0x3f16c7ff	0.5889892
84	0x3e759fb4	0.23986703
85	0x3e1d6a27	0.15372525
86	0xbd72c8b7	-0.059273448
87	0xbe82c3b5	-0.25539938
88	0xbf1ca0db	-0.61182946
89	0xbec7a569	-0.38993385
90	0xbebcc23c	-0.3686694
91	0x3d9686be	0.07349919
92	0x3ea50ce9	0.32236412
93	0x3edd6942	0.43244368
94	0xbe384d56	-0.17998251
95	0x3d453b9b	0.048152547
96	0x3f16badb	0.5887887
97	0x3e341d87	0.17589389
98	0xbebae0c8	-0.3649962
99	0xbe5be6bb	-0.21474735
100	0x3c96186c	0.018322192
101	0xbea42ec2	-0.32066923
102	0xbf34854f	-0.7051591
103	0x3eafc37c	0.3432883
104	0xbc4251be	-0.011860309
105	0xbebfbb4e	-0.3744759
106	0xbe618056	-0.22021613
107	0xbd86fa33	-0.065906905
108	0x3ec1bb20	0.37838078
109	0x3de7c913	0.11317649
110	0xbe3ec2a2	-0.18628934
111	0xbbcc232a	-0.006229778
112	0x3e133c13	0.14378385
113	0xbed59922	-0.41718394
114	0x3df7eab3	0.12105312
115	0xbf06f1bb	-0.527126
116	0x3cb3a23c	0.021927945
117	0xbe3da5c1	-0.18520261
118	0xbe8648d2	-0.26227432
119	0x3c0e1114	0.008671064
120	0x3dd6fef3	0.104978465
121	0x3d32549f	0.043537732
122	0x3e7c1d87	0.24620639
123	0xbce0cfdb	-0.027442863
124	0xbe933624	-0.28752244
125	0xbf48a06c	-0.78369784
126	0xbd4c69cf	-0.049905594
127	0xbf2c8dfa	-0.6740414
128	0xbd38cab9	-0.045115206
129	0x3f8412b6	1.031821
130	0xbec02cf1	-0.37534288
131	0x3d356d66	0.044293784
132	0xbefafa94	-0.490193
133	0xbef3525b	-0.4752377
134	0xbe033527	-0.12813245
135	0x3f2c975b	0.6741845
136	0xbf65be3b	-0.89743394
137	0xbe9c05cb	-0.3047317
138	0x3ec06551	0.37577298
139	0xbeb57b79	-0.35445765
140	0x3ea834a6	0.32852668
141	0x3d80bc21	0.06285883
142	0xbe24e211	-0.16101862
143	0xbed9b49b	-0.42520604
144	0xbda44103	-0.080202125
145	0x3ed50954	0.4160868
146	0x3e622e25	0.22087915
147	0x3f050efb	0.51975983
148	0xbd98f41e	-0.07468437
149	0x3eafa231	0.3430343
150	0x3e02d676	0.12777123
151	0xbe87dc82	-0.26535422
152	0x3ef7d183	0.48402032
153	0x3f75c927	0.9601006
154	0x3e2f9110	0.1714518
155	0x3e99c6d2	0.300345
156	0x3efb0e06	0.49034137
157	0xbe78813a	-0.24268046
158	0xbd58a21a	-0.052888967
159	0x3d9ff7d1	0.07810939
160	0xbe038614	-0.12844115
161	0xbe632838	-0.22183311
162	0x3c457674	0.012052167
163	0xbdfcb71b	-0.12339612
164	0x3c84b176	0.016197901
165	0x3ea95e71	0.33079866
166	0xbe2cde8f	-0.16881774
167	0x3e8a91f5	0.2706448
168	0xbe8c43ac	-0.2739538
169	0xbe4fb792	-0.2028487
170	0x3f15031d	0.58207875
171	0x3d47dd39	0.04879496
172	0x3d62b1af	0.055345234
173	0xbe34b26c	-0.17646188
174	0xbde6997b	-0.11259743
175	0x3dd3eddf	0.10348105
176	0xbe830c4a	-0.25595313
177	0x3f075df8	0.5287776
178	0x3ea01738	0.31267715
179	0x3f0b4ef7	0.54417366
180	0xbcebd5f4	-0.028788544
181	0x3ed23f31	0.41063836
182	0x3d90e44a	0.07074793
183	0x3e3322d8	0.1749376
184	0x3e345764	0.17611462
185	0x3eb8f4a1	0.36124137
186	0xbe378ec8	-0.1792556
187	0x3d0e0010	0.03466803
188	0x3e7d5c07	0.24742137
189	0xbdf310b7	-0.118684225
190	0xbe9ab5ac	-0.3021673
191	0x3e376bf8	0.1791228
192	0x3e064e23	0.13115744
193	0x3e030a0f	0.12796806
194	0xbe7a1eb6	-0.24425778
195	0x3ea2186b	0.31659254
196	0x3eb3b9ed	0.35102788
197	0x3eab2296	0.33424824
198	0x3f02cdc0	0.510952
199	0x3b99f26a	0.0046980875
200	0xbe43fa56	-0.19138464
201	0x3e62b187	0.22138034
202	0xbd887a5f	-0.066639654
203	0x3dfa7b8a	0.122305945
204	0x3d881635	0.06644861
205	0x3e9936b2	0.29924542
206	0xbe3777b0	-0.17916751
207	0x3e9a56e0	0.30144405
208	0xbe0b8cb1	-0.13627888
209	0xbd8b2675	-0.067944445
210	0xbc81c4d0	-0.015840918
211	0x3e724d50	0.23662305
212	0x3d3efc1e	0.046627156
213	0x3e0f1811	0.13974024
214	0xbe5a5a78	-0.21323574
215	0xbf013923	-0.5047781
216	0xbe6e6db0	-0.2328403
217	0xbeacc726	-0.33745688
218	0xbe486d01	-0.19572832
219	0xbc5be6f7	-0.0134217655
220	0x3e77090c	0.24124545
221	0x3eedfdf5	0.46482816
222	0xbe9e304c	-0.30896223
223	0x3ea8ddd3	0.32981738
224	0xbd259179	-0.040421937
225	0xbd84e96a	-0.06489833
226	0xbdbf1bb9	-0.093314596
227	0x3deb628b	0.11493405
228	0x3d0a4fd3	0.033767533
229	0xbf05e044	-0.5229533
230	0xbb475fb5	-0.0030422036
231	0x3ccd06a7	0.025027586
232	0x3e161dae	0.1465976
233	0x3d9057cb	0.07047995
234	0xbbb1382e	-0.0054083085
235	0xbee17303	-0.4403306
236	0xbd06ff2c	-0.032958195
237	0xbd22d0a0	-0.03974974
238	0xbddc31e5	-0.10751704
239	0xbe8c6552	-0.2742105
240	0xbe88527f	-0.2662544
241	0xbe06e1c9	-0.13172068
242	0x3c3be84b	0.011468957
243	0x3e0dff81	0.13866998
244	0x3e702f66	0.23455581
245	0x3e65f32e	0.22456047
246	0x3e347b81	0.17625238
247	0xbf38c12c	-0.72169757
248	0xbe28644c	-0.1644451
249	0x3dc4ad3c	0.09603354
250	0x3d8cb1d7	0.06869858
251	0xbddfea1a	-0.10933323
252	0xbdfd52e4	-0.12369326
253	0xbd9a3b81	-0.07530881
254	0xbbc18091	-0.005905219
255	0xbdd83ecf	-0.10558855

weights_list f4 [32, 32]
0	0xbde83e12	-0.11339964
1	0x3e1f436b	0.15553062
2	0xbdea2fe7	-0.11434918
3	0x3d745919	0.059655283
4	0x3e6b6d3e	0.22990891
5	0xbef20683	-0.47270593
6	0x3e7d740a	0.24751297
7	0x3ee10bda	0.43954355
8	0x3caff56c	0.021479331
9	0x3d09542a	0.03352753
10	0xbe097f98	-0.1342758
11	0x3d5a936b	0.053363245
12	0xbe8b407b	-0.27197632
13	0xbd6373c7	-0.055530336
14	0x3e281fda	0.164184
15	0x3e49eb14	0.19718581
16	0xbd4e9bef	-0.05044168
17	0x3dde3ab5	0.10851041
18	0xbc50261b	-0.012704398
19	0x3e377c27	0.17918454
20	0xbdc2ee0d	-0.09518061
21	0xbded0ef5	-0.115751185
22	0x3dce4475	0.10071651
23	0x3de45828	0.11149627
24	0x3e903707	0.28166983
25	0xbcc74950	-0.02432695
26	0x3cb2e1e2	0.021836225
27	0x3cdac886	0.026706945
28	0x3dcfc170	0.10144317
29	0x3d06a64d	0.03287344
30	0x3e9c16ae	0.30486053
31	0x3e8bbc92	0.27292305
32	0xbeabda43	-0.33564958
33	0xbdb82b2a	-0.08992608
34	0x3e0530a0	0.1300683
35	0x3cfc07f8	0.030765519
36	0xbea0137b	-0.31264862
37	0x3e7a03ca	0.24415508
38	0xbe3933fb	-0.18086235
39	0xbdd0494c	-0.1017023
40	0xbf249c5c	-0.64301085
41	0xbe7228b2	-0.23648337
42	0xbe4aeb3e	-0.198163
43	0x3e80afee	0.25134224
44	0xbe2d66c3	-0.16933732
45	0xbe4e627f	-0.20154761
46	0x3ad607af	0.0016329194
47	0x3e983c23	0.2973338
48	0xbe8510e0	-0.25989437
49	0xbe34cf26	-0.17657146
50	0x3eb7d8cd	0.35907593
51	0x3e243d2b	0.16038959
52	0xbe4ca593	-0.19985037
53	0x3eda1836	0.42596596
54	0xbe42c711	-0.1902125
55	0x3db136d2	0.08653034
56	0xbebe82df	-0.37209222
57	0xbf347001	-0.70483404
58	0x3dfa47a5	0.12220696
59	0xbed43e41	-0.41453746
60	0xbed929ed	-0.424148
61	0x3eec3db5	0.4614083
62	0x3de95d1c	0.11394712
63	0xbe2d0a3b	-0.16898434
64	0xbd6d4a84	-0.05793239
65	0x3d1a20a8	0.0376288
66	0x3e7aa32d	0.24476309
67	0xbd1730bb	-0.036911707
68	0xbe2c1d01	-0.16807939
69	0x3e5d6618	0.21620977
70	0xbd56b467	-0.05241814
71	0xbd1a42ba	-0.03766129
72	0xbf198a26	-0.5997642
73	0xbd826f28	-0.063688576
74	0x3db3a1c1	0.087710865
75	0x3ebc5457	0.36783096
76	0x3e7982ba	0.24366274
77	0xbe66c0b0	-0.22534442
78	0x3dc6b8f0	0.09703243
79	0x3e8d32e4	0.2757789
80	0xbdba727e	-0.09103869
81	0xbe1b8479	-0.15187253
82	0x3ea7d4c0	0.32779503
83	0x3e3d1bdd	0.1846766
84	0x3e729b3a	0.23692027
85	0x3e51f1ad	0.20502348
86	0xbde659b3	-0.112475775
87	0x3d6f580b	0.058433574
88	0xbe7ceab5	-0.24698909
89	0xbd424e02	-0.047437675
90	0x3daf0a92	0.08546938
91	0x3de27481	0.110573776
92	0x3e14a4f0	0.14516044
93	0xbde0ea17	-0.10982149
94	0x3d19dd52	0.037564583
95	0xbe56eafe	-0.2098808
96	0xbe8ffa35	-0.2812058
97	0xbd5cbf08	-0.05389312
98	0xbdd68778	-0.10475057
99	0xbe7d5675	-0.24740012
100	0xbee2c5a6	-0.4429142
101	0x3e882f15	0.2659842
102	0xbcc137b5	-0.023586133
103	0xbedad4f0	-0.42740583
104	0xbec65a1d	-0.38740626
105	0x3db81742	0.08988811
106	0xbb2b3b67	-0.0026127936
107	0xbde7b728	-0.11314231
108	0x3e92e20d	0.28688088
109	0xbdbc4d5c	-0.09194443
110	0xbc771006	-0.015079504
111	0x3e81c686	0.25346774
112	0x3e75a479	0.23988523
113	0xbca1924c	-0.01972308
114	0x3e6e92b8	0.23298156
115	0x3e395d54	0.18102008
116	0x3da5d4fa	0.08097263
117	0x3ef47db2	0.47752148
118	0xbcf08a19	-0.029362725
119	0x3e0a4087	0.13501178
120	0x3f02e5f9	0.5113216
121	0xbea3db81	-0.32003406
122	0x3e7e67d6	0.24844298
123	0x3b1bcf3b	0.0023774642
124	0x3e931b0e	0.2873158
125	0xbdb6d555	-0.089274086
126	0x3e4c2c49	0.19938768
127	0x3c841dad	0.016127432
128	0xbec5f443	-0.3866292
129	0x3e02d969	0.12778248
130	0xbef4eefc	-0.4783858
131	0x3e8bb6b4	0.2728783
132	0x3f1aec71	0.6051703
133	0x3e95159b	0.29118046
134	0xbe0a4d03	-0.1350594
135	0x3f4001ec	0.7500293
136	0x3f366f6b	0.7126376
137	0xbdcb9e02	-0.09942247
138	0xbe859ceb	-0.2609628
139	0xbf6dff84	-0.9296801
140	0x3e1520ee	0.14563343
141	0x3ef06271	0.46950105
142	0x3e01c0fc	0.12671274
143	0x3d65971a	0.056052305
144	0x3f9c2fa9	1.2202045
145	0xbe6e71ca	-0.23285595
146	0xbc38039b	-0.011231328
147	0xbe2f3d10	-0.17113137
148	0xbe8f49c9	-0.2798598
149	0xbf4f8b68	-0.8107209
150	0x3ea82afc	0.32845294
151	0xbf57dd3a	-0.8432194
152	0xbe0495b9	-0.1294774
153	0x3f2711f8	0.65261793
154	0xbdfeeb1e	-0.12447189
155	0x3f09b97c	0.5379865
156	0xbed7e30f	-0.4216542
157	0xbeb0b9fd	-0.34516898
158	0x3ef03771	0.46917298
159	0xbeb1abec	-0.34701478
160	0x3d026865	0.03183784
161	0x3da08cee	0.0783938
162	0xbcb27969	-0.021786408
163	0xbd173445	-0.036915082
164	0x3e0970c0	0.13421917
165	0xbccfb4e3	-0.025354808
166	0xbc875b09	-0.016522901
167	0xbcfac1d3	-0.03061
168	0x3ecf8e34	0.4053818
169	0xbd2e11d4	-0.04249747
170	0x3df2cb54	0.11855188
171	0xbc24048d	-0.010010851
172	0x3e9ef788	0.31048226
173	0xbc941a99	-0.018079089
174	0x3dd9eabf	0.106404774
175	0x3d2ec213	0.042665552
176	0x3e860437	0.2617509
177	0x3c9b7281	0.018975498
178	0x3e26e595	0.16298516
179	0x3d104bd4	0.035228565
180	0x3e042e79	0.12908353
181	0x3e9cd5ba	0.3063181
182	0xbedec694	-0.43510878
183	0xbd0a66e3	-0.033789527
184	0xbe823e5c	-0.254382
185	0xbd3f217d	-0.046662796
186	0x3e49b907	0.19699489
187	0xbe8d04dd	-0.27542773
188	0x3cbf4fea	0.023353536
189	0x3e1ecaba	0.15507022
190	0x3e483c69	0.19554295
191	0xbe81e065	-0.25366512
192	0x3eadd794	0.33953536
193	0xbebb4b15	-0.3658072
194	0x3e7772b9	0.24164857
195	0xbe089291	-0.1333716
196	0xbe27e79c	-0.16396946
197	0xbe5c0f6b	-0.21490256
198	0x3f0c0faa	0.547114
199	0x3d3ac2bb	0.045595866
200	0xbf04891a	-0.517717
201	0xbeacdb72	-0.33761173
202	0x3e8ca705	0.27471176
203	0x3eed456b	0.46342024
204	0x3b8a2c8d	0.0042167366
205	0x3be42857	0.0069628167
206	0x3dc97b83	0.09838011
207	0x3eaee790	0.34161043
208	0xbe8cd664	-0.27507317
209	0xbebd5ccf	-0.3698487
210	0x3e81fc81	0.25387958
211	0xbe3fd9d9	-0.18735446
212	0xbe805a02	-0.2506867
213	0xbc8f0430	-0.017458051
214	0x3e711e11	0.23546626
215	0x3c6af067	0.014339543
216	0x3ed33914	0.41254485
217	0x3c0e7105	0.008693938
218	0x3c9d9dd9	0.019240307
219	0x3dc182b3	0.09448757
220	0x3d5f5cbe	0.054531805
221	0x3ef4429e	0.47707075
222	0xbdbd7a86	-0.09251885
223	0x3bfd31c5	0.0077268803
224	0x3e5ea18f	0.21741317
225	0xbe58e907	-0.21182643
226	0x3c7f9d1a	0.015601421
227	0xbdb20345	-0.0869203
228	0xbea8da45	-0.32979026
229	0x3e7b0f48	0.24517548
230	0xbe82af26	-0.25524253
231	0x3e9b4c7f	0.303318
232	0x3eafb41c	0.343171
233	0x3eb72ea2	0.35777766
234	0xbda3b4b0	-0.07993448
235	0xbed5f3fa	-0.41787702
236	0x3cdefb68	0.02721949
237	0x3e9bf994	0.3046385
238	0xbca5d3de	-0.020242628
239	0x3e6e8f3c	0.23296827
240	0xbd871cda	-0.065973
241	0x3f478d7d	0.7795027
242	0x3dc2dc5f	0.09514689
243	0xbdf36bd5	-0.11885802
244	0x3e8df27e	0.2772407
245	0xbdbf5059	-0.09341497
246	0xbe0dd33a	-0.13850108
247	0x3ef99ca6	0.48752326
248	0x3dd82902	0.105546966
249	0x3f23bdf4	0.6396172
250	0xbeecc690	-0.4624524
251	0x3e3f7a47	0.18698989
252	0x3e4c840e	0.1997225
253	0x3ddbd8ea	0.107347324
254	0xbe5cff73	-0.21581821
255	0xbcc1644b	-0.023607394

weights_list f4 [32, 32]
0	0x3c345037	0.011005453
1	0xbea6d0d5	-0.325812
2	0xbee93482	-0.45547873
3	0xbed387fb	-0.41314682
4	0x3f65e50d	0.8980263
5	0x3ddba2ab	0.10724386
6	0xbf7c7aa0	-0.9862461
7	0xbd408707	-0.047003772
8	0x3ca65280	0.020303011
9	0xbe863479	-0.26211908
10	0xbd789e99	-0.060698126
11	0x3e8192cb	0.25307307
12	0xbed28330	-0.41115713
13	0x3d0c1681	0.03420115
14	0xbeee6cc9	-0.4656737
15	0xbe09cfc9	-0.1345817
16	0xbedb6509	-0.4285052
17	0x3e682e41	0.22673894
18	0x3e61385f	0.2199416
19	0x3ea7c191	0.32764867
20	0x3e8afc5a	0.27145654
21	0x3e8ca6d2	0.27471024
22	0x3e8b52e7	0.27211687
23	0xbdf0f228	-0.11764938
24	0xbb96b25d	-0.0045988993
25	0x3d32d920	0.043664098
26	0xbc3b70ed	-0.011440498
27	0x3e583898	0.21115339
28	0x3ca85849	0.02054991
29	0x3e1962e3	0.14979129
30	0x3dd7b528	0.105326
31	0x3bb3f8ed	0.0054923207
32	0xbe6f39df	-0.2336192
33	0xbea71275	-0.3263127
34	0x3e84a639	0.25908068
35	0x3d08cee9	0.03340045
36	0x3e724d9e	0.23662421
37	0x3e0ae0fe	0.1356239
38	0xbdccfe00	-0.10009384
39	0xbd8bc126	-0.068239495
40	0x3c6ccd5e	0.01445326
41	0x3ead53c9	0.33852986
42	0x3ea4768e	0.321217
43	0xbd2a8848	-0.041633874
44	0x3df32c7e	0.118737206
45	0xbd824674	-0.06361094
46	0xbf002fea	-0.5007311
47	0xbe773f50	-0.24145246
48	0xbec4b298	-0.38417506
49	0x3e50ff45	0.20409878
50	0x3e3b928f	0.18317626
51	0x3f2841ef	0.65725607
52	0xbeafe608	-0.34355187
53	0xbed2127c	-0.41029727
54	0xbd871785	-0.06596283
55	0x3ed84232	0.42238003
56	0x3ea75ff5	0.32690397
57	0x3f121e39	0.57077366
58	0xbead8258	-0.33888507
59	0x3dcc69d6	0.09981124
60	0x3e3fe5b2	0.18739966
61	0x3e9db369	0.30800942
62	0xbd008aef	-0.031382497
63	0xbeb01762	-0.3439284
64	0x3e742616	0.23842654
65	0xbe960084	-0.29297268
66	0x3d2dbc43	0.04241587
67	0xbafd7262	-0.0019336457
68	0x3ef8816e	0.48536247
69	0x3de9ed08	0.11422163
70	0xbcb61148	-0.022225037
71	0xbd4c8350	-0.049929917
72	0x3e16bf7b	0.14721482
73	0x3e3bf9e8	0.1835705
74	0x3dae3a27	0.085071854
75	0x3ea8b7b0	0.32952642
76	0x3d23a304	0.039950386
77	0xbe8d8971	-0.27643922
78	0x3de8a078	0.11358732
79	0xbe942689	-0.2893565
80	0xbe6afb1e	-0.22947356
81	0x3ecbe2c8	0.39821458
82	0x3db33dd8	0.0875203
83	0xbd674bb7	-0.05646869
84	0xbd01e359	-0.031710956
85	0x3e210f9a	0.15728608
86	0x3e9cb006	0.30603045
87	0x3eb8ebe3	0.36117467
88	0xbe8bd7e8	-0.2731316
89	0xbd8733cd	-0.06601677
90	0xbe48aebb	-0.19597904
91	0xbd35cfbc	-0.044387564
92	0xbd235e2d	-0.039884735
93	0x3ee349ec	0.44392335
94	0x3dba1408	0.09085852
95	0xbe4152e3	-0.18879275
96	0x3e71c48a	0.2361013
97	0x3e07b749	0.13253511
98	0x3ea9e938	0.33185744
99	0x3bf05015	0.0073337653
100	0x3e10b54f	0.14131664
101	0xbddbc50a	-0.107309416
102	0xbf368a0c	-0.7130439
103	0x3e5612c8	0.20905602
104	0x3d6fe222	0.058565266
105	0x3ea5881a	0.323304
106	0xbd61074b	-0.054938596
107	0xbcd00fe0	-0.025398195
108	0x3e180688	0.14846241
109	0x3e67198c	0.22568339
110	0x3e2736f9	0.16329564
111	0x3e3decad	0.18547316
112	0xbe16ffac	-0.14745969
113	0xbdbe93b3	-0.09305515
114	0x3d88aa06	0.066730544
115	0x3e65421a	0.22388497
116	0x3c67838e	0.014130486
117	0xbd7d80d9	-0.061890457
118	0x3e6034ef	0.21895193
119	0x3e54bcea	0.2077519
120	0x3d5fb2e0	0.054613948
121	0xbe8468b0	-0.2586112
122	0x3e95c6b2	0.29253155
123	0xbe1cafe0	-0.15301466
124	0xbe9fb2c7	-0.31191084
125	0xbe3f138e	-0.18659803
126	0xbe5e99c8	-0.2173835
127	0xbdb543c9	-0.088508196
128	0x3cf205c2	0.029543761
129	0xbd1f973b	-0.038962584
130	0x3c71d5bf	0.014760434
131	0x3e59fc60	0.2128768
132	0x3ea75d2e	0.32688278
133	0x3f38724f	0.7204942
134	0xbdc4a13f	-0.09601068
135	0xbe4514ee	-0.19246265
136	0xbeace7cd	-0.337706
137	0xbf81c873	-1.0139297
138	0xbee485c1	-0.44633296
139	0xbee84be7	-0.4537041
140	0x3f1c6489	0.61090904
141	0xbe687f84	-0.22704893
142	0xbe53b444	-0.20674235
143	0xbea04f8b	-0.31310686
144	0xbf8ec061	-1.1152459
145	0xbd9bea25	-0.07613019
146	0x3d1a2f34	0.037642673
147	0x3ec1aee5	0.37828746
148	0xbed75dee	-0.4206385
149	0xbdf4afd1	-0.11947597
150	0xbe9f01e3	-0.31056127
151	0x3e87c0f1	0.2651439
152	0xbd21062d	-0.03931253
153	0x3d6916c8	0.05690649
154	0xbf0c6bd7	-0.5485205
155	0x3eb9b9ff	0.36274716
156	0xbeb09a08	-0.34492517
157	0xbe7bc83b	-0.245881
158	0xbe6bcae2	-0.23026612
159	0xbe71d102	-0.23614886
160	0xbda84f2c	-0.08218226
161	0x3eaf068d	0.34184685
162	0x3d494db6	0.049146377
163	0xbe950b3f	-0.29110143
164	0xbd91e70c	-0.07124147
165	0xbe519584	-0.20467192
166	0x3e9a4a88	0.30134988
167	0x3e011da9	0.1260897
168	0x3db3d7c3	0.08781388
169	0xbde21dea	-0.11040862
170	0xbe6f795d	-0.2338614
171	0x3ec4a045	0.38403526
172	0x3e67945a	0.22615185
173	0x3df30b5e	0.118674025
174	0xbe9886ff	-0.29790494
175	0x3e903ef8	0.2817304
176	0x3c975061	0.018470945
177	0x3ea16e90	0.31529665
178	0xbe410739	-0.18850411
179	0xbe9876f2	-0.29778248
180	0xbede8711	-0.43462422
181	0x3df8ea65	0.12154082
182	0xbe1046c7	-0.140895
183	0xbe114139	-0.14185037
184	0xbf311a0f	-0.6918039
185	0xbc263e51	-0.010146693
186	0x3e81045b	0.25198635
187	0xbe7c447f	-0.24635504
188	0x3e9018bd	0.28143874
189	0xbe320307	-0.17383967
190	0x3c9b04ab	0.018923124
191	0x3ebcd8b4	0.3688408
192	0xbd11ca78	-0.03559348
193	0x3d11d4b8	0.035603255
194	0x3dda81c3	0.10669281
195	0xbda90a38	-0.08253902
196	0xbda95e52	-0.08269943
197	0x3e7cb9b1	0.2468021
198	0xbf0e7ab7	-0.55656
199	0x3e333384	0.1750012
200	0xbedf3b11	-0.43599752
201	0x3e81d9d2	0.25361496
202	0xbe14d4a9	-0.14534248
203	0xbebab735	-0.364679
204	0x3dfdf140	0.123995304
205	0x3d8004c9	0.06250913
206	0x3e43706e	0.19085857
207	0xbd902568	-0.07038385
208	0x3d478402	0.048709877
209	0xbeb70ddd	-0.35752764
210	0x3df83c0e	0.121208295
211	0x3ec967d0	0.39337015
212	0xbcfbeef1	-0.030753585
213	0xbbf5fc1b	-0.00750686
214	0xbe92eb60	-0.28695202
215	0x3e0424a6	0.12904605
216	0xbe5404ca	-0.20704952
217	0x3e3f29ed	0.18668337
218	0x3da3c536	0.079965994
219	0x3e4921ba	0.19641772
220	0x3dbbf469	0.09177477
221	0x3e47e934	0.19522554
222	0xbd7d987d	-0.061913002
223	0x3efabe7c	0.48973453
224	0xbdea5dbf	-0.11443662
225	0xbcf43dc9	-0.029814618
226	0xbd74961e	-0.059713475
227	0xbea77e13	-0.32713374
228	0x3de7e32a	0.11322625
229	0xbf08d852	-0.5345508
230	0xbe126b18	-0.14298666
231	0x3f1ea009	0.61962944
232	0x3e5c991f	0.21542786
233	0x3db4c788	0.0882712
234	0x3e457995	0.19284661
235	0x3d23fd23	0.04003633
236	0x3ed7f003	0.42175302
237	0x3ebc29aa	0.36750537
238	0xbd1ec283	-0.03875972
239	0x3d590e31	0.05299205
240	0xbdce2dfe	-0.10067366
241	0x3e1b1da4	0.15148026
242	0xbd34747c	-0.0440564
243	0x3d9a7b9f	0.0754311
244	0xbbc363eb	-0.005962839
245	0xbe40e765	-0.1883827
246	0x3d3553e9	0.044269476
247	0x3eca857f	0.39554974
248	0xbda7ab0c	-0.081869215
249	0xbda6a43b	-0.08136793
250	0xbe458369	-0.1928841
251	0xbe8cf86f	-0.2753329
252	0x3defbfb1	0.11706484
253	0xbe72ece2	-0.23723176
254	0xbe341abe	-0.17588326
255	0xbe9ce9ba	-0.3064707

weights_list f4 [32, 32]
0	0x3e4b432d	0.19849844
1	0x3ede703f	0.43445012
2	0x3e7d6124	0.24744087
3	0xbddb95cf	-0.10721933
4	0xbcdc443c	-0.026888005
5	0xbe4bd9f5	-0.19907363
6	0xbdf58005	-0.119873084
7	0x3f012e56	0.5046133
8	0x3e85700b	0.26062045
9	0x3de0f179	0.10983557
10	0xbedb378f	-0.42815825
11	0xbf273ef8	-0.6533046
12	0xbd6539af	-0.055963214
13	0x3c7f96ad	0.015599889
14	0xbd2ed763	-0.042685878
15	0xbf441c55	-0.7660573
16	0x3cdd73be	0.02703273
17	0x3e49c8cf	0.19705509
18	0x3f3af310	0.73027134
19	0x3e8fff37	0.281244
20	0xbe40b31b	-0.18818323
21	0xbde5daa2	-0.112233415
22	0xbf0e60c7	-0.5561642
23	0xbeca9d6d	-0.3957323
24	0xbe97f98f	-0.29682586
25	0x3eca17cf	0.3947129
26	0xbd5d924b	-0.054094594
27	0xbd3b5a2b	-0.045740288
28	0x3ca897d2	0.020580206
29	0xbd47ea03	-0.048807155
30	0x3d42b082	0.047531612
31	0xbea112ab	-0.31459555
32	0x3d8c03b6	0.06836645
33	0xbed31c6d	-0.41232625
34	0xbe79f900	-0.24411392
35	0x3d9b8868	0.07594377
36	0xbd8f9724	-0.0701125
37	0xbdfe710c	-0.12423906
38	0xbe323ef7	-0.17406832
39	0xbdcc2a96	-0.0996906
40	0x3cd53c20	0.026029646
41	0xbd92b510	-0.07163441
42	0xbe3fa41a	-0.18714944
43	0xbd618ad8	-0.055064052
44	0xbdf3d40f	-0.11905681
45	0x3eb706ae	0.35747284
46	0x3f4aa93b	0.79164475
47	0x3e7f9fb4	0.24963266
48	0xbe2d774d	-0.16940041
49	0x3e5cb941	0.21555044
50	0x3e9893dd	0.2980031
51	0x3ed762b0	0.4206748
52	0x3eb2b5ac	0.3490423
53	0x3e0eb83e	0.1393747
54	0xbf0d5030	-0.5520048
55	0xbf16fad1	-0.58976465
56	0xbea070ab	-0.3133596
57	0x3d96a24a	0.07355173
58	0xbe2676bd	-0.16256233
59	0xbe235c4d	-0.15953179
60	0xbda7f878	-0.082016885
61	0x3daed235	0.085361876
62	0x3e2bcdc7	0.16777717
63	0x3e0053a7	0.12531911
64	0xbebbf659	-0.36711386
65	0xbf0e5e1a	-0.5561234
66	0x3e695255	0.22785313
67	0xbcaeb621	-0.02132708
68	0xbf717103	-0.9431307
69	0x3ee0e015	0.4392096
70	0xbf025b1a	-0.5092026
71	0x3efe9eea	0.49730617
72	0xbcba51de	-0.022744115
73	0x3f456144	0.7710154
74	0xbe76bf19	-0.24096335
75	0xbdbe32f7	-0.092870645
76	0xbdd94d7f	-0.10610484
77	0x3c5cd93d	0.013479528
78	0x3e87c2bf	0.26515767
79	0x3ec1804a	0.3779319
80	0x3e233801	0.15939333
81	0x3e071cf5	0.1319464
82	0xbde3d6c5	-0.111249484
83	0xbd93a2c0	-0.072087765
84	0xbd2d879f	-0.042365666
85	0x3d044237	0.03228971
86	0xbea7d3c8	-0.32778764
87	0xbe9d0e67	-0.3067505
88	0xbf49a261	-0.78763396
89	0x3e3ec65b	0.18630354
90	0xbe8fb90d	-0.2807087
91	0x3f2bdd84	0.6713488
92	0xbec251de	-0.37953085
93	0xbe5df604	-0.21675879
94	0x3dbcb67c	0.09214494
95	0x3e4b7162	0.19867471
96	0xbddd957f	-0.1081953
97	0xbee65aee	-0.4499125
98	0xbe0c599d	-0.1370606
99	0xbe80171d	-0.25017634
100	0x3e3ee946	0.18643674
101	0xbcb3eea9	-0.021964388
102	0x3eb974b6	0.36221856
103	0x3d9fa7c5	0.077956714
104	0x3dd7ae0a	0.10531242
105	0x3dc0ee49	0.09420449
106	0xbf2ab247	-0.6667828
107	0xbe96718a	-0.29383498
108	0x3d9bc227	0.07605391
109	0x3c98d5a9	0.018656569
110	0xbd8e8c24	-0.069603235
111	0xbe24bb18	-0.16086996
112	0x3ea9f397	0.33193657
113	0x3e27d563	0.16389994
114	0xbe754c0f	-0.23954795
115	0xbed3b40a	-0.41348296
116	0x3d59b325	0.05314936
117	0xbbf17e42	-0.0073697874
118	0xbebb8f4f	-0.36632773
119	0xbf12b021	-0.573
120	0xbe5819f6	-0.21103653
121	0xbe7680af	-0.24072526
122	0x3e4c782e	0.1996772
123	0xbf19c3ee	-0.6006459
124	0xbd434b56	-0.047679268
125	0x3e9264db	0.28592572
126	0x3e852fc4	0.26013005
127	0xbe3c5952	-0.18393448
128	0x3eb9828e	0.36232418
129	0xbf282e08	-0.6569524
130	0xbe66bc5b	-0.2253279
131	0xbf1a75c7	-0.60335964
132	0x3daba762	0.08381535
133	0x3dc00c52	0.0937735
134	0xbd238aa8	-0.039927155
135	0xbeb3a031	-0.35083154
136	0x3eb24646	0.3481924
137	0xbe14f937	-0.14548193
138	0xbe46c169	-0.19409718
139	0xbe81983d	-0.2531146
140	0xbe47cdd3	-0.1951211
141	0xbe642725	-0.22280557
142	0xbe9d10a8	-0.3067677
143	0x3d9a252d	0.07526622
144	0x3e8199d2	0.25312668
145	0x3df90209	0.12158591
146	0xbf13f86d	-0.5780094
147	0x3e6b9985	0.23007782
148	0x3edea113	0.43482265
149	0x3ec5b920	0.38617802
150	0xbe4c340e	-0.19941732
151	0x3d9374a3	0.07199981
152	0x3cd84cc6	0.026403796
153	0x3da8cdd4	0.082423836
154	0xbe06a32e	-0.13148186
155	0x3dcf7efd	0.10131643
156	0x3e77e141	0.24207021
157	0x3e8a3218	0.26991343
158	0xbedc7e05	-0.43064895
159	0x3e5aa3da	0.21351567
160	0xbd8987b6	-0.06715338
161	0xbd617969	-0.055047426
162	0x3cfb3e5a	0.03066938
163	0xbe060720	-0.13088655
164	0x3e790578	0.24318492
165	0xbe689da3	-0.22716384
166	0x3d832f85	0.06405548
167	0xbea4ce92	-0.3218885
168	0x3c2cb3d7	0.010540924
169	0xbe8d9977	-0.27656147
170	0xbf8bfa38	-1.0935736
171	0x3dc7912f	0.097444884
172	0xbd3f029b	-0.046633344
173	0xbd382626	-0.044958256
174	0x3c72ba8d	0.014814985
175	0xbf1b3f2a	-0.60643256
176	0xbf0f4e49	-0.5597883
177	0x3eda46a1	0.4263201
178	0x3d50eb3e	0.051005594
179	0xbe67abe4	-0.22624165
180	0xbda994e1	-0.082803495
181	0xbeeb789c	-0.45990455
182	0xbd801d82	-0.06255628
183	0x3d7e20d6	0.062043034
184	0xbed4ace8	-0.41538167
185	0x3e114ce1	0.14189483
186	0xbdab8c98	-0.083764255
187	0x3ed02e91	0.40660527
188	0xbe59b033	-0.21258621
189	0x3ea33701	0.31877902
190	0x3e493a24	0.19651085
191	0xbe7d123c	-0.24713987
192	0x3e44ad20	0.19206667
193	0xbe5a300b	-0.2130739
194	0xbe016da5	-0.12639482
195	0x3f2a4d78	0.6652446
196	0xbda910fa	-0.08255191
197	0x3e8d1829	0.27557495
198	0x3deff7cb	0.11717185
199	0x3ddd84f1	0.10816372
200	0x3cbb0fe4	0.022834726
201	0xbcaa5184	-0.020790823
202	0xbcc3fc3d	-0.023923988
203	0xbd6577b0	-0.056022346
204	0xbdcdd29d	-0.10049937
205	0xbd34a830	-0.04410571
206	0x3e07ef26	0.13274822
207	0x3d95115f	0.07278704
208	0xbddb0a11	-0.106952794
209	0xbe1a246c	-0.15052956
210	0xbe895a27	-0.26826593
211	0x3e1ee0ef	0.15515493
212	0xbdd649cc	-0.104632944
213	0x3aa6b040	0.0012717322
214	0xbe05893c	-0.13040632
215	0xbd7deaf7	-0.061991658
216	0x3e4cdd64	0.20006329
217	0x3cd20e0e	0.025641467
218	0xbece583b	-0.4030169
219	0xbed1c4bf	-0.40970418
220	0x3ca5e278	0.02024959
221	0x3df5b626	0.11997633
222	0xbdbd646c	-0.092476696
223	0x3f01aa51	0.5065051
224	0xbeac29c1	-0.33625606
225	0x3ea69db2	0.32542187
226	0xbe9f12cc	-0.31069028
227	0x3de2c15d	0.11072037
228	0xbe10d897	-0.14145122
229	0x3e5c2f37	0.21502386
230	0x3ddedace	0.108815774
231	0xbd8b5c5b	-0.06804725
232	0xbce17e3e	-0.027526017
233	0x3e3b9524	0.18318611
234	0x3e013300	0.12617111
235	0xbdce2bed	-0.10066972
236	0xbbdd0656	-0.00674514
237	0xbd9e2814	-0.07722488
238	0xbec326c1	-0.38115504
239	0x3eb46dac	0.35239923
240	0xbe995e7f	-0.29954907
241	0x3eadda3c	0.33955562
242	0x3ed0281c	0.406556
243	0x3e4677ad	0.1938159
244	0xbef68156	-0.4814555
245	0x3ed33e9b	0.41258702
246	0xbf033d92	-0.51265824
247	0x3e31dea1	0.17370082
248	0xbeec692e	-0.46173996
249	0xbcb58b49	-0.022161143
250	0xbed0547e	-0.40689462
251	0x3da574a6	0.080788895
252	0xbe663d81	-0.224844
253	0xbe01edbe	-0.12688348
254	0x3dbbd095	0.09170643
255	0xbc9897ac	-0.01862701

weights_list f4 [32, 32]
0	0xbeaddf05	-0.33959213
1	0x3eae9d97	0.34104607
2	0x3e1c5070	0.1526506
3	0xbe93579b	-0.28777775
4	0x3e92876c	0.28618944
5	0xbc6996d3	-0.014257151
6	0xbe6a2dbe	-0.22869012
7	0x3d8ae8da	0.06782694
8	0x3dfee856	0.12446658
9	0x3d41cfbf	0.047317263
10	0xbe00ac58	-0.12565744
11	0xbf34ae39	-0.7057834
12	0x3e5f4aa9	0.21805824
13	0x3e8b3654	0.27189887
14	0xbf1676bd	-0.5877493
15	0xbe8f9baa	-0.2804845
16	0xbdf1950c	-0.117960066
17	0xbd4cc3fc	-0.049991593
18	0xbdb99c61	-0.0906303
19	0xbdd3d9c9	-0.103442736
20	0x3edbc75f	0.42925546
21	0x3e91f0bf	0.28503987
22	0x3f330023	0.69922084
23	0x3dab89c5	0.08375887
24	0x3e8f1aaf	0.27950045
25	0x3d94176b	0.07231029
26	0x3dbe786e	0.09300314
27	0xbf1ab88f	-0.60437864
28	0x3cab7931	0.020931812
29	0x3e927ce7	0.28610918
30	0xbf49b430	-0.7879057
31	0x3dc89dc2	0.09795715
32	0x3eb410bd	0.3516902
33	0x3dd177ab	0.10227903
34	0x3ee9353a	0.4554842
35	0x3deb9e55	0.11504809
36	0xbea3b3db	-0.31973156
37	0x3d7f8a41	0.06238771
38	0x3e99089f	0.2988939
39	0x3f0f4fbc	0.5598104
40	0x3e3e8aae	0.1860759
41	0x3c868953	0.016422903
42	0x3e766f7f	0.2406597
43	0xbf33bcd5	-0.7021001
44	0x3eacef2b	0.3377622
45	0xbe12e9c2	-0.14346984
46	0x3d62432f	0.055239853
47	0x3eead37b	0.45864472
48	0xbeb65b46	-0.3561651
49	0xbeeb5533	-0.4596344
50	0x3e11d2a2	0.14240506
51	0xbd266cf0	-0.040631235
52	0xbe6eb2d0	-0.23310399
53	0xbd652a2b	-0.055948418
54	0x3ee2a377	0.4426534
55	0xbe4c68a7	-0.19961797
56	0xbc97b2d7	-0.018517895
57	0x3ebae3c8	0.36501908
58	0x3f4b1a75	0.79337245
59	0xbe3f912e	-0.18707725
60	0x3e22f876	0.15915093
61	0xbdd96212	-0.106144086
62	0x3e4d3687	0.20040332
63	0x3efb5c41	0.49093822
64	0xbbaf74f2	-0.005354517
65	0xbf899640	-1.0748978
66	0xbe1d5b0d	-0.15366764
67	0x3f6061b4	0.87649083
68	0x3e0e022b	0.13868015
69	0x3eefd812	0.46844536
70	0xbeceb70d	-0.40374032
71	0xbc91a5e4	-0.017779298
72	0x3ead5f3a	0.33861715
73	0xbd3e1081	-0.046402458
74	0xbea20fee	-0.31652778
75	0x3ed96649	0.4246085
76	0xbe56eda6	-0.20989093
77	0x3e89d4dd	0.26920214
78	0x3d566314	0.052340582
79	0x3e1868f7	0.14883791
80	0x3eb46485	0.3523294
81	0x3e71dff0	0.23620582
82	0x3f294f33	0.66136473
83	0x3df0f213	0.11764922
84	0xbf402e60	-0.7507076
85	0x3b436a0e	0.0029817852
86	0xbed96257	-0.4245784
87	0x3e215f4d	0.1575901
88	0xbde40b13	-0.11134925
89	0x3ee262b4	0.4421593
90	0x3d0a8758	0.03382048
91	0x3f3b3866	0.7313293
92	0x3e7c5011	0.24639918
93	0x3bb38032	0.0054779286
94	0xbe188201	-0.14893343
95	0xbf171a1e	-0.59024227
96	0xbd54a301	-0.051913265
97	0xbea631e0	-0.32459927
98	0xbe3fdb8d	-0.18736096
99	0xbed59d93	-0.41721782
100	0xbe4c173a	-0.19930735
101	0xbecf353e	-0.40470308
102	0xbe494825	-0.19656427
103	0xbe11df73	-0.14245395
104	0x3e84cb1d	0.25936213
105	0x3ec42112	0.3830648
106	0xbe655dd2	-0.22399071
107	0x3e168254	0.14698154
108	0xbdd41f19	-0.10357494
109	0xbcbb3beb	-0.02285572
110	0xbe0f3c40	-0.13987827
111	0x3e814990	0.25251436
112	0xbded2cdb	-0.11580821
113	0xbf3b5960	-0.7318325
114	0x3e716b40	0.23576069
115	0x3dd21348	0.10257584
116	0xbe9cb967	-0.306102
117	0xbd6f4430	-0.058414638
118	0xbdd48046	-0.10376029
119	0x3e1b6b2b	0.151776
120	0x3dc8e458	0.09809178
121	0x3e773717	0.24142109
122	0x3ee7ab67	0.45247957
123	0x3e4d6605	0.20058449
124	0xbeb24c38	-0.34823775
125	0x3f55c73c	0.8350713
126	0x3e847934	0.2587372
127	0x3d9132a9	0.07089741
128	0x3ec073eb	0.37588438
129	0x3efc53c4	0.49282658
130	0x3cb9023a	0.02258407
131	0xbf326e2a	-0.69699347
132	0x3ed39cf2	0.41330677
133	0x3e2ad82c	0.16684026
134	0x3afb73b3	0.0019184261
135	0xbd4d306d	-0.05009501
136	0xbe70878e	-0.2348921
137	0x3e42624d	0.18982811
138	0xbe38f70a	-0.18062988
139	0xbce88ad5	-0.028386513
140	0x3e28d024	0.1648565
141	0xbea9e10b	-0.33179507
142	0xbd691a25	-0.0569097
143	0xbe30d2eb	-0.17267959
144	0xbe097a6e	-0.1342561
145	0xbd942a2e	-0.07234608
146	0x3d12e148	0.035859376
147	0xbc828fce	-0.015937712
148	0xbe8d43af	-0.275907
149	0x3c732b58	0.014841877
150	0x3ce1bb18	0.027555034
151	0x3eab312a	0.33435947
152	0x3ed2efc7	0.4119856
153	0xbe90bf0e	-0.28270763
154	0xbee4b083	-0.44665918
155	0xbeb04efb	-0.34435257
156	0xbe612997	-0.21988522
157	0x3d745305	0.059649486
158	0xbe5fa2ef	-0.21839498
159	0xbe3d91e1	-0.1851268
160	0x3f5c9273	0.86160964
161	0x3f1d9489	0.6155477
162	0xbd231b42	-0.039820917
163	0xbdc2bc36	-0.09508555
164	0xbe9055e9	-0.28190544
165	0x3f532b4b	0.82487935
166	0x3e53f0b9	0.20697297
167	0x3ed022fa	0.40651685
168	0xbd8b80b5	-0.06811658
169	0x3f033d5c	0.512655
170	0x3ecc35e1	0.39884856
171	0xbe8303e5	-0.2558891
172	0x3f21a2ef	0.6313924
173	0x3e2ce493	0.16884069
174	0x3e2d6cc0	0.16936016
175	0x3f0bffb5	0.5468705
176	0xbdd3a7b3	-0.103347205
177	0x3b2f026b	0.0026704322
178	0xbe04bb85	-0.12962158
179	0x3e325c9a	0.17418137
180	0x3e66b830	0.225312
181	0xbe1dffe2	-0.15429643
182	0x3ea82d69	0.32847145
183	0x3ee334e4	0.4437629
184	0x3ed16e59	0.409045
185	0xbdac6453	-0.08417573
186	0x3eb9ff6d	0.36327687
187	0xbedbc6ed	-0.42925206
188	0xbef62d9f	-0.4808168
189	0x3e03ac92	0.12858799
190	0x3d198bcc	0.037486836
191	0x3dedbc93	0.11608233
192	0x3d3c1094	0.045914248
193	0xbdf20173	-0.11816683
194	0xbe6957ee	-0.22787449
195	0xbeac6081	-0.33667377
196	0x3e02045b	0.12696974
197	0x3cbd80e8	0.023132756
198	0xbe89229d	-0.2678422
199	0xbec1572c	-0.3776182
200	0xbdfc34d5	-0.123147644
201	0xbeb21baa	-0.3478673
202	0x3eb21c67	0.34787294
203	0x3e628470	0.22120833
204	0x3ea13d18	0.31491923
205	0xbd157be4	-0.036495104
206	0xbe62b45e	-0.22139117
207	0x3cae9f6e	0.021316256
208	0xbedbcaec	-0.42928255
209	0xbed9fe08	-0.42576623
210	0xbf39f744	-0.7264292
211	0xbe48cafa	-0.1960868
212	0xbe09389f	-0.13400505
213	0x3e1c8b12	0.15287426
214	0x3d3d1ba7	0.04616895
215	0x3e8da855	0.2766749
216	0xbdc33867	-0.09532242
217	0x3f2956d9	0.66148144
218	0xbeaaf769	-0.33391884
219	0xbe9c0828	-0.30474973
220	0xbdf889e3	-0.12135675
221	0x3e072385	0.13197143
222	0xbd73f2ee	-0.059557848
223	0xbeba4cf9	-0.3638685
224	0xbe3ff3f0	-0.18745399
225	0xbe46cdf2	-0.194145
226	0xbe9e34d0	-0.30899668
227	0x3cee69b0	0.02910313
228	0xbe192ba2	-0.14958051
229	0xbdcca8b6	-0.099931166
230	0xbea96018	-0.33081126
231	0xbe8634d1	-0.2621217
232	0x3eb00816	0.3438117
233	0xbe197932	-0.14987639
234	0xbe0e483e	-0.13894746
235	0x3d06f3e7	0.032947447
236	0xbc862200	-0.016373634
237	0xbec2934f	-0.38003013
238	0xbe137398	-0.14399564
239	0xbf291c81	-0.6605912
240	0xbdf1f5db	-0.11814471
241	0x3e8e8699	0.27837065
242	0x3ebdda88	0.3708079
243	0x3ea99126	0.33118552
244	0xbe0f21e8	-0.13977778
245	0xbcce4564	-0.025179572
246	0x3d84b7a0	0.06480336
247	0xbe50aa26	-0.20377406
248	0xbf3a5202	-0.72781384
249	0x3e114200	0.14185333
250	0x3eab3ee9	0.33446434
251	0x3c9c65d1	0.019091519
252	0xbd4df1c6	-0.0502794
253	0xbebf08f9	-0.37311533
254	0x3dd29bc9	0.1028362
255	0x3ede5935	0.43427435

weights_list f4 [32, 32]
0	0xbe1c3df2	-0.15258005
1	0x3d8f92ae	0.07010399
2	0xbe7dff35	-0.24804385
3	0x3c87a275	0.016556958
4	0x3e4fc926	0.20291576
5	0xbe98658f	-0.29764983
6	0xbefbc2ba	-0.49172002
7	0xbbb7e4c9	-0.00561199
8	0xbe30aa23	-0.17252402
9	0xbe9809ce	-0.2969498
10	0xbc47a750	-0.0121858865
11	0xbe74d506	-0.23909387
12	0xbe4b63a2	-0.19862226
13	0x3d928a5a	0.07155295
14	0x3eda72f2	0.4266582
15	0x3dabf5f2	0.0839652
16	0xbe1bce8f	-0.15215515
17	0xbd401453	-0.046894383
18	0x3e4191e1	0.18903305
19	0xbe686a35	-0.22696765
20	0x3ded4caf	0.11586892
21	0xbda1cd34	-0.079004675
22	0x3dcdcd9c	0.100489825
23	0x3df2b2fa	0.11850543
24	0x3e0cc680	0.13747597
25	0xbed6c5ec	-0.41947877
26	0xbb2aecd0	-0.0026081093
27	0x3e16afe0	0.14715528
28	0xbea91176	-0.33021134
29	0xbe4c4e26	-0.19951686
30	0xbc5fe7c9	-0.013666102
31	0x3e8699ac	0.26289117
32	0x3ea71b3a	0.3263796
33	0x3e7b26b9	0.2452649
34	0xbe35e6cf	-0.17763828
35	0xbed7fa46	-0.4218313
36	0x3e916505	0.28397384
37	0x3db75b71	0.08952988
38	0xbec17aab	-0.377889
39	0x3daf8635	0.0857052
40	0x3e23532f	0.15949701
41	0xbe904264	-0.28175652
42	0xbda9d562	-0.08292653
43	0xbed2d0c0	-0.4117489
44	0x3e478dce	0.19487688
45	0x3c8e1f94	0.017349042
46	0x3d87b772	0.06626786
47	0x3d514af8	0.051096886
48	0xbe449ecc	-0.19201201
49	0x3e44d07e	0.19220158
50	0x3e2e2fd3	0.17010431
51	0xbe16f8da	-0.14743367
52	0x3ec11634	0.37712252
53	0x3e17b711	0.14815928
54	0xbea5e2a7	-0.32399485
55	0xbdaff5a8	-0.08591777
56	0x3e0feb56	0.14054617
57	0x3d4013a6	0.04689374
58	0x3eb393ec	0.35073793
59	0xbc63874f	-0.013887241
60	0x3ea78858	0.3272121
61	0x3d70fa3e	0.0588324
62	0x3edecae3	0.43514165
63	0x3eb572ed	0.35439244
64	0xbed7f06a	-0.4217561
65	0xbd8d6689	-0.06904323
66	0x3f6f88c3	0.93568057
67	0x3e1c5911	0.15268351
68	0x3e3c3e6f	0.18383192
69	0xbd281946	-0.041039728
70	0xbf022d8e	-0.5085076
71	0x3e6d6bb1	0.23185612
72	0xbf6fb224	-0.93631196
73	0xbcac39e7	-0.021023704
74	0x3f070466	0.52741086
75	0x3ec4f34b	0.38466868
76	0xbf11dd2e	-0.5697812
77	0xbd63690a	-0.055520095
78	0x3f1dd2ec	0.61649966
79	0x3f397d56	0.7245687
80	0x3e2f8fb9	0.1714467
81	0x3ea62c6c	0.32455766
82	0x3ebafe68	0.36522222
83	0x3e5656cb	0.20931546
84	0x3f0a56f5	0.54038936
85	0x3e1ca9ef	0.152992
86	0x3e1362f2	0.14393213
87	0xbe582b43	-0.21110253
88	0xbe44261f	-0.19155167
89	0xbcd7322e	-0.026269045
90	0xbe3286c2	-0.17434219
91	0x3e3a44f1	0.18190362
92	0xbe84fe32	-0.25975186
93	0x3e5cacf0	0.21550345
94	0x3e0b0485	0.13575943
95	0x3e073cc4	0.13206774
96	0x3f3dc02c	0.74121356
97	0x3d3fafd4	0.046798542
98	0x3e0ae121	0.13562442
99	0x3e982a72	0.29719883
100	0xbe97d891	-0.29657415
101	0xbdef7407	-0.11692052
102	0x3db55902	0.088548675
103	0x3ce313a5	0.027719328
104	0xbdbe277e	-0.09284876
105	0xbd8de977	-0.069292955
106	0x3dd14eb9	0.10220093
107	0x3e1c8be2	0.15287736
108	0x3dfee680	0.12446308
109	0x3e27b194	0.16376334
110	0x3e7423ad	0.23841734
111	0x3ed4bae5	0.4154884
112	0x3e833da1	0.25632957
113	0x3eb9884e	0.36236805
114	0xbdc2a739	-0.095045514
115	0x3e87b220	0.26503086
116	0x3ebbb5b8	0.36662078
117	0xbe33af1c	-0.17547268
118	0x3e78f4e7	0.24312173
119	0xbd59bec2	-0.053160436
120	0x3e4055fb	0.18782799
121	0xbd8fc33d	-0.070196606
122	0x3dcacee4	0.099027425
123	0xbe974e49	-0.29551914
124	0x3d94cc0c	0.07265481
125	0x3e95611f	0.2917566
126	0x3dd2bd8f	0.10290062
127	0x3de885a2	0.113536134
128	0xbf055deb	-0.5209643
129	0x3daf7098	0.085663974
130	0x3c40ab40	0.011759579
131	0x3e6c9053	0.2310193
132	0x3e811ac1	0.25215724
133	0x3f3745e4	0.7159102
134	0xbe48c780	-0.19607353
135	0xbe9d8c57	-0.30771133
136	0x3d0b4bd3	0.03400786
137	0xbe276017	-0.16345249
138	0xbe022b38	-0.12711799
139	0x3e08b5d0	0.13350606
140	0x3e9159eb	0.28388914
141	0xbd56c7b7	-0.052436557
142	0x3eb243bf	0.3481731
143	0x3dce15be	0.10062741
144	0x3e53250e	0.20619604
145	0xbe573be9	-0.21018948
146	0xbd350f0a	-0.044203795
147	0xbe9ca133	-0.30591735
148	0x3e95b0d6	0.29236478
149	0x3eda860a	0.4268039
150	0x3f31cfae	0.6945752
151	0xbdbfd730	-0.09367216
152	0x3e361ca4	0.17784363
153	0xbda810d1	-0.082063325
154	0xbe5d17ec	-0.21591157
155	0x3e072900	0.13199234
156	0xbd530c71	-0.051525537
157	0x3e8e4e24	0.27793992
158	0xbd8dc366	-0.06922035
159	0x3dd62b89	0.104575224
160	0xbea995f7	-0.33122227
161	0xbe7dbdc4	-0.24779421
162	0x3ce6ad0d	0.028158689
163	0xbe18fc8a	-0.14940086
164	0x3e54e80f	0.20791648
165	0x3e365f65	0.17809828
166	0xbeff9235	-0.49916235
167	0x3e4838a4	0.19552857
168	0xbcc7ec78	-0.02440475
169	0xbe63ced7	-0.22246872
170	0xbe8f5912	-0.27997643
171	0x3e67bc25	0.22630365
172	0xbf0d6fb1	-0.5524855
173	0xbe64c827	-0.22341977
174	0x3f2f9274	0.68582845
175	0xbef63b1c	-0.48091972
176	0x3ed4723f	0.41493413
177	0xbe76f2da	-0.24116078
178	0xbed38746	-0.41314143
179	0x3dc08e30	0.0940212
180	0xbe06f066	-0.13177642
181	0x3eff1d74	0.49827158
182	0x3cee66ab	0.02910169
183	0x3ec6193d	0.3869113
184	0xbf1b40d9	-0.60645825
185	0xbc10f7bc	-0.008848127
186	0x3df7af29	0.12093956
187	0x3d74e8d3	0.05979235
188	0xbeb4e763	-0.35332784
189	0x3d63577a	0.055503346
190	0xbcd2e72c	-0.025744997
191	0x3e6246dd	0.22097345
192	0x3d5b41e0	0.05352962
193	0xbe8bd9ee	-0.27314705
194	0xbd507e65	-0.05090179
195	0x3e26ab1b	0.16276209
196	0xbec6d7d2	-0.38836533
197	0x3e29ec26	0.1659399
198	0xbf8bb000	-1.0913086
199	0xbdf75685	-0.12077049
200	0x3e4f5dca	0.20250621
201	0xbe11198a	-0.14169899
202	0xbd40e9ce	-0.047097974
203	0x3d628a9a	0.055307962
204	0xbeae36e3	-0.3402625
205	0x3e410235	0.18848498
206	0xbd2a4bff	-0.04157638
207	0x3f1262cd	0.5718201
208	0x3e7e8be3	0.2485805
209	0x3ea0608d	0.31323662
210	0xbe3a60cc	-0.18200988
211	0x3e3321ec	0.17493409
212	0xbeb155a7	-0.3463566
213	0xba44fb2d	-0.0007514235
214	0x3e97e374	0.2966572
215	0x3e1ccf2b	0.15313403
216	0x3e35fb1c	0.17771572
217	0x3e9cd5c1	0.3063183
218	0x3eae72e5	0.34072033
219	0xbe30f26f	-0.17279981
220	0x3e040a4e	0.12894556
221	0xbd69d066	-0.05708351
222	0x3a578151	0.0008220869
223	0xbdfba607	-0.122875266
224	0x3e03b820	0.12863207
225	0xbebfc94e	-0.3745827
226	0xbe0ca433	-0.13734512
227	0xbe95949c	-0.29214942
228	0x3e761813	0.24032621
229	0xbe01ee1f	-0.12688492
230	0xbcdf8f28	-0.027289942
231	0x3e3d0731	0.18459775
232	0xbeba874d	-0.3643135
233	0x3e927555	0.28605142
234	0xbc15d057	-0.00914391
235	0xbe681b0d	-0.22666569
236	0xbdb4b141	-0.08822871
237	0x3e08ac56	0.13346991
238	0x3e240d6c	0.16020745
239	0x3d06218d	0.03274684
240	0xbedfeb64	-0.43734276
241	0x3d8b9c99	0.06816978
242	0xbea9376c	-0.33050096
243	0x3dde2507	0.10846906
244	0xbe477ad2	-0.19480446
245	0x3e8c15c7	0.27360365
246	0x3d86cd4b	0.06582125
247	0x3e161d3d	0.14659591
248	0xbd0c4e54	-0.034254387
249	0xbe73defd	-0.23815532
250	0x3e83f145	0.25770012
251	0x3e0d99d9	0.1382822
252	0xbe51daed	-0.2049367
253	0x3e62321d	0.22089429
254	0x3ebe913e	0.37220186
255	0x3e13621a	0.14392892
