PruningAMR/checkpoints/high_oscillation_long_dict.ckpt (torch, 798866 bytes, 18 tensors)

Layers.0.weight f4 [256, 2]
0	0x829d960c	-2.31552e-37
1	0x8291dfc6	-2.1434275e-37
2	0x82b581db	-2.6670093e-37
3	0x82b1d946	-2.6132521e-37
4	0x82b3f8e3	-2.644454e-37
5	0x82a702f6	-2.4540144e-37
6	0x02a356ea	2.4000584e-37
7	0x02a647db	2.443275e-37
8	0x82a4343c	-2.4127615e-37
9	0x828ee6a5	-2.0997408e-37
10	0xc012df2a	-2.2948709
11	0xc00a270e	-2.1586337
12	0x82a1ddbf	-2.37841e-37
13	0x829f0ca2	-2.33702e-37
14	0x8295229c	-2.1913447e-37
15	0x829348cc	-2.1641492e-37
16	0x82a55a18	-2.4296282e-37
17	0x82735f45	-1.7880161e-37
18	0x82acc246	-2.5384636e-37
19	0x82a6aa4d	-2.4489256e-37
20	0x8299ea5b	-2.2615843e-37
21	0x82a1ac92	-2.3755874e-37
22	0x828a4724	-2.031811e-37
23	0x82940a68	-2.1752618e-37
24	0x029ec8de	2.3331306e-37
25	0x829908a6	-2.2486293e-37
26	0xc0249249	-2.5714285
27	0xc028dc55	-2.638448
28	0x3efd4649	0.49467686
29	0x3f63fa9f	0.8905429
30	0x82941e32	-2.1763977e-37
31	0x82a6bf68	-2.450137e-37
32	0x02a26158	2.3859633e-37
33	0x82973679	-2.2218722e-37
34	0x023cd8b1	1.3874246e-37
35	0x828e81d5	-2.0939545e-37
36	0x829e8660	-2.329314e-37
37	0x829706ac	-2.2191285e-37
38	0x82acbc48	-2.5381197e-37
39	0x029d66d6	2.3128102e-37
40	0x82b595ac	-2.6681467e-37
41	0x82a03048	-2.35376e-37
42	0x80d386f8	-1.9425707e-38
43	0x828f38d9	-2.104459e-37
44	0x0295ec21	2.2029114e-37
45	0x82aaa15e	-2.5071875e-37
46	0x82a0e780	-2.3642761e-37
47	0x8296b430	-2.2143942e-37
48	0x0297b228	2.2289713e-37
49	0x834e00b0	-6.053875e-37
50	0x82c95cab	-2.9587484e-37
51	0x02ad3725	2.5451717e-37
52	0x829a4332	-2.2666834e-37
53	0x82a20735	-2.3807897e-37
54	0x02a3aa42	2.404842e-37
55	0x82a75c58	-2.4591447e-37
56	0x029c4d97	2.2966674e-37
57	0x02a2b95f	2.3910158e-37
58	0x021ab13d	1.1364998e-37
59	0x02c6f6cc	2.923514e-37
60	0x828cf23d	-2.071019e-37
61	0x02f44836	3.5894025e-37
62	0x01de2f1c	8.161752e-38
63	0x02c435a0	2.883039e-37
64	0x4062734c	3.5382872
65	0xbebf8678	-0.3740728
66	0x8289bf5a	-2.0240171e-37
67	0x828ac7d7	-2.039198e-37
68	0x82ad2f88	-2.5447347e-37
69	0x82bc9047	-2.7706928e-37
70	0x014bc06e	3.7423273e-38
71	0x00f624b4	2.2604699e-38
72	0x02aa5cdc	2.5032554e-37
73	0x82a86939	-2.4745776e-37
74	0x02a68b9f	2.4471646e-37
75	0x82b45acd	-2.650074e-37
76	0x83340c92	-5.2911676e-37
77	0x8249a31e	-1.481396e-37
78	0x82aa6e15	-2.504244e-37
79	0x82ac197f	-2.5287763e-37
80	0x02ab9c53	2.5215917e-37
81	0x82a846d2	-2.472603e-37
82	0x0112c73a	2.6958903e-38
83	0x024a51e1	1.4864114e-37
84	0x82133cf2	-1.0817345e-37
85	0x8206fe1b	-9.91769e-38
86	0x3e64a7d1	0.22329642
87	0x3f54047e	0.82819355
88	0x82b16974	-2.606834e-37
89	0x82c628ed	-2.9116975e-37
90	0x82c82566	-2.9408824e-37
91	0x830d303f	-4.149156e-37
92	0x82979b9d	-2.2276774e-37
93	0x829314bb	-2.1611607e-37
94	0x02a59942	2.4332537e-37
95	0x02993f10	2.2517526e-37
96	0x405ab468	3.4172611
97	0xbf581f8b	-0.8442313
98	0x82a629e0	-2.4415543e-37
99	0x8291d50e	-2.1428123e-37
100	0x82aecd2b	-2.5684763e-37
101	0x82a95c13	-2.4885166e-37
102	0x82878e9e	-1.9918325e-37
103	0x82a36db0	-2.4013655e-37
104	0x829c0b98	-2.2928794e-37
105	0x03164fbb	4.4172564e-37
106	0x82912040	-2.1324346e-37
107	0x82927c46	-2.1524101e-37
108	0x02ce39b4	3.03021e-37
109	0x82b51618	-2.660824e-37
110	0x4029cec2	2.6532445
111	0xc032e528	-2.7952366
112	0x02767d97	1.8109268e-37
113	0x8269e35a	-1.7183383e-37
114	0x82261906	-1.2202935e-37
115	0x822e90cb	-1.2825055e-37
116	0x82afc03f	-2.5824283e-37
117	0x829ccb11	-2.3038694e-37
118	0x02b2adbf	2.6254475e-37
119	0x828a9740	-2.036409e-37
120	0x827837bc	-1.8236157e-37
121	0x02637c26	1.6712955e-37
122	0x82b88d06	-2.7117314e-37
123	0x02936be2	2.166163e-37
124	0x82a2fba9	-2.3948206e-37
125	0x82be386b	-2.7950373e-37
126	0x4066db92	3.6071515
127	0x408d9f83	4.4257216
128	0x82897a9e	-2.020072e-37
129	0x828f80ea	-2.1085955e-37
130	0x3f4b879d	0.79503804
131	0x3f37cebb	0.7179982
132	0x02941ece	2.1764327e-37
133	0x82a35f59	-2.4005424e-37
134	0x02b216c3	2.6167814e-37
135	0x02a8d240	2.480606e-37
136	0x828f585f	-2.1062684e-37
137	0x829b0209	-2.2776371e-37
138	0x82cd425b	-3.016013e-37
139	0x0296b913	2.2146746e-37
140	0x82955a75	-2.1945502e-37
141	0x82995cd0	-2.2534601e-37
142	0x82b36328	-2.63586e-37
143	0x833a441a	-5.4738664e-37
144	0x82bb3bb4	-2.7511448e-37
145	0x023bdef0	1.380257e-37
146	0x83576f0b	-6.3310292e-37
147	0x02bf720f	2.8130394e-37
148	0x82b7de54	-2.7017043e-37
149	0x81a081e2	-5.896109e-38
150	0xbf9e9a17	-1.2390774
151	0xbf7d1b60	-0.98869896
152	0x021232f4	1.0741009e-37
153	0x819ed5d0	-5.834684e-38
154	0x829c9857	-2.3009579e-37
155	0x829bfe18	-2.2921046e-37
156	0x015b17fb	4.0241152e-38
157	0x01a7df0c	6.166617e-38
158	0x8351c6dd	-6.1647864e-37
159	0x8365f9b5	-6.75837e-37
160	0x82b756b9	-2.693921e-37
161	0x82963c8f	-2.2075278e-37
162	0x834aa8ef	-5.955639e-37
163	0x0302cb07	3.843663e-37
164	0x02a6ef2a	2.4528781e-37
165	0x02a20e88	2.3812101e-37
166	0x02a92285	2.4852131e-37
167	0x029f0811	2.336758e-37
168	0x82ba3b80	-2.7364395e-37
169	0x02be4183	2.7955593e-37
170	0x405dbb78	3.4645672
171	0xc0165d75	-2.3494542
172	0x8317bec8	-4.459392e-37
173	0x831ce099	-4.6102105e-37
174	0x81b53268	-6.656123e-38
175	0x000f2754	1.391641e-39
176	0x82afce1e	-2.5832244e-37
177	0x82b44509	-2.6488247e-37
178	0xbf3db8b5	-0.74109966
179	0x40278df8	2.61804
180	0x828cf8d0	-2.0713963e-37
181	0x029d80d8	2.314303e-37
182	0x82298e8c	-1.2457068e-37
183	0x826e3279	-1.7499963e-37
184	0x02bcc107	2.773491e-37
185	0x029ae4e6	2.2759648e-37
186	0x02961bef	2.2056552e-37
187	0x81be9110	-7.000313e-38
188	0x82add2a6	-2.5540972e-37
189	0x82ac7aef	-2.534369e-37
190	0x028e8a1f	2.0944302e-37
191	0x81f26542	-8.904206e-38
192	0x82b36537	-2.635978e-37
193	0x82a91da5	-2.4849333e-37
194	0x82a13be8	-2.3691208e-37
195	0x82aecb50	-2.5683698e-37
196	0x829fafc2	-2.346383e-37
197	0x82a1400c	-2.3693585e-37
198	0x814190c6	-3.555237e-38
199	0x8235bb3a	-1.3351511e-37
200	0x82b8768c	-2.7104413e-37
201	0x02b6161e	2.6755191e-37
202	0x8292ee87	-2.158968e-37
203	0x02b39099	2.638468e-37
204	0x02c37ea3	2.872536e-37
205	0x82af8874	-2.579226e-37
206	0x82a0bbe3	-2.3617729e-37
207	0x82ad47ff	-2.546139e-37
208	0x82828782	-1.917956e-37
209	0x822a2d73	-1.2502671e-37
210	0x82f1b386	-3.5514809e-37
211	0x82fb6710	-3.694029e-37
212	0x0284e3e3	1.9526457e-37
213	0x02b13c4e	2.6042426e-37
214	0x82b57764	-2.6664087e-37
215	0x82b24c0c	-2.6198398e-37
216	0x829b98f8	-2.2863003e-37
217	0x8295a43e	-2.1987853e-37
218	0x82a58386	-2.4320062e-37
219	0x02ac52be	2.532062e-37
220	0xc0546c57	-3.3191125
221	0x3fd625e8	1.6730318
222	0x82945d96	-2.1800361e-37
223	0x8285722c	-1.9608125e-37
224	0x02a3ccb5	2.4068193e-37
225	0x829151d1	-2.1352795e-37
226	0xbf26a6ba	-0.65098155
227	0x4082fa02	4.0930185
228	0x81209c76	-2.9499614e-38
229	0x01ded42c	8.185437e-38
230	0x82a78662	-2.4615577e-37
231	0x82aa631b	-2.5036139e-37
232	0x82956795	-2.1953035e-37
233	0x02a08344	2.358523e-37
234	0x8306de3e	-3.9634182e-37
235	0x826ccc14	-1.7397109e-37
236	0x3fbd5c24	1.4793744
237	0xc009c974	-2.1529207
238	0x8294a9f6	-2.1844198e-37
239	0x02a18d3e	2.3737893e-37
240	0xbe68a39f	-0.22718666
241	0x409be92d	4.872214
242	0x01963d3e	5.5189176e-38
243	0x802ca3ac	-4.099476e-39
244	0x829a59f6	-2.2679901e-37
245	0x02911fb6	2.1324036e-37
246	0x40428932	3.0396237
247	0x405d3b5c	3.456748
248	0x82a6ca70	-2.4507701e-37
249	0x82a967de	-2.4891935e-37
250	0xc0109694	-2.2591906
251	0x4022bd79	2.5428145
252	0x82675b98	-1.6997486e-37
253	0x82841396	-1.9406899e-37
254	0x823a4fe5	-1.368805e-37
255	0x827db77e	-1.8640164e-37

Layers.0.bias f4 [256]
0	0x82bee2ec	-2.8048238e-37
1	0x82af6c36	-2.577605e-37
2	0x82aaeb8f	-2.511446e-37
3	0x82a9c670	-2.4946216e-37
4	0x82c27481	-2.8572608e-37
5	0x3e2dfde6	0.16991386
6	0x82b675be	-2.6810077e-37
7	0x82b56ea6	-2.6659069e-37
8	0x82af8a21	-2.579322e-37
9	0x82b5fbb8	-2.674004e-37
10	0x82e15b62	-3.311323e-37
11	0x82c742c7	-2.927875e-37
12	0x82a6a122	-2.4483993e-37
13	0x3e809063	0.25110158
14	0xbf01938b	-0.5061576
15	0x82c97daf	-2.9606434e-37
16	0x82afd457	-2.5835816e-37
17	0x83421bb4	-5.7043278e-37
18	0x82c71eb1	-2.9258038e-37
19	0x82a87fc0	-2.4758706e-37
20	0x82b831e2	-2.7065001e-37
21	0x82c142f1	-2.8397224e-37
22	0x82a264a1	-2.3861519e-37
23	0x824ec8b7	-1.5192092e-37
24	0x83613d1b	-6.6191703e-37
25	0x82b86e48	-2.7099668e-37
26	0x82bb991b	-2.7565059e-37
27	0x82a853e1	-2.4733525e-37
28	0x82b40040	-2.6448766e-37
29	0x82a4cded	-2.421583e-37
30	0x82915797	-2.135611e-37
31	0x8281d664	-1.90779e-37
32	0xbd87f921	-0.066393144
33	0x82bbec1f	-2.7612707e-37
34	0x82b40d57	-2.645628e-37
35	0x82a68418	-2.4467326e-37
36	0x829cd425	-2.3043905e-37
37	0x82b504c2	-2.659829e-37
38	0x8299729c	-2.2547112e-37
39	0x82ab3c3c	-2.5160765e-37
40	0x82afa9fd	-2.5811507e-37
41	0x82b900b8	-2.718372e-37
42	0x8292cfa2	-2.1571947e-37
43	0xbed7920c	-0.42103612
44	0x82b01c08	-2.5876965e-37
45	0x82e496fa	-3.3588245e-37
46	0x82d60eba	-3.1452927e-37
47	0x82a47804	-2.416652e-37
48	0xbbce4e68	-0.006295968
49	0x82baefeb	-2.746795e-37
50	0x82beaba7	-2.8016514e-37
51	0x82cab126	-2.978291e-37
52	0x8299bd00	-2.258981e-37
53	0x82bca481	-2.7718538e-37
54	0x82ba3f13	-2.7366446e-37
55	0xbd2b1aa6	-0.04177346
56	0x82bd63e3	-2.7828386e-37
57	0x830ec533	-4.1956423e-37
58	0x82bf470f	-2.8105713e-37
59	0x82bd3c44	-2.7805645e-37
60	0x828c1f67	-2.0589175e-37
61	0x82a0a38a	-2.3603754e-37
62	0x82b1223c	-2.6027462e-37
63	0xbdc1b408	-0.09458166
64	0x82bbcf81	-2.7596282e-37
65	0xbf084765	-0.5323394
66	0x82ae3b31	-2.5600976e-37
67	0x82af15d9	-2.5726479e-37
68	0x82bf4dd5	-2.81096e-37
69	0x82af4707	-2.5754707e-37
70	0x82d1fa17	-3.0853334e-37
71	0x82abd962	-2.5250963e-37
72	0x82abd90f	-2.5250777e-37
73	0x82faea56	-3.68687e-37
74	0x82e2fa9a	-3.3351554e-37
75	0x3cc4b6c3	0.024012929
76	0x82d56e97	-3.1361013e-37
77	0x82bac869	-2.7445273e-37
78	0x82a6261e	-2.4413386e-37
79	0x828c476b	-2.0612143e-37
80	0x82b54691	-2.6636063e-37
81	0x82b128cf	-2.6031235e-37
82	0x82af9728	-2.5800698e-37
83	0x82a490f6	-2.4180838e-37
84	0x82b401be	-2.6449623e-37
85	0xbd1e1485	-0.038593788
86	0x83554eb9	-6.2685443e-37
87	0x8295e0bc	-2.2022573e-37
88	0x82bf7508	-2.81321e-37
89	0xbd3ecd18	-0.04658231
90	0x82b3c7ff	-2.6416478e-37
91	0x82a2dea2	-2.3931546e-37
92	0x82b414cb	-2.6460557e-37
93	0x82b05aef	-2.591307e-37
94	0x82a17a2d	-2.372695e-37
95	0x82a7e7cb	-2.4671487e-37
96	0x82ac1bde	-2.5289124e-37
97	0x82b7d996	-2.7014321e-37
98	0x82c4d6cb	-2.8922897e-37
99	0x82aafbfe	-2.5123891e-37
100	0x82a33f9c	-2.3987207e-37
101	0x82badbee	-2.7456477e-37
102	0x82c1ce18	-2.8477093e-37
103	0x82b3b1a9	-2.6403658e-37
104	0x82a7447e	-2.4577757e-37
105	0x83521913	-6.1742237e-37
106	0x82ae6cc8	-2.562944e-37
107	0x82b82388	-2.7056764e-37
108	0x82b90887	-2.7188201e-37
109	0x82a9ee02	-2.4968928e-37
110	0xbcb3212b	-0.021866402
111	0x82c8926d	-2.9471403e-37
112	0x82aff2ed	-2.5853371e-37
113	0xbd701b94	-0.05862005
114	0x8229b196	-1.2467124e-37
115	0x82b0b72e	-2.5966016e-37
116	0x829f65f3	-2.3421466e-37
117	0x821efe8a	-1.1681056e-37
118	0xbbb8d8e3	-0.0056410893
119	0x82a3fd2d	-2.4096013e-37
120	0xbd2d6a3e	-0.04233765
121	0x82a7f80c	-2.4680816e-37
122	0x82ae9747	-2.565383e-37
123	0xbdab74fe	-0.08371924
124	0x82accfd6	-2.539242e-37
125	0xbcca5dc6	-0.024702918
126	0x82b3578b	-2.6351933e-37
127	0x82a8bfcf	-2.4795474e-37
128	0xbd6d631a	-0.05795584
129	0x82b359f2	-2.6353312e-37
130	0x82b6d327	-2.6863692e-37
131	0xbeffae4e	-0.4993767
132	0xbd9bd755	-0.07609431
133	0x82b47b76	-2.6519486e-37
134	0x82bec6dd	-2.8032133e-37
135	0x82371910	-1.3451909e-37
136	0x828f4652	-2.1052323e-37
137	0xbd168236	-0.036745273
138	0x82ab882e	-2.5204355e-37
139	0x82c2e6d4	-2.8638227e-37
140	0x82b27706	-2.6223065e-37
141	0x82d14de3	-3.0754495e-37
142	0x82a2d0da	-2.3923636e-37
143	0x82a3c384	-2.4062918e-37
144	0x82a3b07a	-2.405199e-37
145	0x828830f6	-2.0011506e-37
146	0x836bfc67	-6.9350037e-37
147	0x828db059	-2.0819307e-37
148	0xbec8f755	-0.392512
149	0x829bd6a5	-2.2898403e-37
150	0x82d56cb4	-3.135993e-37
151	0x82c12ca4	-2.8384424e-37
152	0xbe7861e1	-0.24256088
153	0x82b297ee	-2.6241953e-37
154	0x82afcfbc	-2.5833173e-37
155	0xbc9d8786	-0.019229662
156	0x3effd7ee	0.4996943
157	0x82acc048	-2.5383493e-37
158	0x82cf61cc	-3.047205e-37
159	0x82d31cab	-3.1020118e-37
160	0x82bf8e46	-2.8146589e-37
161	0x82c46708	-2.8858749e-37
162	0x82c19146	-2.8442184e-37
163	0x82b36dcb	-2.6364704e-37
164	0x82c810eb	-2.939707e-37
165	0x82eabe29	-3.4492356e-37
166	0x82b82b83	-2.7061345e-37
167	0x82ba6971	-2.7390764e-37
168	0x82ae207c	-2.5585647e-37
169	0x82a8e176	-2.481479e-37
170	0x828ac7e9	-2.039202e-37
171	0x826e6a9c	-1.7516074e-37
172	0x82b36202	-2.635794e-37
173	0x82ab71ee	-2.5191584e-37
174	0x82ab0a5c	-2.5132138e-37
175	0x82aed862	-2.56912e-37
176	0x82bd6472	-2.7828707e-37
177	0x82cc8e92	-3.0056937e-37
178	0x82c589bb	-2.9025602e-37
179	0x82b4179d	-2.6462176e-37
180	0x82bbb914	-2.758341e-37
181	0x82b17162	-2.607289e-37
182	0x82d7f3a6	-3.1731258e-37
183	0x82bb85c7	-2.7553965e-37
184	0x82b2cbee	-2.62718e-37
185	0x82ade889	-2.5553534e-37
186	0x832c7052	-5.0675194e-37
187	0x8334f5fc	-5.317962e-37
188	0xbd64850f	-0.055790957
189	0x828ba75c	-2.0520274e-37
190	0x82b2d3f4	-2.6276404e-37
191	0x82bc987a	-2.7711634e-37
192	0x824e98b1	-1.517831e-37
193	0x82a089ee	-2.3589055e-37
194	0x82caa515	-2.9775985e-37
195	0x82b172dc	-2.6073739e-37
196	0x82b3a87e	-2.6398396e-37
197	0x82b49aad	-2.6537402e-37
198	0x83375252	-5.3873366e-37
199	0x82b3407d	-2.63387e-37
200	0x82bf31ae	-2.8093442e-37
201	0x82c91328	-2.954529e-37
202	0x8311b6ca	-4.28215e-37
203	0x829c6d6e	-2.298495e-37
204	0xbcf7b111	-0.030235799
205	0x82c29c62	-2.8595497e-37
206	0x82be99ac	-2.8006194e-37
207	0x82aa57d4	-2.5029666e-37
208	0x82a9f67e	-2.4973798e-37
209	0x82b9559d	-2.7232446e-37
210	0x82c3b1f9	-2.8754826e-37
211	0x82a6ea08	-2.4525835e-37
212	0x82b5c32b	-2.670758e-37
213	0x82b83fc6	-2.7072974e-37
214	0x82a6bfff	-2.4501708e-37
215	0x82b3f31e	-2.6441229e-37
216	0xbcd2bba0	-0.025724232
217	0x82b87eea	-2.7109215e-37
218	0x82b4c2a6	-2.6560346e-37
219	0x82bc6cf4	-2.7686653e-37
220	0xbd2c6646	-0.042089723
221	0x82be093a	-2.7923287e-37
222	0xbda0e0e1	-0.07855392
223	0x82b45f32	-2.6503262e-37
224	0x82b3c68c	-2.6415646e-37
225	0x82966d12	-2.2103122e-37
226	0x82b2656c	-2.6212963e-37
227	0x82aae2e0	-2.5109475e-37
228	0x82acbb1a	-2.538052e-37
229	0x82bd83dd	-2.784674e-37
230	0xbcdf120f	-0.02723029
231	0xbc3d760d	-0.01156379
232	0x82ccedaa	-3.0111518e-37
233	0x82b690d1	-2.6825617e-37
234	0x82b533f2	-2.6625375e-37
235	0x8282f2b8	-1.9241097e-37
236	0x829ec9a0	-2.333174e-37
237	0x82c4bd55	-2.8908283e-37
238	0x82c3f6b7	-2.8794282e-37
239	0x82ad15df	-2.5432619e-37
240	0x82afb190	-2.5815855e-37
241	0x829ce535	-2.3053698e-37
242	0x806e6436	-1.0137853e-38
243	0x82d1a33f	-3.0803489e-37
244	0x82ab5eda	-2.5180634e-37
245	0x82ac526e	-2.532044e-37
246	0x829f641a	-2.3420406e-37
247	0x82a30ae9	-2.395696e-37
248	0x82b56447	-2.6653116e-37
249	0xbe8ba3b4	-0.27273333
250	0x82d777ca	-3.1660166e-37
251	0x82aab4f0	-2.5083108e-37
252	0x82a79396	-2.4623155e-37
253	0x828dddb9	-2.084535e-37
254	0x82bab8ac	-2.743624e-37
255	0x82a9bc00	-2.4940225e-37

Layers.1.weight f4 [256, 256]
0	0x02b8460b	2.7076573e-37
1	0x82b15c2b	-2.6060714e-37
2	0x82ba4d6e	-2.7374686e-37
3	0x8203747c	-9.657789e-38
4	0x02bc480b	2.7665468e-37
5	0x822e1e42	-1.2792185e-37
6	0x027dd924	1.8649821e-37
7	0x82b8356b	-2.706703e-37
8	0x8339b26e	-5.457144e-37
9	0x8212f486	-1.0796561e-37
10	0x82b37147	-2.6366704e-37
11	0x02a26012	2.3858902e-37
12	0x82cf21e3	-3.0435366e-37
13	0x82d41a3d	-3.116566e-37
14	0x82437a33	-1.4361407e-37
15	0x02ab6e94	2.518966e-37
16	0x831f3a6f	-4.679298e-37
17	0x03006fb0	3.774403e-37
18	0x02d3165a	3.1016493e-37
19	0x8271e55b	-1.7771705e-37
20	0x02b619ed	2.6757377e-37
21	0x81ceac3c	-7.5919593e-38
22	0x02e26ddc	3.3270772e-37
23	0x0359be2e	6.3988884e-37
24	0x02953891	2.192605e-37
25	0x02bf8e86	2.8146732e-37
26	0x0298f299	2.2473637e-37
27	0x02a6cd1a	2.450923e-37
28	0x02b4d699	2.6571796e-37
29	0x02f282da	3.563381e-37
30	0x027cf11d	1.8583232e-37
31	0x831e1716	-4.645853e-37
32	0x82a65c80	-2.44446e-37
33	0x02789528	1.8262968e-37
34	0x02858232	1.9617322e-37
35	0x831e3e25	-4.6503365e-37
36	0x82e37253	-3.342027e-37
37	0x02bfd77b	2.8188607e-37
38	0x82f7d0e4	-3.6413285e-37
39	0x02a8228e	2.4705215e-37
40	0x02a7146b	2.4550164e-37
41	0x827f4816	-1.8755129e-37
42	0x0341d520	5.696226e-37
43	0x031cf4c3	4.6125252e-37
44	0x82bdab7f	-2.7869488e-37
45	0x82a6406b	-2.4428482e-37
46	0x82ee7bfa	-3.5042116e-37
47	0x82e31728	-3.3367943e-37
48	0x01fa6293	9.1976943e-38
49	0x82acdce8	-2.5399923e-37
50	0x01e8e194	8.554703e-38
51	0x02903228	2.1187687e-37
52	0x8338c00f	-5.4293213e-37
53	0x02e4095a	3.3506957e-37
54	0x82be34f2	-2.794838e-37
55	0x83690187	-6.84743e-37
56	0x826a49cb	-1.7212782e-37
57	0x000cb0e8	1.165488e-39
58	0x02ce2b57	3.0293855e-37
59	0x83536d93	-6.213311e-37
60	0x80308384	-4.455283e-39
61	0x8115ffd4	-2.7550526e-38
62	0x02682ea3	1.7058052e-37
63	0x822fe0e6	-1.2921512e-37
64	0x81c6147b	-7.27631e-38
65	0x02976028	2.2242647e-37
66	0x02af4181	2.5751536e-37
67	0x82949b69	-2.1835847e-37
68	0x029e80b4	2.3289885e-37
69	0x82b34ac8	-2.6344608e-37
70	0x827a8b0a	-1.8407001e-37
71	0x82e5f244	-3.378758e-37
72	0x028f770c	2.108029e-37
73	0x0305a48e	3.9274087e-37
74	0x835a5026	-6.415645e-37
75	0x827bd12e	-1.8500599e-37
76	0x0312467f	4.298647e-37
77	0x82be8f23	-2.8000147e-37
78	0x02849b8c	1.9484936e-37
79	0x83375b6a	-5.3883805e-37
80	0x02ac7a95	2.5343487e-37
81	0x830d5856	-4.153758e-37
82	0x02a00548	2.3512918e-37
83	0x02b77506	2.6956601e-37
84	0x81b2b2ca	-6.5643423e-38
85	0x012c6dba	3.1670136e-38
86	0x82737a41	-1.7887906e-37
87	0x024d95c0	1.5103998e-37
88	0x82aee205	-2.569673e-37
89	0x023eca7a	1.4017103e-37
90	0x82ef73fa	-3.518446e-37
91	0x81a6c9f0	-6.1268536e-38
92	0x025e6ed9	1.6341796e-37
93	0x8283ef06	-1.9385913e-37
94	0x8298b103	-2.2435992e-37
95	0x8228a820	-1.239094e-37
96	0x82bae4ac	-2.7461495e-37
97	0x02d009e8	3.056854e-37
98	0x825c5bd2	-1.6189398e-37
99	0x02c52a74	2.8970915e-37
100	0x02ce639b	3.032615e-37
101	0x02adf8e4	2.5562922e-37
102	0x82b0cb77	-2.5977659e-37
103	0x82a09c00	-2.3599427e-37
104	0x0052dbdc	7.609381e-39
105	0x02a68f3b	2.4473718e-37
106	0x82ac62fe	-2.5329947e-37
107	0x829cba50	-2.3029078e-37
108	0x829dbde4	-2.3178069e-37
109	0x02a22cd2	2.3829486e-37
110	0x02f94597	3.6627204e-37
111	0x82b0cec0	-2.5979544e-37
112	0x02b96484	2.7241e-37
113	0x82c8c5e1	-2.9500936e-37
114	0x82c4954c	-2.8885304e-37
115	0x02b3eef2	2.6438834e-37
116	0x022abc0f	1.2543598e-37
117	0x01776758	4.544088e-38
118	0x8295a40a	-2.1987736e-37
119	0x02ba2faa	2.7357601e-37
120	0x81da99b0	-8.0301083e-38
121	0x803177b0	-4.542875e-39
122	0x016dd71f	4.3684367e-38
123	0x00c59170	1.8143766e-38
124	0x82a74462	-2.4577694e-37
125	0x0252cbdf	1.5486871e-37
126	0x02808770	1.8885647e-37
127	0x029aed08	2.2764316e-37
128	0x00bf5d28	1.7573998e-38
129	0x02960c20	2.2047478e-37
130	0x02affe35	2.5859847e-37
131	0x02c3a7b6	2.8748936e-37
132	0x82aa70a6	-2.5043912e-37
133	0x02827fe6	1.9175193e-37
134	0x829a007e	-2.2628549e-37
135	0x03650473	6.730216e-37
136	0x02a4f320	2.423718e-37
137	0x834d60a9	-6.0355046e-37
138	0x01bb8862	6.888865e-38
139	0x82cbbd03	-2.9936657e-37
140	0x02207b4b	1.1790327e-37
141	0x82bf77c8	-2.8133679e-37
142	0x03049efa	3.897381e-37
143	0x0233c7e1	1.3208205e-37
144	0x02c52af4	2.8971202e-37
145	0x82439c1a	-1.4371136e-37
146	0x82ba6dab	-2.739319e-37
147	0x02c76d72	2.930324e-37
148	0x82aa46de	-2.501993e-37
149	0x833e4b56	-5.5922463e-37
150	0x8290f06e	-2.1296898e-37
151	0x82745eaa	-1.7953456e-37
152	0x02dcfbda	3.247065e-37
153	0x01124684	2.6866557e-38
154	0x034c4528	6.00296e-37
155	0x00bd8568	1.7404766e-38
156	0x02608788	1.6495816e-37
157	0x82b63ae8	-2.6776307e-37
158	0x02d94a4b	3.1927926e-37
159	0x82101da2	-1.0587953e-37
160	0x82c79b76	-2.9329652e-37
161	0x82b7252d	-2.6910771e-37
162	0x829087b0	-2.123678e-37
163	0x02718694	1.7744506e-37
164	0x828eec6d	-2.1000726e-37
165	0x023edb1c	1.4021877e-37
166	0x829b5444	-2.282357e-37
167	0x82a71e56	-2.4555857e-37
168	0x02816164	1.9010746e-37
169	0x82100a80	-1.0582463e-37
170	0x0365dd60	6.7551178e-37
171	0x02cfca42	3.0532007e-37
172	0x83081795	-3.999388e-37
173	0x82b236b9	-2.6186159e-37
174	0x02af20f1	2.5732846e-37
175	0x82204749	-1.1775401e-37
176	0x82a7935a	-2.462302e-37
177	0x82a6b7a8	-2.4496921e-37
178	0x02aa1b7c	2.499503e-37
179	0x82ae7b08	-2.5637619e-37
180	0x024b4669	1.4934291e-37
181	0x02a34a39	2.39933e-37
182	0x82a1e6c4	-2.3789277e-37
183	0x02843abd	1.942937e-37
184	0x01583bae	3.9715752e-38
185	0x827a6441	-1.8395871e-37
186	0x01c20f6a	7.1286463e-38
187	0x01de6cb0	8.170588e-38
188	0x81444c84	-3.6054412e-38
189	0x82162e87	-1.1033612e-37
190	0x028cc2d6	2.0682981e-37
191	0x0203eed6	9.692903e-38
192	0x0220f13f	1.1824178e-37
193	0x03186190	4.478078e-37
194	0x82b216c4	-2.6167816e-37
195	0x82ac464c	-2.5313477e-37
196	0x02d5f5bc	3.1438582e-37
197	0x01b9121b	6.798425e-38
198	0x02964402	2.2079554e-37
199	0x82c6d14f	-2.9213622e-37
200	0x82b40959	-2.6453988e-37
201	0x8279f042	-1.8362581e-37
202	0x82c02f25	-2.8238924e-37
203	0x02b8b05d	2.7137598e-37
204	0x016e2d12	4.3746033e-38
205	0x81d4bf4a	-7.8150987e-38
206	0x02271104	1.2274106e-37
207	0x815b8a95	-4.0323375e-38
208	0x024b90b9	1.4955618e-37
209	0x81e91840	-8.562548e-38
210	0x82c2869b	-2.8582998e-37
211	0x820ebbf5	-1.0486453e-37
212	0x02a94035	2.4869171e-37
213	0x0295f170	2.203216e-37
214	0x02f1e4a8	3.554301e-37
215	0x02b96a38	2.7244273e-37
216	0x827bfe0e	-1.8513478e-37
217	0x0268f783	1.71157e-37
218	0x8333d2cd	-5.284536e-37
219	0x828c5ca4	-2.0624324e-37
220	0x8253c174	-1.555735e-37
221	0x82adcb3a	-2.5536712e-37
222	0x82365228	-1.3394826e-37
223	0x028f8c2e	2.109242e-37
224	0x82ac848e	-2.5349211e-37
225	0x028fd491	2.1133969e-37
226	0x02648d0c	1.6791273e-37
227	0x8292b312	-2.1555553e-37
228	0x0294798d	2.1816412e-37
229	0x02d1d501	3.0832048e-37
230	0x02e851d2	3.4136299e-37
231	0x0328fa2b	4.965794e-37
232	0x8289536e	-2.0178227e-37
233	0x8224dc34	-1.2112012e-37
234	0x02f69a91	3.6235168e-37
235	0x0306279a	3.942452e-37
236	0x0110a5e0	2.6567632e-38
237	0x02ab71f9	2.5191609e-37
238	0x82181ccf	-1.1175464e-37
239	0x0327632f	4.9190746e-37
240	0x82b42983	-2.647245e-37
241	0x0215c0dc	1.1002139e-37
242	0x01b88c88	6.779258e-38
243	0x82f7690c	-3.6353682e-37
244	0x032f64c0	5.1543533e-37
245	0x82db141b	-3.2190698e-37
246	0x801a7ccc	-2.432492e-39
247	0x0228ce82	1.2401956e-37
248	0x025097e7	1.532502e-37
249	0x82a578c0	-2.4313878e-37
250	0x01fdabf0	9.318424e-38
251	0x831372f5	-4.333138e-37
252	0x81467f56	-3.6458216e-38
253	0x833808ea	-5.4082973e-37
254	0x027822e5	1.8230177e-37
255	0x0296b74e	2.214573e-37

Layers.1.bias f4 [256]
0	0x82d6c649	-3.1558284e-37
1	0x82da527a	-3.207956e-37
2	0x82aa6eb3	-2.5042793e-37
3	0x82b23401	-2.6184598e-37
4	0x82ad909a	-2.5503063e-37
5	0x82e537a3	-3.368046e-37
6	0x83358369	-5.334197e-37
7	0x82adfb33	-2.5564247e-37
8	0x82b0dfcb	-2.5989327e-37
9	0x82c77108	-2.9305299e-37
10	0x82b263d0	-2.6212039e-37
11	0x82c7903a	-2.9323204e-37
12	0x82ad63b8	-2.54773e-37
13	0x82a8cedd	-2.4804115e-37
14	0x82f536bb	-3.6030928e-37
15	0x82b581e6	-2.6670118e-37
16	0x82b86ba2	-2.7098148e-37
17	0x82acc8d8	-2.5388407e-37
18	0x82d793e2	-3.1676291e-37
19	0x82afdd49	-2.584095e-37
20	0x82a736c3	-2.4569876e-37
21	0x82b78347	-2.6964783e-37
22	0x82bbc072	-2.7587639e-37
23	0x833580e2	-5.333907e-37
24	0x8318f841	-4.4953767e-37
25	0x82bb78f1	-2.7546597e-37
26	0x82ad81c8	-2.5494556e-37
27	0x82b64667	-2.6782905e-37
28	0x833428f8	-5.2944276e-37
29	0x82bbb0ca	-2.7578652e-37
30	0x82c0f6c2	-2.8353496e-37
31	0x82bb3929	-2.7509989e-37
32	0x82b346c4	-2.6342304e-37
33	0x82bfc1e0	-2.8176206e-37
34	0x82a2ad07	-2.3903073e-37
35	0x82a7cf25	-2.465734e-37
36	0x82c0e810	-2.8345062e-37
37	0x82ad2076	-2.5438697e-37
38	0x82ad196f	-2.5434664e-37
39	0x82b49c64	-2.6538387e-37
40	0x82b5619c	-2.6651585e-37
41	0x82a9f23e	-2.4971358e-37
42	0x82b1e2d6	-2.613801e-37
43	0x82859af4	-1.9631532e-37
44	0x82bc3a54	-2.7657596e-37
45	0x82a80a72	-2.4691377e-37
46	0x82c782e3	-2.9315547e-37
47	0x82b5c1e2	-2.6706843e-37
48	0x82a47609	-2.4165383e-37
49	0x82bb93dc	-2.7562048e-37
50	0x82ad8e68	-2.5501803e-37
51	0x82b718fa	-2.690377e-37
52	0x8333fc78	-5.289319e-37
53	0x82ac8d0f	-2.5354092e-37
54	0x82b3447a	-2.634099e-37
55	0xbf261559	-0.64876324
56	0x82b47d27	-2.6520457e-37
57	0x82c37692	-2.872073e-37
58	0x82bb82e4	-2.7552308e-37
59	0x82b957a4	-2.723361e-37
60	0x82b87944	-2.7105973e-37
61	0x82b14a4e	-2.6050461e-37
62	0x82ab97c8	-2.521331e-37
63	0xbf863fc9	-1.0488216
64	0x82e6bbfb	-3.3903358e-37
65	0x82bd2ddb	-2.7797374e-37
66	0x82b87d0f	-2.710815e-37
67	0x82a4a709	-2.4193508e-37
68	0x82bcba3e	-2.7731015e-37
69	0x82bffaed	-2.8208952e-37
70	0x82b8b682	-2.7141124e-37
71	0x834ba8ea	-5.985024e-37
72	0x82311493	-1.3009811e-37
73	0x829f47d4	-2.3404178e-37
74	0x82b632ad	-2.6771583e-37
75	0x82ac11d7	-2.5283368e-37
76	0x81c60319	-7.273816e-38
77	0x82c1f48f	-2.849917e-37
78	0x82b3dfcd	-2.6430141e-37
79	0x83348758	-5.3052613e-37
80	0xbf213850	-0.6297655
81	0x82b2ff5a	-2.6301314e-37
82	0x82b7dd44	-2.7016434e-37
83	0x82b5eeec	-2.6732694e-37
84	0x82be198a	-2.793265e-37
85	0x82b15dba	-2.606161e-37
86	0x82b012f6	-2.5871759e-37
87	0x82c5df7a	-2.9074818e-37
88	0x82ace0b0	-2.5402093e-37
89	0x82bc63a4	-2.7681308e-37
90	0x82b22966	-2.617851e-37
91	0x82948728	-2.1824221e-37
92	0x82d37875	-3.1072802e-37
93	0x83076aa8	-3.979537e-37
94	0x82c2bc18	-2.8613699e-37
95	0x82bb70cc	-2.7541923e-37
96	0x82abea5b	-2.5260705e-37
97	0x8334194c	-5.2926285e-37
98	0x82b6134c	-2.6753572e-37
99	0x82ab7a74	-2.5196476e-37
100	0x82b0ca24	-2.5976899e-37
101	0x8368c12e	-6.840043e-37
102	0x82b50e13	-2.6603638e-37
103	0x82bd9a02	-2.785945e-37
104	0x82b36620	-2.6360303e-37
105	0x8304e117	-3.9049704e-37
106	0x82b8dc52	-2.7162828e-37
107	0xbf06eb77	-0.5270304
108	0x8287ae7c	-1.9936616e-37
109	0x82bec98c	-2.8033673e-37
110	0x82bb8f1c	-2.7559321e-37
111	0x82b73664	-2.6920652e-37
112	0x82c5a126	-2.9039043e-37
113	0x82bfbdac	-2.8173794e-37
114	0x82be81b9	-2.7992448e-37
115	0x82f09379	-3.5349476e-37
116	0xbec0b207	-0.37635824
117	0x3d411233	0.047136497
118	0x82b089e8	-2.594003e-37
119	0x831d3fb1	-4.6211267e-37
120	0x836c5371	-6.9449953e-37
121	0x833af50a	-5.494178e-37
122	0x82aa3f91	-2.501574e-37
123	0x82bc56b3	-2.767388e-37
124	0x82a572ae	-2.4310394e-37
125	0x82a0a85a	-2.3606516e-37
126	0x82ad4512	-2.545971e-37
127	0x82b44cee	-2.6492778e-37
128	0x82a7d868	-2.4662656e-37
129	0x82b38522	-2.63781e-37
130	0x83444f10	-5.7689982e-37
131	0x83057d60	-3.922911e-37
132	0x82a44a45	-2.4140263e-37
133	0x82e3d10d	-3.3474641e-37
134	0x829eb0a2	-2.3317396e-37
135	0x82b7f233	-2.7028449e-37
136	0x833861a4	-5.4184826e-37
137	0x8337728e	-5.391037e-37
138	0xbfd1c1ab	-1.6387228
139	0x82aed7f2	-2.5690949e-37
140	0x82c454b7	-2.8848236e-37
141	0x82ba6596	-2.7388551e-37
142	0x82b41c3c	-2.6464829e-37
143	0x82adcaad	-2.5536396e-37
144	0x82b59ffa	-2.6687382e-37
145	0x82aea258	-2.5660183e-37
146	0x82a8d15c	-2.4805548e-37
147	0x82c1062a	-2.836234e-37
148	0x82b27d8c	-2.622681e-37
149	0x82f1b287	-3.5514237e-37
150	0x82af85af	-2.579067e-37
151	0x82aff477	-2.5854255e-37
152	0x82b4a2a9	-2.6541985e-37
153	0x82b6bd3a	-2.6851107e-37
154	0x82bd1c1e	-2.7787193e-37
155	0x82a5aad0	-2.4342613e-37
156	0x82bbf4b9	-2.7617644e-37
157	0x82c69111	-2.917675e-37
158	0x82b2e313	-2.6285084e-37
159	0x82b4e119	-2.6577823e-37
160	0x82a599b4	-2.4332792e-37
161	0x82afe63a	-2.5846082e-37
162	0x82b506ba	-2.659942e-37
163	0x82ba7c8a	-2.7401726e-37
164	0x82bc3944	-2.7656986e-37
165	0x8297d623	-2.2310364e-37
166	0x82b1b8ab	-2.6113807e-37
167	0x82b98b0a	-2.7263111e-37
168	0x82b69919	-2.683037e-37
169	0x82af5efb	-2.5768455e-37
170	0x82b3aa69	-2.6399497e-37
171	0x83078536	-3.9825853e-37
172	0x82ba4ea3	-2.737538e-37
173	0x82bb3bbb	-2.7511464e-37
174	0x82a99fd9	-2.4924066e-37
175	0x82b63648	-2.6773652e-37
176	0x82b6d32e	-2.6863708e-37
177	0x82aae94a	-2.5113156e-37
178	0x83013608	-3.7971718e-37
179	0x82b22a11	-2.6178894e-37
180	0x82c7762c	-2.930825e-37
181	0x825fb3ca	-1.643505e-37
182	0x82ad6c3e	-2.5482193e-37
183	0x82b92a93	-2.7207743e-37
184	0x826f862b	-1.7597451e-37
185	0x83022607	-3.824722e-37
186	0x82bb7c7c	-2.754863e-37
187	0x3f175668	0.5911622
188	0x82b58e54	-2.6677252e-37
189	0x82b4e777	-2.6581477e-37
190	0xbf96069f	-1.1720771
191	0x82ae2172	-2.5586199e-37
192	0x81ce5b5e	-7.5803554e-38
193	0x82972a2c	-2.2211661e-37
194	0x82bd2393	-2.7791473e-37
195	0x82b42546	-2.6470017e-37
196	0x827ad2b9	-1.8427574e-37
197	0x82ba6641	-2.7388935e-37
198	0x82ddcefa	-3.259183e-37
199	0x82b9aded	-2.7283135e-37
200	0x82c09ea1	-2.8302913e-37
201	0x82aca2be	-2.5366538e-37
202	0x82c11bae	-2.8374689e-37
203	0x82b54334	-2.6634132e-37
204	0x82b2c53b	-2.6267954e-37
205	0x828ae973	-2.041127e-37
206	0x82bdd5bf	-2.7893738e-37
207	0x835478d3	-6.24399e-37
208	0x0267d548	1.7032408e-37
209	0x82a04de9	-2.3554605e-37
210	0x82b0abc2	-2.595946e-37
211	0x82ba45aa	-2.7370229e-37
212	0xbf9402fc	-1.1563411
213	0x82ad3fe0	-2.5456728e-37
214	0x82b8b19e	-2.7138317e-37
215	0x82eacc15	-3.4500347e-37
216	0x82b55a40	-2.664736e-37
217	0x8365bcc4	-6.7513744e-37
218	0x82de75ae	-3.2687513e-37
219	0xbf4e0377	-0.80474037
220	0x82ba014b	-2.7330986e-37
221	0x829da4c7	-2.3163654e-37
222	0x82b3edd3	-2.643819e-37
223	0x82b22e8c	-2.6181466e-37
224	0x82c0cc12	-2.8328995e-37
225	0x82c592a4	-2.9030716e-37
226	0x82c5e235	-2.9076385e-37
227	0x82a95b03	-2.4884556e-37
228	0x83277fec	-4.9223736e-37
229	0x82f9707b	-3.6651822e-37
230	0x82c2cce0	-2.862333e-37
231	0x82bd97fe	-2.7858293e-37
232	0x82b291da	-2.6238464e-37
233	0xbf519782	-0.8187181
234	0x82b44b94	-2.6492003e-37
235	0x833338c1	-5.2668522e-37
236	0x82b5b682	-2.6700314e-37
237	0xbf83bc2a	-1.0291798
238	0x82be011e	-2.7918632e-37
239	0x82a52074	-2.4263198e-37
240	0x82b729a9	-2.6913345e-37
241	0x82aad09e	-2.5098995e-37
242	0x83012f30	-3.796386e-37
243	0x82e74402	-3.3981434e-37
244	0xbe4c610c	-0.19958895
245	0x82c10ee0	-2.836734e-37
246	0x82b9f6aa	-2.7324885e-37
247	0x82a14c84	-2.3700742e-37
248	0x82b50199	-2.6596477e-37
249	0x82bdbfcd	-2.7881142e-37
250	0x82b54d83	-2.664005e-37
251	0x82a85cb2	-2.4738586e-37
252	0x82d28e46	-3.0938388e-37
253	0x82c3c67f	-2.8766606e-37
254	0x82b0c19c	-2.5972002e-37
255	0x82b2b152	-2.6256526e-37

Layers.2.weight f4 [256, 256]
0	0x82a62d00	-2.4417337e-37
1	0x80035c40	-3.086e-40
2	0x82a37e8b	-2.402333e-37
3	0x82ad62cf	-2.5476779e-37
4	0x02a7db2d	2.4664245e-37
5	0x82c72945	-2.926411e-37
6	0x01e30327	8.3391154e-38
7	0x02a956e8	2.48822e-37
8	0x82b8d9e8	-2.7161442e-37
9	0x02bd2fdb	2.7798522e-37
10	0x82ad2c63	-2.5445542e-37
11	0x82b79884	-2.6976973e-37
12	0x824b3a70	-1.4930855e-37
13	0x82be6044	-2.7973245e-37
14	0x82a0e85b	-2.3643253e-37
15	0x02afbf52	2.5823751e-37
16	0x02bf7ea5	2.8137618e-37
17	0x82c7fef2	-2.9386753e-37
18	0x82a62a6c	-2.4415857e-37
19	0x02b8bfb8	2.7146411e-37
20	0x82ae5846	-2.5617669e-37
21	0x82a70b7a	-2.4545032e-37
22	0x82b610e2	-2.6752187e-37
23	0x82b090f8	-2.5944084e-37
24	0x82a01252	-2.3520402e-37
25	0x02afaccc	2.581312e-37
26	0x02b43eb7	2.648462e-37
27	0x02c7afe6	2.9341383e-37
28	0x02a82729	2.4707858e-37
29	0x02fb6113	3.6936853e-37
30	0x02af469b	2.5754464e-37
31	0x0345b9d2	5.810641e-37
32	0x02abd4df	2.5248374e-37
33	0x02b852f7	2.708399e-37
34	0x82b4bb5c	-2.6556162e-37
35	0x82a602ec	-2.4393185e-37
36	0x02bbfba1	2.7621608e-37
37	0x82b852f5	-2.7083985e-37
38	0x82b77d57	-2.6961375e-37
39	0x02b3b725	2.6406806e-37
40	0x82a79b34	-2.4627527e-37
41	0x82a69d9a	-2.4481967e-37
42	0x829c2c88	-2.29477e-37
43	0x82afa81c	-2.581043e-37
44	0x82b63de8	-2.677803e-37
45	0x024f7f08	1.5244414e-37
46	0x82ba69e4	-2.7391022e-37
47	0x82b71214	-2.689981e-37
48	0x82a17c3c	-2.372813e-37
49	0x82a40e07	-2.4105685e-37
50	0x0286315a	1.9717857e-37
51	0x82078233	-9.955599e-38
52	0x02881e83	2.0000917e-37
53	0x82b2db36	-2.628057e-37
54	0x82a757e2	-2.4588887e-37
55	0x82ab8319	-2.5201438e-37
56	0x02b8fa26	2.7179948e-37
57	0x02bc8712	2.7701644e-37
58	0x82b3500c	-2.634763e-37
59	0x02b7f4e1	2.7029987e-37
60	0x82b61022	-2.6751756e-37
61	0x829d9e86	-2.3160065e-37
62	0x029f7446	2.3429688e-37
63	0x82b2e949	-2.6288648e-37
64	0x82a19431	-2.3741882e-37
65	0x03447491	5.7733035e-37
66	0x02c4aa15	2.8897234e-37
67	0x82a7cc56	-2.4655728e-37
68	0x82a396a6	-2.4037165e-37
69	0x82c49efa	-2.889086e-37
70	0x82c11941	-2.8373296e-37
71	0x82a31a1e	-2.3965688e-37
72	0x82caaefd	-2.978167e-37
73	0x024825fc	1.470458e-37
74	0x02859338	1.9627093e-37
75	0x8299b3fc	-2.2584635e-37
76	0x02bcfdb7	2.7769742e-37
77	0x82b2bed8	-2.6264288e-37
78	0x02c42380	2.8819988e-37
79	0x82b1296c	-2.6031588e-37
80	0x82b0d961	-2.5985645e-37
81	0x82a135d7	-2.3687726e-37
82	0x830edb76	-4.198198e-37
83	0x82ca91b5	-2.9764864e-37
84	0x02c59e6b	2.9037476e-37
85	0x02a76b8d	2.4600176e-37
86	0x82acc3a8	-2.538543e-37
87	0x02b3db46	2.6427543e-37
88	0x82ad30c6	-2.544806e-37
89	0x82b2f641	-2.6296092e-37
90	0x82a641ef	-2.4429352e-37
91	0x82b83359	-2.7065842e-37
92	0x02bde30e	2.7901377e-37
93	0x82c7f782	-2.9382484e-37
94	0x82ba50f5	-2.737671e-37
95	0x82b48fa8	-2.6531078e-37
96	0x02bb32ca	2.7506332e-37
97	0x82a4b42b	-2.4201046e-37
98	0x82a9a6c2	-2.4928032e-37
99	0x82bd5b15	-2.7823333e-37
100	0x02c10d82	2.8366554e-37
101	0x82aa3636	-2.501037e-37
102	0x02b967d5	2.7242904e-37
103	0x02b64bcd	2.6786004e-37
104	0x0298daf7	2.2460072e-37
105	0x02c706c0	2.9244296e-37
106	0x82b285ec	-2.6231617e-37
107	0x82b990c8	-2.7266407e-37
108	0x8281da62	-1.9080192e-37
109	0x00ce4700	1.8943582e-38
110	0x82acdc71	-2.5399656e-37
111	0x8144f648	-3.6176213e-38
112	0x02c0b75e	2.8317112e-37
113	0x829ec448	-2.3328673e-37
114	0x82a2de5e	-2.3931393e-37
115	0x02bd294d	2.779476e-37
116	0x82b6a84c	-2.6839094e-37
117	0x82ac254b	-2.5294534e-37
118	0x02b63540	2.677306e-37
119	0x0277ea20	1.8213885e-37
120	0x82a452af	-2.4145092e-37
121	0x02abbf75	2.5236083e-37
122	0x02c24009	2.8542492e-37
123	0x829a39a7	-2.2661357e-37
124	0x82bc190f	-2.76385e-37
125	0x02c06d4c	2.8274598e-37
126	0x826f0998	-1.75617e-37
127	0x82b47439	-2.6515331e-37
128	0x02a82eba	2.47122e-37
129	0x82bc8991	-2.7703076e-37
130	0x82a7b86b	-2.4644295e-37
131	0x0282e93f	1.923566e-37
132	0x02a3da74	2.4076083e-37
133	0x82b6fecf	-2.688875e-37
134	0x82a70478	-2.454101e-37
135	0x8268aff4	-1.7095164e-37
136	0x82a3ab76	-2.4049111e-37
137	0x82a458a9	-2.4148523e-37
138	0x823f86b2	-1.407112e-37
139	0x02bb54be	2.752582e-37
140	0x82224bf2	-1.1923676e-37
141	0x82ac6921	-2.533347e-37
142	0x82a6af4a	-2.4492119e-37
143	0x8295cf51	-2.2012576e-37
144	0x02b7b1e7	2.6991544e-37
145	0x82a8f12b	-2.4823805e-37
146	0x8322f8ac	-4.7892983e-37
147	0x82b97184	-2.7248462e-37
148	0x02b89577	2.7122159e-37
149	0x82b77b69	-2.6960267e-37
150	0x82be238b	-2.7938391e-37
151	0x826fc330	-1.7614963e-37
152	0x82bf71b4	-2.813019e-37
153	0x02baa1cf	2.7423117e-37
154	0x82c39db8	-2.87432e-37
155	0x02b80f36	2.70451e-37
156	0x82b8df60	-2.716458e-37
157	0x025badf5	1.6139502e-37
158	0x02b05d62	2.5914475e-37
159	0x02acfa6b	2.5416861e-37
160	0x03228bb9	4.7767915e-37
161	0x02b18786	2.60856e-37
162	0x02a13222	2.3685599e-37
163	0x82a60c74	-2.4398656e-37
164	0x02c035e5	2.8242798e-37
165	0x82bd36f3	-2.7802593e-37
166	0x82a288a0	-2.388218e-37
167	0x82bcde90	-2.7751862e-37
168	0x02bcf0fa	2.776243e-37
169	0x02a86630	2.4744034e-37
170	0x029db804	2.3174696e-37
171	0x828f2af5	-2.1036618e-37
172	0x02bb1491	2.7488985e-37
173	0x02ba5918	2.738138e-37
174	0x02b478b7	2.651791e-37
175	0x031a1f69	4.529259e-37
176	0x83338678	-5.2757735e-37
177	0x02ab20e4	2.514507e-37
178	0x82a3ac24	-2.4049501e-37
179	0x82add9b6	-2.5545025e-37
180	0x02ab5d4e	2.5179746e-37
181	0x82a5b132	-2.4346276e-37
182	0x82cfd306	-3.0537038e-37
183	0x02c31a49	2.8667762e-37
184	0x02904e65	2.1203895e-37
185	0x02ba825a	2.7405062e-37
186	0x828b6bea	-2.0486154e-37
187	0x82b260a0	-2.621021e-37
188	0x02b517aa	2.6609142e-37
189	0x82a44015	-2.4134415e-37
190	0x82a1db64	-2.3782748e-37
191	0x82b2c441	-2.6267394e-37
192	0x82a26398	-2.3860925e-37
193	0x82a9ea0e	-2.496666e-37
194	0x02aef571	2.5707879e-37
195	0x82b58e3a	-2.6677194e-37
196	0x82ad7cc0	-2.5491668e-37
197	0x82bb6954	-2.7537636e-37
198	0x02a0bab6	2.3617054e-37
199	0x02cda5aa	3.021713e-37
200	0x02a351c0	2.399762e-37
201	0x0292c311	2.1564735e-37
202	0x82b038c2	-2.5893453e-37
203	0x02c67446	2.9160223e-37
204	0x83009be1	-3.779476e-37
205	0x82a2385e	-2.3836114e-37
206	0x8189211c	-5.037336e-38
207	0x82b2f87a	-2.6297368e-37
208	0x82acb57d	-2.5377298e-37
209	0x82ac1121	-2.528296e-37
210	0x82a6400f	-2.4428276e-37
211	0x82ab28e6	-2.5149666e-37
212	0x82a35348	-2.3998498e-37
213	0x82bd0ccc	-2.77784e-37
214	0x02bf130f	2.8075867e-37
215	0x032b3122	5.0308785e-37
216	0x02876108	1.989216e-37
217	0x82ff5c10	-3.7521724e-37
218	0x02ba51b7	2.7377146e-37
219	0x03568b4a	6.3048844e-37
220	0x82b766d2	-2.694845e-37
221	0x82bc9df6	-2.7714782e-37
222	0x02ac5f45	2.532781e-37
223	0x82b2fbac	-2.6299202e-37
224	0x02c983e1	2.960999e-37
225	0x82bfbfeb	-2.8175083e-37
226	0x029ac28e	2.2739935e-37
227	0x82a9652e	-2.4890392e-37
228	0x82abd7e6	-2.5250111e-37
229	0x029f65d1	2.342139e-37
230	0x02ae03d4	2.55692e-37
231	0x834599fe	-5.806987e-37
232	0x828a10e3	-2.028697e-37
233	0x82a640fe	-2.4428811e-37
234	0x02e3da31	3.3479888e-37
235	0x81c4d194	-7.229976e-38
236	0x82c65480	-2.9141986e-37
237	0x82b673ba	-2.680892e-37
238	0x029b4cfa	2.2819385e-37
239	0x82b2a74f	-2.625078e-37
240	0x024af87a	1.4911925e-37
241	0x82b35a14	-2.6353388e-37
242	0x829e1e6a	-2.323347e-37
243	0x82a50975	-2.425e-37
244	0x82131759	-1.0806555e-37
245	0x0225226a	1.2132162e-37
246	0x828e640a	-2.0922444e-37
247	0x02b994d3	2.7268728e-37
248	0x82bfedd4	-2.8201434e-37
249	0x82b26c44	-2.621689e-37
250	0x82a5bf13	-2.4354242e-37
251	0x82b07a53	-2.5931086e-37
252	0x82c31d68	-2.8669553e-37
253	0x82bf241a	-2.808565e-37
254	0x82b2f4ea	-2.6295323e-37
255	0x029f01a0	2.3363883e-37

Layers.2.bias f4 [256]
0	0x82b1cda1	-2.6125838e-37
1	0x829ea64e	-2.3311468e-37
2	0x829ad797	-2.2752009e-37
3	0x82aa2fa0	-2.500659e-37
4	0x82b38843	-2.6379896e-37
5	0x82c90523	-2.9537244e-37
6	0x82d28e09	-3.093825e-37
7	0x82a458e5	-2.4148657e-37
8	0x82b6874d	-2.6820155e-37
9	0x82aa5267	-2.5026552e-37
10	0x82c80db2	-2.939522e-37
11	0x82aa942e	-2.5064306e-37
12	0x82b04970	-2.5903027e-37
13	0x82a32126	-2.3969724e-37
14	0x82ae7ae5	-2.563754e-37
15	0x82afc83a	-2.5828863e-37
16	0x82b564c2	-2.6653392e-37
17	0x82ae155d	-2.5579264e-37
18	0x82af502a	-2.575995e-37
19	0x82ae6ba2	-2.562878e-37
20	0x82a7ef2e	-2.4675727e-37
21	0x82775be2	-1.8173063e-37
22	0x828f5692	-2.106165e-37
23	0x82b261b9	-2.621084e-37
24	0x82742778	-1.7937616e-37
25	0x82b22324	-2.617492e-37
26	0x82a8379c	-2.47173e-37
27	0x825849c1	-1.589034e-37
28	0x82bc2cd4	-2.7649847e-37
29	0x82b88991	-2.711533e-37
30	0x82ab4712	-2.5166984e-37
31	0x82b402e9	-2.6450293e-37
32	0x82b73cc3	-2.6924309e-37
33	0x82ad35d4	-2.5450961e-37
34	0x82c39f88	-2.8744241e-37
35	0x82c6f681	-2.9234971e-37
36	0x829d893f	-2.3147852e-37
37	0x82d1ef7e	-3.0847252e-37
38	0x82b890cd	-2.7119482e-37
39	0x829fd7ba	-2.3486771e-37
40	0x8286eded	-1.9826093e-37
41	0x82a98e04	-2.4913831e-37
42	0x825caffa	-1.621355e-37
43	0x82b4d375	-2.6569993e-37
44	0x8263f0e7	-1.6746462e-37
45	0x82b2d350	-2.6276037e-37
46	0x82c0531c	-2.8259567e-37
47	0x82bf4f04	-2.811028e-37
48	0x829da0e3	-2.316142e-37
49	0x3f7a4ef4	0.9777672
50	0x82bba0e3	-2.7569525e-37
51	0xbf8ac1c8	-1.0840387
52	0x82ae5d43	-2.5620532e-37
53	0x8268caf5	-1.7102914e-37
54	0x82b94880	-2.722492e-37
55	0x82b7430d	-2.6927919e-37
56	0x82cb8d45	-2.9909254e-37
57	0x82a3e5f9	-2.4082695e-37
58	0x82bae582	-2.7461975e-37
59	0x82a79ffc	-2.463027e-37
60	0x8274b1c5	-1.7977306e-37
61	0x82bd9f1f	-2.7862385e-37
62	0x82c27840	-2.8574758e-37
63	0x82c2c139	-2.8616642e-37
64	0x82acaa58	-2.53709e-37
65	0x82bf2811	-2.8087925e-37
66	0x82b9e951	-2.7317224e-37
67	0x82b4bb00	-2.6555956e-37
68	0x82c068a8	-2.8271934e-37
69	0x82a97295	-2.4898085e-37
70	0x82a9d03f	-2.4951846e-37
71	0x82ac5c24	-2.5326015e-37
72	0x82ba98e2	-2.7417994e-37
73	0x82a8f82b	-2.4827823e-37
74	0x82b50132	-2.6596246e-37
75	0x82bb8b8d	-2.7557279e-37
76	0x82c0e584	-2.83436e-37
77	0x829ac134	-2.273916e-37
78	0x82bdfbe1	-2.7915625e-37
79	0x82a9cc08	-2.4949426e-37
80	0x82b979fe	-2.7253327e-37
81	0x82b09883	-2.5948413e-37
82	0x82a058f8	-2.3560953e-37
83	0x82b0d712	-2.598432e-37
84	0x82c023b6	-2.8232361e-37
85	0x820e3414	-1.0447458e-37
86	0x82a85ada	-2.4737528e-37
87	0x82b30cea	-2.6309098e-37
88	0x8353c6a4	-6.2235355e-37
89	0x82a7d898	-2.4662763e-37
90	0x82a5ef8a	-2.438206e-37
91	0x82b398d1	-2.6389398e-37
92	0x82c325e4	-2.8674423e-37
93	0x82bacca7	-2.7447708e-37
94	0x828c2f54	-2.0598316e-37
95	0x82a90517	-2.483524e-37
96	0x82b1553f	-2.6056741e-37
97	0x8291be8e	-2.1415208e-37
98	0xbf24985f	-0.64295
99	0x82b0ab4d	-2.5959198e-37
100	0x82b1b11a	-2.6109464e-37
101	0x81eca68d	-8.6931697e-38
102	0x82af213c	-2.5733015e-37
103	0x82ab51c9	-2.5173134e-37
104	0x829dd3ed	-2.3190716e-37
105	0x829ca7f4	-2.301854e-37
106	0x82af8cfa	-2.5794856e-37
107	0x8298767e	-2.2402404e-37
108	0x82a22c97	-2.3829354e-37
109	0x82b767ce	-2.6949014e-37
110	0x82bab16c	-2.7432079e-37
111	0x3f813a89	1.0095989
112	0x82ad8a36	-2.5499395e-37
113	0x82b85dce	-2.7090211e-37
114	0x3f36760c	0.71273875
115	0x82abce22	-2.5244506e-37
116	0x82ad1fae	-2.5438249e-37
117	0x82bf8c62	-2.8145503e-37
118	0x82c0e77f	-2.8344737e-37
119	0x82b1408f	-2.6044867e-37
120	0x829e7a3e	-2.3286177e-37
121	0x82c9c4da	-2.9647283e-37
122	0xbcd645ae	-0.026156273
123	0x82af6480	-2.5771623e-37
124	0x82b5a2bd	-2.6688967e-37
125	0x82ab4a93	-2.5168995e-37
126	0x82abeb2c	-2.5261174e-37
127	0x82ba217c	-2.7349463e-37
128	0x82c0d0ae	-2.833164e-37
129	0x82b68fab	-2.6824958e-37
130	0x819e1167	-5.8065005e-38
131	0x82af9964	-2.580198e-37
132	0x82a5806d	-2.4318284e-37
133	0x82b98fe1	-2.726589e-37
134	0x82b37a64	-2.6371935e-37
135	0x82c9b1d3	-2.9636362e-37
136	0x82a17a0e	-2.372688e-37
137	0x82bf2caa	-2.8090564e-37
138	0x82af4de5	-2.5758648e-37
139	0x3f5aac3d	0.85419065
140	0x8296cd4c	-2.2158354e-37
141	0x82bbda1a	-2.7602365e-37
142	0x82b638d6	-2.6775119e-37
143	0x82cd075d	-3.012627e-37
144	0x828d5823	-2.0768676e-37
145	0x82bcd7eb	-2.7748048e-37
146	0x82aa4546	-2.5019016e-37
147	0x82c705e6	-2.9243808e-37
148	0x82b7f3a1	-2.702927e-37
149	0x82a37420	-2.401735e-37
150	0x82a3a1ed	-2.4043638e-37
151	0x82af64db	-2.5771827e-37
152	0x82bf3419	-2.809483e-37
153	0x82bd372f	-2.7802728e-37
154	0x82aa0586	-2.4982425e-37
155	0x82ae1f33	-2.558491e-37
156	0x82a16e06	-2.3719974e-37
157	0x82b1430a	-2.604629e-37
158	0x82b149ca	-2.6050165e-37
159	0x82bdbbcf	-2.787885e-37
160	0x82b8f564	-2.7177217e-37
161	0x82a33544	-2.398127e-37
162	0x82ad8258	-2.549488e-37
163	0x82a92893	-2.4855607e-37
164	0x82af5968	-2.5765256e-37
165	0x82be6aef	-2.7979368e-37
166	0x82a9397e	-2.4865317e-37
167	0x82abcd08	-2.5243874e-37
168	0x82b32109	-2.6320647e-37
169	0x82a90f07	-2.4840943e-37
170	0x82bb70a8	-2.7541842e-37
171	0x82b2f48d	-2.6295115e-37
172	0xbf3714d6	-0.7151617
173	0xbf719952	-0.94374573
174	0x82b9a940	-2.7280452e-37
175	0x82b0ef35	-2.5998174e-37
176	0x82b06ca9	-2.5923244e-37
177	0x82a68e6b	-2.4473252e-37
178	0x82c741bc	-2.9278152e-37
179	0x82b037e9	-2.5892967e-37
180	0x82b02d95	-2.5887039e-37
181	0x82c63163	-2.9121832e-37
182	0x82b9b994	-2.7289823e-37
183	0x82b699f2	-2.6830857e-37
184	0x82ac8e16	-2.5354682e-37
185	0x82a47dc0	-2.4169811e-37
186	0x82baad60	-2.7429756e-37
187	0x3f2605b0	0.6485243
188	0x82b2172f	-2.6168056e-37
189	0x82a28662	-2.3880893e-37
190	0x82bf1727	-2.8078216e-37
191	0xbf9d37c7	-1.2282647
192	0x82bb1d57	-2.749402e-37
193	0x82b80eb2	-2.7044805e-37
194	0x82a8d207	-2.4805931e-37
195	0x829e1b68	-2.3231744e-37
196	0x82b5a977	-2.6692828e-37
197	0x82bc1cc3	-2.7640626e-37
198	0x82c88a9b	-2.9466914e-37
199	0x82c4df87	-2.892791e-37
200	0x82af7e12	-2.57863e-37
201	0x82395306	-1.361548e-37
202	0x8230d673	-1.2991982e-37
203	0x3f8cf425	1.1012007
204	0x82aa2208	-2.4998788e-37
205	0x82aae3c2	-2.5109982e-37
206	0x82c13bc4	-2.8393105e-37
207	0x82a36a24	-2.401162e-37
208	0x82be80ab	-2.7991843e-37
209	0xbf50dba4	-0.81585145
210	0x82b69c04	-2.6832045e-37
211	0x8291cf36	-2.1424768e-37
212	0x82b26c98	-2.621708e-37
213	0x82832cc2	-1.927441e-37
214	0x82d82141	-3.1757434e-37
215	0x829f696d	-2.3423462e-37
216	0x82aac58c	-2.5092641e-37
217	0x82b6a559	-2.6837401e-37
218	0x82be1bdc	-2.7933981e-37
219	0x82bd1272	-2.7781641e-37
220	0x82b9bca2	-2.7291577e-37
221	0x82cb5f1e	-2.9882764e-37
222	0x82ba3c21	-2.7364756e-37
223	0x82b1a1e2	-2.6100729e-37
224	0x82c640e8	-2.913074e-37
225	0x82ad5c15	-2.5472918e-37
226	0x82b3b3e6	-2.6404943e-37
227	0x82bcc27d	-2.7735748e-37
228	0x829b5205	-2.282228e-37
229	0x82c0042e	-2.8214263e-37
230	0x82b7cdc7	-2.7007544e-37
231	0x82b0f0a2	-2.5998992e-37
232	0x82cc8822	-3.0053242e-37
233	0x82b83e80	-2.7072243e-37
234	0x829c54e3	-2.2970862e-37
235	0x3f0ecdea	0.5578295
236	0x82bd54b9	-2.7819682e-37
237	0x82b0fb04	-2.6004952e-37
238	0x82b0ba5c	-2.596784e-37
239	0x82ac13fa	-2.5284595e-37
240	0x82bacfcc	-2.7449513e-37
241	0x82b2f475	-2.629506e-37
242	0x82c72d12	-2.926629e-37
243	0x82af756c	-2.5781336e-37
244	0x826566b6	-1.685374e-37
245	0x82b6e2d3	-2.6872687e-37
246	0x829ba3d0	-2.2869227e-37
247	0x82b1e38d	-2.613842e-37
248	0x82c8bee5	-2.9496927e-37
249	0x82b64e6a	-2.6787504e-37
250	0x82c23fa8	-2.8542275e-37
251	0x82a9fd59	-2.4977733e-37
252	0x82c7bfbc	-2.9350472e-37
253	0x82a6c906	-2.450689e-37
254	0x82c5192e	-2.8961e-37
255	0x82b94247	-2.7221348e-37
