03-simulation/PruningAMR/checkpoints/high_oscillation_full_dict.ckpt (torch, 798866 bytes, 18 tensors)

Layers.0.weight f4 [256, 2]
2.494279e-37 -1.9318588e-37 3.2261655 0.27653754 -2.9325354e-38 -1.1251528e-37 -2.264741e-37 -1.9978924e-37
3.408848 -0.8318015 -2.0151883e-37 2.511633e-37 -2.1270332e-37 2.5313726e-37 2.4222657e-37 -1.7825761e-37
-6.0822017e-37 -5.6801985e-37 1.868635e-37 -2.1651202e-37 -2.6103448e-37 -2.6288198e-37 -2.1201623e-37 2.4073693e-37
-1.9818768e-37 -1.9901425e-37 -2.1615408e-37 2.4134682e-37 -2.1627217e-37 -2.4325528e-37 -2.4796557e-37 -2.643241e-37
-2.646752e-37 2.6287812e-37 -1.6149459e-37 2.3710398e-37 -2.0428017e-37 -2.181063e-37 2.4741227e-37 -2.8339477e-37
-1.215011e-37 2.3700307e-37 -1.2542871 3.4447808 2.3638484e-37 -1.716279e-37 5.5043587e-38 -1.4219922e-37
-1.5041358e-37 -1.6863361e-37 -2.099249 -2.0561624 -2.2105728e-37 -1.9840844e-37 -4.2315496e-37 -3.4170165e-37
2.4201303e-37 -1.884256e-37 -2.1325754e-37 2.3281137e-37 -2.450915e-37 -2.466369e-37 -1.7179924 2.6516786
-2.4019868e-37 -2.6244493e-37 -1.8911234e-37 2.5692886e-37 -1.9914826e-37 -1.6083291e-37 1.70875 2.4001787
0.3282157 -0.32473975 2.3135628e-37 -1.3898695e-37 -2.520112e-37 -2.2567546e-37 -2.4234982e-37 5.2922335e-38
-2.390603e-37 -2.2490867e-37 -2.1697773e-37 -2.3583593e-37 -7.5195066e-38 -2.124851e-37 -2.4783114e-37 2.3550926e-37
6.912386e-38 -5.07887e-37 2.3567468e-37 -2.1203969e-37 2.5585174e-37 -2.2289964e-37 -2.1462254e-37 2.5527977e-37
-2.087891e-37 -2.1173828e-37 -2.1003273 -1.9432524 2.993779 -1.5673808 -3.068913e-37 3.0150478e-38
0.267716 0.26856342 2.5090251e-37 -1.9883246e-37 -1.2187798e-37 -5.663401e-37 3.801527e-39 -2.275533e-37
-2.2131368e-37 2.4166067e-37 -2.6100365e-37 -2.5707793e-37 -4.4249082e-38 -2.5279393e-37 -2.589016e-37 -2.545403e-37
-2.7631442e-37 -2.5824747e-37 -1.5550749e-37 -5.1570052e-37 -2.0948825e-37 -2.3769878e-37 -2.5345297e-37 -2.4201915e-37
-2.153171e-37 -2.0895445e-37 -2.1214937e-37 -2.1265247e-37 7.189833e-38 1.9717121e-38 -1.8553909e-37 2.2940982e-37
2.6422843e-37 -2.234059e-37 2.9297066 2.7335262 -2.0297032e-37 2.2867595e-37 -2.5017906e-37 -2.4080254e-37
1.2728272e-37 1.752576e-37 -2.837775e-37 -2.342532e-37 -2.3088031e-37 -2.1829717e-37 -2.276814e-37 -2.4061752e-37
1.8716458 -0.108123586 2.6037188e-37 -1.7373897e-37 1.7333934e-37 -1.4848033e-37 -4.2186985e-37 -4.9851585e-37
-6.18025e-38 2.5759206e-37 2.5069723e-37 -2.543511e-37 -2.442488e-37 -2.851289e-37 -2.0842324e-37 -2.229886e-37
-8.180372e-38 -1.2976051e-37 -2.073841e-37 -2.2159546e-37 -2.742232e-37 -2.2641555e-37 -2.198032e-37 1.8727941e-37
-8.124364e-38 -4.3946928e-38 -2.21906e-37 -2.1724474e-37 -1.2199784e-37 -1.491023e-37 -1.5974168e-37 1.7009835e-37
-2.6314448e-37 -2.4408586e-37 -1.4462461e-37 -2.18497e-37 -1.2390315e-38 -1.2478327e-37 -0.46020398 0.991631
-2.3207857e-37 -2.6486227e-37 -1.8384164e-37 1.9855729e-37 6.105289e-38 -8.9570123e-38 -6.3039104e-37 -6.2434743e-37
-2.6016344e-37 -7.1421363e-38 -2.2279255e-37 -2.2669668e-37 8.1056843e-38 -2.9215274e-38 -2.2685684e-37 -3.0576826e-37
-2.8121625e-37 -2.613754e-37 -4.5237306e-38 1.3643971e-37 -2.3842203e-37 -2.4235522e-37 -2.524035e-37 -2.5571926e-37
-2.810688e-37 -2.5710394e-37 1.3276017e-37 1.6268324e-38 -2.2052586e-37 -1.6131351e-37 2.5147128e-37 -2.1784232e-37
-2.2559125e-37 -2.4993566e-37 -2.2525669e-37 -2.1673865e-37 -1.4017989e-37 -2.1811392e-37 2.5018074e-37 -3.422308e-38
-2.223308e-37 -2.1653557e-37 -6.689049e-37 -2.230707e-37 -2.1760697e-37 -2.1689446e-37 1.1860385e-37 -2.1746332e-37
-1.4281718e-37 -5.3353133e-38 -2.3980102e-37 -2.1389074e-37 -2.1017616e-37 -2.219558e-37 0.2184157 -0.057388328
-2.2830825e-37 -2.088899e-37 1.5171871e-37 -2.5635489e-37 -2.399131e-37 -2.059778e-37 -2.6204167e-37 -2.4544743e-37
00000000: 78c0 a902 ba79 8382 7f79 4e40 5496 8d3e
00000010: 94a9 1f81 da25 1982 5a21 9a82 32f8 8782
00000020: 912a 5a40 f1f0 54bf 8825 8982 d2ee aa02
00000030: 25c2 9082 bb46 ac02 d2d9 a402 b6a1 7282
00000040: 73f7 4e83 8249 4183 6d58 7e02 b759 9382
00000050: 9fa6 b182 80e8 b282 704a 9082 4ad6 a302
00000060: 2ae1 8682 2c71 8782 5a1b 9382 8c40 a402
00000070: ed2f 9382 0c8d a582 b2c1 a882 c1e3 b382
00000080: ec20 b482 d4e7 b202 a7d0 5b82 575d a102
00000090: a006 8b82 7a6f 9482 4c61 a802 55de c082
000000a0: f460 2582 c24b a102 7b8c a0bf 4a77 5c40
000000b0: 0ce0 a002 989b 6982 c8d7 9501 328d 4182
000000c0: 7cbb 4c82 3d88 6582 185a 06c0 2a98 03c0
000000d0: 9c71 9682 a007 8782 fffd 0f83 d38c e882
000000e0: 9eb4 a402 5f3c 8082 b422 9182 7671 9e02
000000f0: f6cc a682 35da a782 2de7 dbbf 1ab5 2940
00000100: 8378 a382 5b9c b282 04b4 8082 52db ae02
00000110: 8588 8782 17ea 5a82 52b8 da3f 879c 1940
00000120: e30b a83e 4a44 a6be f373 9d02 e22d 3d82
00000130: 8b82 ab82 3696 9982 4bef a482 7c11 9001
00000140: 2eb2 a282 9e10 9982 daaa 9382 6a80 a082
00000150: 50b3 cc81 209c 9082 46aa a882 8047 a002
00000160: 4d2c bc01 33d3 2c83 5264 a002 864e 9082
00000170: a91f ae02 98b2 9782 8510 9282 02bc ad02
00000180: 3118 8e82 031a 9082 c36b 06c0 7fbc f8bf
00000190: 139a 3f40 ef9f c8bf 01dc d082 a227 2401
000001a0: 1212 893e 2581 893e 62c1 aa02 8051 8782
000001b0: 47e4 2582 2eb7 4083 1c65 2900 60dd 9a82
000001c0: 489e 9682 3a77 a402 40a1 b182 4bf5 ae82
000001d0: 38ea 7081 ea0a ac82 0533 b082 2d3b ad82
000001e0: c30c bc82 0ec1 af82 74aa 5382 da7b 2f83
000001f0: 0092 8e82 f8c4 a182 bc7d ac82 afb5 a482
00000200: 8889 9282 0035 8e82 a261 9082 49b9 9082
00000210: d3b9 c301 50b3 d600 f08a 7c82 d420 9c02
00000220: 16d3 b302 cc0a 9882 5080 3b40 18f2 2e40
00000230: 6b22 8a82 f8a0 9b02 5743 aa82 b8e1 a382
00000240: 8e3f 2d02 5c8c 6e02 0321 c182 aa6c 9f82
00000250: 0621 9d82 bb90 9482 b2f3 9a82 7cc1 a382
00000260: 1792 ef3f e66f ddbd 2e33 b102 327b 6c82
00000270: f2ef 6b02 d819 4a82 0c8e 0f83 dba2 2983
00000280: 0e3e a881 de4e af02 9e9d aa02 361a ad82
00000290: 253a a682 760c c282 73d8 8d82 18c2 9782
000002a0: dfb0 de81 f09e 3082 6823 8d82 60cf 9682
000002b0: 6ba0 ba82 2717 9a82 1e97 9582 5ae9 7e02
000002c0: 8e2a dd81 1445 6f81 7a05 9782 5fd9 9382
000002d0: 0b0e 2682 92f2 4a82 da6d 5982 a086 6702
000002e0: 3c16 b382 c11d a682 52da 4482 8cb3 9482
000002f0: 28eb 8680 a0d8 2982 db9f ebbe 87db 7d3f
00000300: caf1 9d82 8441 b482 763b 7a82 8f21 8702
00000310: a833 a601 44d5 f381 ce82 5683 5574 5483
00000320: dd0e b182 6d6d c281 f09f 9782 2248 9a82
00000330: 60a8 dc01 2610 1f81 0964 9a82 5818 d082
00000340: c862 bf82 04e2 b182 9a4b 7681 4db6 3902
00000350: fa42 a282 3cf0 a482 e4c6 ab82 9408 ae82
00000360: 1749 bf82 d3f9 ae82 2bb4 3402 7825 b100
00000370: 0615 9682 8e91 5b82 7a24 ab02 7c41 9482
00000380: 8a87 9982 ef18 aa82 404d 9982 3381 9382
00000390: 90cd 3e82 ce70 9482 a243 aa02 0354 3a81
000003a0: 7d4f 9782 d15d 9382 d69d 6383 66d0 9782
000003b0: 7b18 9482 589c 9382 696f 2102 74ff 9382
000003c0: 8664 4282 b53d 9181 3b33 a382 0691 9182
000003d0: da09 8f82 270e 9782 5ea8 5f3e 0610 6bbd
000003e0: e860 9b82 c129 8e82 4182 4e02 5277 ae82
000003f0: c246 a382 652e 8c82 1956 b282 f90a a782

Layers.0.bias f4 [256]
-2.6196163e-37 -0.07127639 -8.141111e-38 -3.0381684e-37 -0.034851473 -2.6466494e-37 -2.582089e-37 -2.5983437e-37
-3.789786e-37 -2.3238371e-37 -2.504128e-37 -2.5629209e-37 -2.7221207e-37 -2.5061073e-37 -2.9467266e-37 -3.0039341e-37
-2.8781812e-37 -2.4400785e-37 -2.8381594e-37 -2.562749e-37 -2.7357945e-37 -0.07726179 -2.7189565e-37 -2.5537927e-37
-2.4767948e-37 0.3104135 -2.7840323e-37 -3.3416323e-37 -2.6912372e-37 -2.6220341e-37 -2.7952183e-37 -0.0632914
-3.1644108e-37 -2.5924802e-37 -4.6367374e-37 -0.0840507 -0.034237716 -2.4942658e-37 -2.7886321e-37 -2.5090946e-37
-9.786544e-38 -4.2683766e-37 -4.012465e-37 -2.912655e-37 -4.207931e-37 -2.5299576e-37 -2.583701e-37 -2.5807478e-37
-2.8415786e-37 0.23973727 -0.05780199 -3.2217921e-37 -0.10358771 -2.571331e-37 -2.874648e-37 -2.3986714e-37
-2.6848905e-37 -2.4483559e-37 -3.9439184e-37 -2.5648273e-37 -2.6366883e-37 -3.6584925e-37 -2.7482934e-37 -2.708389e-37
-2.7006535e-37 -3.0457895e-37 -4.2494894e-37 -2.668845e-37 -2.6381269e-37 -0.100455746 -2.6034143e-37 -2.7568834e-37
-5.039998e-37 -2.4782302e-37 -3.0268605e-37 -2.8856704e-37 -0.03976129 -2.602494e-37 -2.0968633e-37 -6.838403e-37
-2.5763892e-37 -2.6184118e-37 -3.1093643e-37 -2.749087e-37 -2.5589535e-37 -2.9402764e-37 -2.9063237e-37 -2.4031903e-37
-4.7263524e-37 -2.538295e-37 -2.9342611e-37 -2.495435e-37 -2.9175655e-37 -4.7434357e-37 -2.6308493e-37 -0.02235768
-3.1027078e-37 -2.1988776e-37 -2.9197114e-37 -4.91068e-37 -2.9868226e-37 -2.819881e-37 -3.055832e-37 -2.4013184e-37
-2.5148016e-37 -2.2838001e-37 -2.9707958e-37 -2.54737e-37 -2.4918488e-37 -2.9359162e-37 -4.6236536e-37 -2.720179e-37
-2.8312025e-37 -2.4663813e-37 -2.8620062e-37 -2.5081819e-37 -3.000695e-37 -6.302615e-37 -3.0981326e-37 -2.3604767e-37
-2.5746272e-37 -2.8154057e-37 -3.3911988e-37 -0.051881935 -2.7474133e-37 -2.3618271e-37 -2.7581605e-37 -2.7723643e-37
-5.6219068e-37 -0.04328905 -1.0483368e-37 -2.6130232e-37 -2.3087157e-37 -2.639125e-37 -3.0385395e-37 -5.4369363e-37
-2.7215187e-37 -2.4808958e-37 -3.1280757e-37 -2.4209442e-37 -2.5302325e-37 -3.2334902e-37 -2.492449e-37 -2.7449955e-37
-3.7024882e-37 -2.563309e-37 -4.138319e-37 -3.2979122e-37 -5.6440437e-37 -2.978869e-37 -3.1074684e-37 -4.012792e-37
-2.968459e-37 -2.5509083e-37 -3.4644163e-37 -2.6437543e-37 -2.3582454e-37 -3.716889e-37 -6.096192e-37 -2.472663e-37
-2.4679254e-37 -2.6691326e-37 -2.9246518e-37 -3.5018861e-37 0.5007953 -0.040566273 -2.4208568e-37 -3.2200843e-37
-2.7663363e-37 -1.4735976e-37 -2.5925035e-37 -4.4191156e-37 -6.1630344e-37 -2.521267e-37 -6.342363e-37 -6.150969e-37
-2.8461233e-37 -4.7829106e-37 -5.3862604e-37 -5.867406e-37 -2.8765853e-37 -2.8612808e-37 -5.121508e-37 -3.6558574e-37
-2.9311426e-37 -2.7770184e-37 -2.8586856e-37 -3.055721e-37 -2.287359e-37 -2.8501731e-37 -4.3180387e-37 -6.0136842e-37
-2.604164e-37 -2.5607144e-37 -3.1610018e-37 -4.1798007e-37 -3.7692144e-37 -3.3798315e-37 -2.4348177e-37 -2.8805385e-37
-2.65631e-37 -2.5003662e-37 -2.5874582e-37 -2.4729124e-37 -2.6025381e-37 -4.5142935e-37 -3.149316e-37 -2.6174354e-37
-0.03155432 -2.5347406e-37 -2.5373314e-37 -3.1383023e-37 -2.7165043e-37 -2.864447e-37 -2.1513505e-37 -2.524686e-37
-2.6000044e-37 -2.748731e-37 -2.74618e-37 -3.25666e-37 -2.4910905e-37 -2.9030124e-37 -3.1356477e-37 -2.484164e-37
-2.5338494e-37 -3.0295095e-37 -2.8926524e-37 -6.135109e-37 -2.6723107e-37 -5.4648994e-37 -6.2473697e-37 -2.6578242e-37
-2.540413e-38 -2.9049094e-37 -2.5715997e-37 -2.9270703e-37 -2.806373e-37 -0.033752766 -2.5316378e-37 -0.066214696
-3.1757127e-37 -4.7945855e-37 -1.6622569e-37 -3.1104795e-37 -4.9217207e-37 -2.9174868e-37 -0.037360333 -2.680612e-37
-5.906782e-37 -2.4709576e-37 -3.0478943e-37 -2.5479577e-37 -4.348283e-37 -2.5137324e-37 -2.7226572e-37 -2.8240507e-37
00000000: 2748 b282 5bf9 91bd 439f dd81 5cc4 ce82
00000010: 6bc0 0ebd 231f b482 56ba af82 88d5 b082
00000020: b1f5 0083 f426 9e82 106c aa82 616c ae82
00000030: 0842 b982 8c8e aa82 388b c882 ea6f cc82
00000040: fde0 c382 2a10 a682 b627 c182 6269 ae82
00000050: 4330 ba82 6e3b 9ebd e70a b982 58cd ad82
00000060: da8f a882 85ee 9e3e af78 bd82 726b e382
00000070: f727 b782 4772 b282 923b be82 ec9e 81bd
00000080: d05b d782 606f b082 aec7 1d83 c622 acbd
00000090: d93c 0cbd 3dc0 a982 d3c8 bd82 98c2 aa82
000000a0: 2135 0582 ce3e 1183 8089 0883 9b39 c682
000000b0: 4030 0f83 142e ac82 6cd6 af82 f8a2 af82
000000c0: 4863 c182 b07d 753e c8c1 6cbd 8943 db82
000000d0: cb25 d4bd e7fe ae82 6fa3 c382 c03e a382
000000e0: 64b9 b682 60a0 a682 6034 0683 988d ae82
000000f0: 9771 b382 eefb f882 060a bb82 cb52 b882
00000100: 05cc b782 2349 cf82 469a 1083 d6a1 b582
00000110: a78a b382 bebb cdbd e02d b182 af9f bb82
00000120: 9380 2b83 dca8 a882 59ff cd82 7863 c482
00000130: bcdc 22bd d71d b182 83b4 8e82 e4b2 6883
00000140: 0857 af82 2b33 b282 c49c d382 da17 bb82
00000150: 4227 ae82 d71a c882 4dcb c582 7b8d a382
00000160: 56d4 2083 56bf ac82 0ab2 c782 9cd4 a982
00000170: 298f c682 2769 2183 dc0b b382 7427 b7bc
00000180: cb28 d382 daa5 9582 8cb4 c682 0e1a 2783
00000190: ca45 cb82 42e9 bf82 1af8 cf82 de6c a382
000001a0: 0626 ab82 696d 9b82 902e ca82 725d ad82
000001b0: 2196 a982 e0ce c782 b455 1d83 3420 b982
000001c0: 81ae c082 6cda a782 2ec7 c282 b1b2 aa82
000001d0: 7b37 cc82 8577 5683 15d9 d282 4ea5 a082
000001e0: 5538 af82 499b bf82 04cb e682 2782 54bd
000001f0: b1fa ba82 d5bc a082 efb5 bb82 66ad bc82
00000200: b74d 3f83 dc4f 31bd 35b1 0e82 49d5 b182
00000210: 801f 9d82 0b9c b382 d3ca ce82 6502 3983
00000220: 8b37 b982 4dd7 a882 c4e2 d482 ccc2 a482
00000230: de32 ac82 580f dc82 96a0 a982 91d0 ba82
00000240: 71fa fb82 2473 ae82 d8d1 0c83 bc71 e082
00000250: 8e0e 4083 38bb ca82 bc7b d382 598c 0883
00000260: da05 ca82 179b ad82 a5c6 eb82 b2ec b382
00000270: 6e7e a082 57f5 fc82 5271 4f83 de47 a882
00000280: 53f5 a782 d9a6 b582 9f0a c782 7653 ee82
00000290: 1f34 003f d228 26bd 46c1 a482 c825 db82
000002a0: 6044 bc82 6293 4882 c86f b082 ed5f 1683
000002b0: 9ab7 5183 ab96 ab82 c6d1 5783 7f4e 5183
000002c0: 76b2 c182 07c1 2283 f248 3783 51a8 4783
000002d0: 2fc5 c382 8bba c282 a046 2e83 05ce f882
000002e0: b57b c782 7cfe bc82 548d c282 2bf6 cf82
000002f0: 6aab 9b82 05f9 c182 6cef 1283 94a2 4c83
00000300: f03a b182 f045 ae82 6b20 d782 333b 0e83
00000310: 7d42 0083 f804 e682 82b4 a582 0f0a c482
00000320: 72c7 b482 862a aa82 e117 b082 364c a882
00000330: 9c1e b182 0b9d 1983 d354 d682 2822 b282
00000340: 1a3f 01bd 6981 ac82 8cae ac82 f094 d582
00000350: 2ee0 b882 b5f1 c282 d069 9282 3cd2 ab82
00000360: 77f2 b082 a611 bb82 34e5 ba82 05a3 dd82
00000370: eb88 a982 9c91 c582 b066 d582 3e10 a982
00000380: e271 ac82 802d ce82 1ddd c482 56c4 5083
00000390: 38de b582 fdf5 3983 4496 5483 d4e1 b482
000003a0: 3050 0a81 a9b2 c582 9603 af82 c234 c782
000003b0: eafd be82 5740 0abd 5a4b ac82 929b 87bd
000003c0: b820 d882 bb26 2383 3341 6282 32b0 d382
000003d0: 3c7a 2783 ca8d c682 2607 19bd d96e b682
000003e0: 54ff 4883 272a a882 cf6d cf82 af67 ad82
000003f0: e3f6 1383 6513 ab82 614b b982 e731 c082

Layers.1.weight f4 [256, 256]
-2.0135489e-37 -2.470165e-37 -2.2376613e-37 -5.034383e-37 -2.6677622e-37 5.848015e-38 -1.5216045e-37 2.2701593e-37
6.3361367e-37 -2.2962246e-37 3.6130048e-37 -7.288215e-39 -2.637693e-37 -1.9178861e-37 -3.123756e-37 3.5242224e-37
-1.7325904e-37 -3.4272447e-37 -6.3976494e-37 -3.3100968e-38 -6.164921e-37 -2.4253553e-37 5.894914e-37 -1.6766785e-37
-2.36527e-37 -2.6205048e-37 -2.155744e-37 1.5139037e-37 3.1679056e-37 -2.3010664e-37 6.9632426e-37 -2.4675135e-37
-2.3654864e-37 -6.7362334e-38 -2.4281792e-37 -2.2437708e-37 -2.7301886e-37 -2.2693804e-37 2.5660329e-37 4.7899083e-38
5.1969555e-37 3.1698793e-37 -1.712216e-37 6.1781962e-37 -2.9357745e-37 -2.403295e-37 4.192984e-37 2.9762301e-37
-2.5048607e-37 -2.8034355e-37 -2.4648732e-37 1.7684442e-37 -2.287039e-37 -4.495716e-37 5.5838466e-37 8.7660204e-38
-1.5431231e-37 3.300982e-37 -1.0113803e-37 3.2004087e-38 4.6222505e-37 -4.8429852e-37 -2.9005833e-37 -6.0301263e-37
-2.8209098e-37 6.0585554e-38 4.367617e-37 -2.4924021e-37 -2.929801e-37 -2.2419056e-37 2.7754964e-38 9.781222e-38
2.0090371e-37 -2.496312e-37 3.3853008e-37 -2.8281734e-37 -2.7334687e-37 -5.0167236e-38 -2.3069243e-37 -6.2537585e-38
-2.1083412e-37 1.0927663e-37 -2.6828142e-37 -4.9197616e-37 2.969979e-39 -7.5587474e-38 -5.810177e-37 4.48522e-38
5.1059056e-37 -1.880899e-37 -2.2035728e-37 5.5860618e-37 1.7472325e-38 3.5456932e-37 -2.8718208e-37 -2.7080225e-37
-1.5566871e-37 -3.9104222e-37 -1.7491701e-37 -8.549936e-38 -2.7310489e-37 4.3661223e-37 -2.7097334e-37 -2.443257e-37
2.0946233e-37 3.1647171e-37 2.7093718e-37 -3.5163345e-37 3.0220932e-37 5.9057856e-37 1.2887809e-37 -1.2181974e-37
-6.9088812e-37 -1.6083021e-37 -2.3109833e-37 -1.1486617e-37 2.0725516e-37 3.0508909e-37 -3.08412e-38 4.7837886e-38
-2.377943e-37 4.1709413e-37 -2.9697476e-37 -2.6368926e-37 -5.058769e-38 -4.917864e-37 -4.6817853e-37 2.4798187e-37
-2.7922065e-37 -2.7293985e-37 5.520349e-37 -4.523715e-37 -2.5325315e-37 1.3980295e-37 -1.2220834e-37 -2.4610442e-37
4.2851635e-37 3.3638419e-37 -2.6445968e-37 -2.38464e-37 6.27954e-37 3.308023e-37 4.4375504e-37 2.785107e-37
-1.2059575e-37 -2.4731212e-37 -2.5094686e-37 1.1509933e-37 -2.3939025e-37 1.0212232e-37 -1.6845592e-37 -6.28465e-37
3.798484e-37 -3.405994e-37 -5.2577256e-38 4.4196182e-37 -2.4304843e-37 1.1433116e-37 4.2443487e-37 -1.866666e-37
-2.4110614e-37 4.5043226e-38 -4.1042533e-38 6.2119395e-37 -2.8250018e-37 -2.556185e-37 -2.275016e-37 -4.1180503e-37
-9.1219777e-38 -2.254682e-37 -2.9277374e-38 -3.1006486e-37 -1.5027815e-37 -2.5526438e-37 -2.4840426e-38 -4.2879374e-37
-2.5919351e-37 6.1399074e-37 -2.5983975e-37 -9.3206493e-38 2.2592368e-37 6.7495897e-37 -5.5163686e-37 -3.899329e-37
-1.6657313e-37 2.623491e-37 4.6595627e-37 2.984543e-38 -7.5955556e-38 -4.5226767e-37 -1.6242843e-38 3.1890345e-37
2.736141e-37 4.5741373e-37 -6.4639687e-37 1.7664321e-37 -1.4874891e-37 -2.2869588e-37 -2.4201998e-37 -6.385576e-37
2.6589163e-37 -2.6199046e-37 -2.2796279e-37 -5.7349366e-37 -4.315262e-39 6.858115e-38 -2.8240955e-37 -2.725323e-37
-2.3454595e-37 -2.6121757e-37 -2.5618514e-37 -2.9771947e-37 4.060121e-38 6.752064e-38 -2.049765e-37 1.9699691e-37
1.2559996e-37 -2.6216503e-37 -2.5793078e-37 4.1982664e-37 -3.7949647e-37 -1.5299416e-37 -4.2119202e-37 -2.299358e-37
4.1938522e-37 -2.772084e-37 -5.051403e-38 4.5974562e-37 -1.5830001e-37 -2.2862563e-37 -5.873574e-37 4.8970655e-37
-1.1298219e-37 1.916001e-37 -2.3044246e-37 -6.4021175e-37 -6.3002774e-37 2.7305236e-37 4.4871276e-37 -2.5766697e-37
2.3093681e-37 -4.0515386e-37 -1.5590768e-38 -4.735007e-37 -2.5008756e-37 -2.628355e-37 -2.4428087e-37 -3.67756e-37
-3.2431542e-37 -2.4578295e-37 2.6135237e-37 5.868004e-37 -1.8194944e-37 3.0895963e-38 -2.4758034e-37 -4.6712547e-37
00000000: f808 8982 581c a882 8f49 9882 a94f 2b83
00000010: f98e b582 b732 9f01 2e1c 4f82 c17f 9a02
00000020: 899b 5703 e045 9c82 6ce3 f502 945c 4f80
00000030: 1883 b382 4a86 8282 8197 d482 9dd8 ef02
00000040: f7d3 6b82 063f e982 63b3 5983 0438 3481
00000050: 09c8 5183 a60f a582 f297 4803 b837 6482
00000060: d1f8 a082 a257 b282 5cb6 9282 d80f 4e02
00000070: b398 d702 3b9a 9c82 66f2 6c03 26ee a782
00000080: 96fc a082 b260 b781 d940 a582 00b4 9882
00000090: 98ce b982 2f72 9a82 99a2 ae02 ca64 8201
000000a0: ded7 3003 16bb d702 050e 6982 ae3b 5203
000000b0: 68cc c782 4e8f a382 0bae 0e03 3e8d ca02
000000c0: d478 aa82 bcca be82 26c0 a782 49b5 7002
000000d0: d7a5 9b82 36fb 1883 2a02 3e03 3fa2 ee01
000000e0: fe09 5282 38a7 e002 76a9 0982 303f 2e01
000000f0: 7b49 1d03 5acc 2483 4a67 c582 cf31 4d83
00000100: 2efb bf82 f8ed a401 4f9f 1403 c59f a982
00000110: 5564 c782 8193 9882 c61c 1701 9622 0502
00000120: 5dba 8802 e4e3 a982 4264 e602 bb79 c082
00000130: be07 ba82 7691 8881 4a00 9d82 563e aa81
00000140: 7c7c 8f82 59bd 1402 3795 b682 2b69 2783
00000150: 1857 2000 c8c4 cd81 c8b5 4583 d832 7401
00000160: b6be 2d03 e201 8082 a7f7 9582 7615 3e03
00000170: bc41 be00 b04e f102 2d72 c382 684c b882
00000180: a1e2 5382 9510 0583 af15 6e82 5cc0 e881
00000190: 95dd b982 4a92 1403 376a b882 8a47 a682
000001a0: 7c8d 8e02 2661 d702 ea63 b802 304f ef82
000001b0: 4aac cd02 a6f6 4803 766b 2f02 fccf 2582
000001c0: d818 6b83 26e9 5a82 0247 9d82 0559 1c82
000001d0: f10c 8d02 04a2 cf02 5cea 2781 243a 8201
000001e0: 9cd5 a182 06ee 0d03 4d1c ca82 2675 b382
000001f0: 79b6 8981 a358 2783 1a50 1f83 89c4 a802
00000200: 1907 be82 d4c0 b982 06d9 3b03 1eef 1983
00000210: ec5a ac82 384a 3e02 6457 2682 707d a782
00000220: 0ad1 1103 64ee e402 60fb b382 4a4a a282
00000230: 82ae 5503 e421 e102 8400 1703 688b bd02
00000240: 7c25 2482 d94f a882 1cc9 aa82 43aa 1c02
00000250: aaeb a282 6f00 0b02 524a 6582 06db 5583
00000260: 7641 0103 c9cc e782 0021 8f81 4e64 1603
00000270: 0269 a582 989e 1b02 7e6d 1003 d113 7e82
00000280: 9d16 a482 183d 7501 f174 5f81 a061 5303
00000290: 7942 c082 06f7 ad82 5ed4 9a82 4721 0c83
000002a0: e852 f881 1a72 9982 b466 1f81 eb04 d382
000002b0: 4b8c 4c82 54b9 ad82 803e 0781 34e9 1183
000002c0: e165 b082 23ee 5003 78d6 b082 72bb fd81
000002d0: 75c1 9902 38ad 6503 59b6 3b83 f2af 0483
000002e0: 44ba 6282 a98b b202 848e 1e03 757e 2201
000002f0: 4cc5 ce81 12e6 1983 70de b080 d108 d902
00000300: 4d36 ba02 5ba6 1b03 1cf5 5b83 2d6f 7002
00000310: 6e77 4a82 71a4 9b82 d4b5 a482 364a 5983
00000320: dbf4 b402 2d4d b282 b824 9b82 5826 4383
00000330: 32fd 2e80 16b2 ba01 af32 c082 d379 b982
00000340: ab9f 9f82 85c6 b182 bf59 ae82 0c9e ca82
00000350: d40d 5d01 05cf b701 f17f 8b82 b411 8602
00000360: 33f5 2a02 976b b282 e189 af82 0fdc 0e03
00000370: ce22 0183 af3e 5082 0053 0f83 777c 9c82
00000380: 9bb5 0e03 84a8 bc82 2483 8981 7e71 1c03
00000390: 8177 5782 3498 9b82 0cde 4783 75a3 2603
000003a0: 8cc8 1982 7265 8202 bdd4 9c82 4fda 5983
000003b0: 2863 5683 6ed4 b902 65b0 1803 eb5b af82
000003c0: de2a 9d02 e1dd 0983 b8c4 a980 ba1f 2183
000003d0: 6633 aa82 67e0 b282 bb3f a682 2248 fa82
000003e0: b7b7 dc82 6e45 a782 01de b102 86ad 4703
000003f0: 20a8 7782 b036 2801 947e a882 5ef4 1e83

Layers.1.bias f4 [256]
-2.5425747e-37 -2.5539259e-37 -2.621872e-37 -3.5016825e-37 -3.4800507e-37 -2.8871423e-37 -2.811561e-37 -2.703972e-37
-2.4765408e-37 -2.777184e-37 -2.678441e-37 -2.5559747e-37 -4.768197e-37 -5.488508e-37 -2.623919e-37 -2.527025e-37
-2.774529e-37 -6.198994e-37 -2.7051092e-37 -2.7108027e-37 -2.5708107e-37 -2.5096217e-37 -7.0375245e-37 -2.6821649e-37
-3.0516254e-37 -2.708494e-37 -2.75875e-37 -2.5462198e-37 -2.6364498e-37 -2.7133257e-37 -1.9691501e-37 -2.4772594e-37
-2.430585e-37 -2.8115182e-37 0.7115397 -2.5019177e-37 -2.685377e-37 -2.2469832e-37 -2.2542955e-37 -2.7074248e-37
-2.4079337e-37 -2.624079e-37 -2.6646062e-37 -2.5087215e-37 -2.4798575e-37 -2.6778177e-37 -2.4275814e-37 -6.217114e-37
-2.5512248e-37 -3.551437e-37 -2.5913677e-37 -2.847846e-37 -2.7891808e-37 -2.7117715e-37 -2.511974e-37 -1.1247675
-2.979983e-37 -1.1348944e-37 -3.0856038e-37 -2.708533e-37 -5.7278194e-37 -2.687072e-37 -2.553907e-37 -3.0135323e-37
-2.7840982e-37 -5.249954e-37 -2.3529382e-37 -2.476797e-37 -2.7858165e-37 -3.847267e-37 -5.0728973e-37 -2.4591115e-37
-5.9811553e-37 -1.6337196e-37 -2.6624617e-37 -2.6218149e-37 -4.330063e-37 -2.6324699e-37 -2.5415895e-37 -2.7227417e-37
0.31076953 -4.381034e-37 -2.8921717e-37 -2.7311303e-37 -0.8462487 -1.1927478 -2.6158077e-37 -9.053852e-38
-2.8051542e-37 -2.8148907e-37 -2.367473e-37 -2.5683068e-37 -2.792269e-37 -2.6383769e-37 -2.6958866e-37 -2.8701288e-37
-2.4822303e-37 -2.4539093e-37 -4.607094e-37 -2.5725587e-37 -2.4315219e-37 -2.7566415e-37 -1.5348867e-37 -2.6504345e-37
-2.5386336e-37 -5.9282387e-37 -2.7866e-37 -2.6631733e-37 -2.723286e-37 -2.5851932e-37 -2.7387603e-37 -2.9188092e-37
-7.430877e-38 -2.744326e-37 -2.617277e-37 -2.8851592e-37 -3.548619e-37 -2.6246813e-37 -2.496717e-37 -2.6613638e-37
-2.8587105e-37 -2.8437408e-37 -9.2497716e-38 -3.921386e-37 -2.6860533e-37 -5.185775e-37 -2.5297572e-37 -2.2001498e-37
-2.8001638e-37 -2.7935654e-37 -2.506279e-37 -2.2649925e-37 -2.5947945e-37 -2.484378e-37 -2.6504872e-37 -2.2119756e-37
-2.5222558e-37 -2.7762902e-37 -2.651199e-37 -3.9411113e-37 -5.362057e-37 -2.8733636e-37 -2.5316723e-37 -2.7385726e-37
-3.1088688e-37 -1.3844562e-37 -2.7453453e-37 -3.7114921e-37 -2.7279526e-37 -2.4118028e-37 -2.490329e-37 -2.9331697e-37
-2.9584937e-37 -5.1274995e-37 -1.1144476 -6.580197e-37 -2.6343682e-37 -3.1934767e-37 -2.5555881e-37 -2.7401596e-37
-1.2814647 -2.505979e-37 -0.2958031 -2.5182867e-37 -5.2030885e-37 -2.2564712e-37 3.2615592e-38 -2.8101758e-37
-2.6153628e-37 -2.639522e-37 -3.843586e-37 -2.8845502e-37 -2.7647105e-37 -2.744078e-37 -2.6174316e-37 -3.7450412e-37
-3.7340068e-37 -4.4223603e-37 -2.6375728e-37 -2.6282274e-37 -4.315225e-37 -4.1480686e-37 -2.326758e-37 -2.8194713e-37
-4.075484e-37 -2.849254e-37 -2.4027556e-37 -2.5926261e-37 -2.6311278e-37 -5.1465796e-37 -2.594385e-37 -2.716735e-37
-1.1916158e-37 -3.919112e-37 -2.5625854e-37 -4.4718555e-37 -2.2585494e-37 -2.649613e-37 -2.5755274e-37 -3.529856e-37
-2.858105e-37 -2.4348034e-37 -2.7265672e-37 -2.8013604e-37 -2.6739133e-37 -2.9430005e-37 -2.8343434e-37 -2.5888964e-37
-2.7096716e-37 -2.5534683e-37 -2.501048e-37 -2.502316e-37 -2.7198344e-37 -2.4574094e-37 -3.9728435e-37 -2.5776062e-37
-2.6411512e-37 -2.9100344e-37 -2.4647425e-37 -3.869346e-37 -2.9288577e-37 -1.2860797e-37 -2.5940005e-37 -2.3321898e-37
-2.7339163e-37 -2.5631226e-37 -1.9654233e-37 -2.4555175e-37 -2.6137077e-37 -2.944568e-37 -6.375132e-37 -6.81143e-37
-2.4813148e-37 -2.5855625e-37 -2.509476e-37 -2.9595222e-37 -2.6173318e-37 -4.8673315e-37 -2.3745973e-37 -2.7782213e-37
-2.885471e-37 -2.8526921e-37 -2.0318034e-37 -5.6894924e-37 -2.7282117e-37 -2.5634004e-37 -2.6633567e-37 -7.726375e-38
-2.7875719e-37 -3.0309288e-37 -2.9078326e-37 -2.6171536e-37 -1.3483418 -1.2050854 -2.5657963e-37 -2.7946828e-37
00000000: e609 ad82 aacf ad82 746f b282 ea4f ee82
00000010: 09d7 ec82 1d7d c482 4d58 bf82 d605 b882
00000020: 6d8b a882 5f01 bd82 0649 b682 5cf3 ad82
00000030: db40 2283 a6c3 3a83 1e93 b282 fcfa ab82
00000040: 1dd3 bc82 dbf0 5283 a619 b882 d87c b882
00000050: d7f5 ae82 c7cb aa82 7c79 6f83 e789 b682
00000060: d0ae cf82 9f54 b882 34c0 bb82 6849 ad82
00000070: 6f6d b382 cda8 b882 6f03 8682 f297 a882
00000080: c36a a582 8e57 bf82 7727 363f 8e45 aa82
00000090: dec1 b682 f8eb 9882 5e6b 9982 fe41 b882
000000a0: 1fe0 a382 e795 b282 fd57 b582 18bc aa82
000000b0: 36c5 a882 2a3e b682 6f36 a582 b48e 5383
000000c0: 9ba0 ad82 c2b2 f182 fe5b b082 7ad0 c182
000000d0: 62d2 bd82 b98d b882 c2f4 aa82 62f8 8fbf
000000e0: a0ce ca82 4c79 1a82 cdfe d182 4d55 b882
000000f0: 58e8 4283 66df b682 56cf ad82 2317 cd82
00000100: d579 bd82 8da5 3283 f721 a082 e48f a882
00000110: c597 bd82 6cea 0283 2b9f 2c83 c45b a782
00000120: 3687 4b83 d25e 5e82 a032 b582 756e b282
00000130: 2b58 1383 1828 b382 bcf8 ac82 da4c b982
00000140: 2f1d 9f3e 3014 1583 bdd4 c482 00df b982
00000150: c1a3 58bf f6ab 98bf cc05 b282 2478 f681
00000160: aee8 be82 5092 bf82 321f a182 37ca ae82
00000170: 3008 be82 028f b382 f878 b782 b254 c382
00000180: 8dee a882 2101 a782 73c5 1c83 4b14 af82
00000190: 167b a582 789b bb82 ffea 5082 1561 b482
000001a0: 3cc5 ac82 3eba 4983 6ba5 bd82 063f b582
000001b0: 5556 b982 6bf0 af82 ef63 ba82 d4a4 c682
000001c0: a849 ca81 e7c4 ba82 651f b282 905a c482
000001d0: aa81 f182 66a0 b282 f2ea a982 7f1f b582
000001e0: c38d c282 f488 c182 80cd fb81 1770 0583
000001f0: a6cd b682 7976 3083 962a ac82 04bc 9582
00000200: bc91 be82 c61e be82 8a91 aa82 bc25 9a82
00000210: b297 b082 f813 a982 0062 b482 0d8a 9682
00000220: e5a7 ab82 ccf1 bc82 676e b482 ec1b 0683
00000230: 1b76 3683 0e8d c382 f44b ac82 aa60 ba82
00000240: 2294 d382 4271 3c82 a9d6 ba82 5097 fc82
00000250: a3a7 b982 8823 a482 a67b a982 069f c782
00000260: 3b58 c982 d27a 2e83 38a6 8ebf 9ae9 5f83
00000270: 2b49 b382 3656 d982 a0ec ad82 507c ba82
00000280: 0907 a4bf 508c aa82 8173 97be be62 ab82
00000290: 4b0d 3183 4691 9982 8093 3101 2b40 bf82
000002a0: 0cfe b182 f6a2 b382 5bca 0283 f44f c482
000002b0: 0d28 bc82 95c0 ba82 1722 b282 d2df fe82
000002c0: 931f fe82 317c 1683 0081 b382 2ede b282
000002d0: e9d6 1283 c626 0d83 d759 9e82 1ee2 bf82
000002e0: 79ae 0a83 01e9 c182 e885 a382 eb71 b082
000002f0: b610 b382 0821 2f83 9090 b082 33e4 b882
00000300: c031 2282 485c 0583 8966 ae82 5b2b 1883
00000310: 7bb5 9982 c552 b482 0448 af82 c43a f082
00000320: 3683 c282 42b4 a582 808f b982 95a6 be82
00000330: 24fa b582 4d4a c882 3ae5 c082 f030 b082
00000340: 2369 b882 b1c7 ad82 6736 aa82 7e4c aa82
00000350: 331a b982 1c3e a782 5930 0783 3c6c af82
00000360: 58bf b382 f30b c682 dfbd a782 c2aa 0383
00000370: e653 c782 560d 2f82 dd89 b082 7ab8 9e82
00000380: 8a0f ba82 e56f ae82 81c2 8582 261d a782
00000390: 36e1 b182 9c65 c882 3bef 5883 ecc7 6783
000003a0: 9ade a882 daf6 af82 3dc9 aa82 266a c982
000003b0: 5a20 b282 70a0 2583 529b a182 7113 bd82
000003c0: ff5f c482 e824 c282 0247 8a82 789a 4183
000003d0: 27ac b982 bc74 ae82 3842 b582 fa54 d281
000003e0: 5ab6 bd82 3a46 ce82 97e5 c582 3f1d b282
000003f0: 7796 acbf 3d40 9abf 7a9e ae82 3e32 be82

Layers.2.weight f4 [256, 256]
2.7761126e-37 -5.1511933e-38 -2.8989374e-37 2.4948317e-37 -2.504007e-37 -2.8432498e-37 -1.4158816e-37 -6.6498504e-37
2.6626142e-37 -2.266505e-37 2.919635e-37 -2.89614e-37 2.2748105e-37 -2.531752e-37 -2.5716683e-37 -2.7539604e-37
-2.4650965e-37 -3.0371886e-37 4.3717665e-37 -2.5730557e-37 2.745e-37 -2.8967756e-37 2.816474e-37 -6.258043e-37
1.0195163e-37 2.713484e-37 -2.815523e-37 -2.5794586e-37 2.6014397e-37 -2.4443963e-37 -6.229322e-37 -2.6432401e-37
2.4891948e-37 -2.397283e-37 -2.3924431e-37 1.3074091e-37 2.8089346e-37 -2.7421424e-37 5.4702813e-38 -2.342455e-37
-2.608669e-37 -2.4064476e-37 -5.221373e-37 -4.5596647e-37 2.8350089e-37 3.1559241e-37 2.6654322e-37 2.6957104e-37
-2.7758557e-37 2.1984842e-37 -2.5188257e-37 2.8014017e-37 -2.7456248e-37 2.4738169e-37 -2.521745e-37 2.9860282e-37
2.656072e-37 -2.4683027e-37 2.7147458e-37 -3.3141307e-37 2.5904565e-37 2.403645e-37 -2.3349278e-37 2.591444e-37
2.7069674e-37 -2.724581e-37 2.840474e-37 2.7162751e-37 -2.659124e-37 -2.8155866e-37 2.7655246e-37 2.622292e-37
2.1561172e-37 2.5316867e-37 -2.8003167e-37 2.48396e-37 2.4587741e-37 2.8057435e-37 2.6030475e-37 -2.7972532e-37
-2.6202405e-37 2.3689002e-37 -2.6571986e-37 -2.6448466e-37 -2.8897752e-37 -2.379725e-37 2.8232243e-37 2.0660292e-37
2.4188676e-37 -2.489247e-37 -2.5863557e-37 -1.396937e-37 2.8911337e-37 5.960991e-37 2.6229283e-37 -2.5372493e-37
2.3663393e-37 -2.380834e-37 2.3738956e-37 -2.7747763e-37 2.4158233e-37 -2.4742877e-37 2.6918544e-37 2.7593517e-37
2.6514325e-37 2.7980626e-37 2.2999074e-37 2.6087653e-37 2.4590248e-37 -2.0602087e-37 2.4622993e-37 -2.3640894e-37
2.447876e-37 9.505218e-39 2.6329416e-37 -2.8385974e-38 2.70084e-37 5.4334916e-38 -2.7926753e-37 3.8156407e-37
-2.601187e-37 2.6066891e-37 2.4872998e-37 -2.4339615e-37 -6.2967098e-37 2.6079034e-37 -2.4456853e-37 -2.59917e-37
-2.6791049e-37 2.568845e-37 -2.7026157e-37 -1.1197462e-37 2.6133454e-37 2.7616194e-37 2.4822027e-37 2.4410906e-37
2.5935878e-37 -2.425384e-37 -2.5052033e-37 2.651914e-37 2.56418e-37 -2.5323028e-37 -2.9327455e-37 2.801143e-37
-2.4565675e-37 -3.0837602e-38 5.3708e-38 -2.7616483e-37 1.4154978e-37 1.6983705e-37 -2.6906697e-37 -2.3733507e-37
-2.511418e-37 -2.6646195e-37 -2.865085e-37 2.1612554e-37 -2.515415e-37 2.5341413e-37 2.574186e-37 -2.6490377e-37
-2.5797192e-37 2.7195035e-37 -2.5013088e-37 2.6319748e-37 -2.68732e-37 -2.8570763e-37 -2.4710284e-38 2.5230664e-37
2.836714e-37 -2.5848257e-37 6.6012893e-37 2.9554346e-37 2.797762e-37 2.5914712e-37 2.7895752e-37 2.338207e-37
-2.0974985e-37 2.4034517e-37 2.7307881e-37 -2.6419575e-37 1.5634704e-37 -2.7007207e-37 3.124828e-38 2.190297e-37
-3.7423998e-37 -2.2985026e-37 -3.0944596e-37 -2.5295765e-37 -2.9042258e-37 -1.0068689e-37 2.8023705e-37 2.6119253e-37
-2.9563301e-37 1.4577118e-37 -2.5574966e-37 6.6802162e-37 -2.42497e-37 2.8700978e-37 -2.5505202e-37 -2.5207918e-37
-2.5926972e-37 -2.1890535e-37 4.922123e-37 -2.3297717e-37 2.825999e-37 2.6269349e-37 -2.4962305e-37 -2.1348887e-37
1.3887904e-37 2.7479884e-37 2.7220566e-37 -2.8703065e-37 -2.3100842e-37 2.0546112e-37 2.642673e-37 -2.5582351e-37
-2.5293137e-37 2.5240363e-37 -2.4928192e-37 -8.0668874e-38 -2.2162282e-37 2.5659838e-37 2.6213178e-37 2.3984963e-37
2.8000802e-37 2.9088967e-37 -2.469964e-37 2.3837533e-37 -2.4469956e-37 -1.8774382e-37 2.633803e-37 1.1254961e-37
-2.4141113e-37 2.76139e-37 -2.52959e-37 -2.6270703e-37 2.594476e-38 2.722466e-37 -2.3189149e-37 -1.7540203e-37
2.6986437e-37 -2.4960126e-37 2.3143702e-37 -2.706985e-37 -2.579147e-37 2.7328703e-37 -2.6841327e-37 -1.1557876e-37
2.4872505e-37 2.5758933e-37 2.5451945e-37 -2.398297e-37 -2.7348658e-37 -2.2186644e-37 -2.7440987e-37 2.1661173e-37
00000000: b4ee bc02 943a 8c81 9d4a c582 19ca a902
00000010: f469 aa82 6680 c182 46b8 4082 5e48 6283
00000020: 4835 b502 1640 9a82 37b3 c602 e019 c582
00000030: cad0 9a02 574d ac82 c804 af82 c26c bb82
00000040: 0ac4 a782 4ab3 ce82 75c3 1403 f41c af82
00000050: a5d0 ba02 f324 c582 e6ad bf02 3ef3 5483
00000060: f5c4 0a02 8fab b802 549d bf82 828c af82
00000070: 790b b102 645b a682 0cf9 5383 bde3 b382
00000080: e467 a902 8f26 a382 3dd2 a282 8ff4 3102
00000090: 8b2a bf02 dc9e ba82 4cea 9401 526b 9f82
000000a0: 6d89 b182 3bc6 a382 93ac 3183 4828 1b83
000000b0: d2f0 c002 f4c7 d602 6166 b502 e675 b702
000000c0: 3aea bc82 ff9e 9502 226c ab82 4da7 be02
000000d0: 88db ba82 f85b a802 ff9e ab82 f337 cb02
000000e0: 4dc3 b402 e6fb a782 8bc1 b802 4d8c e182
000000f0: 1e4c b002 6795 a302 2ee8 9e82 525d b002
00000100: 063a b802 e56c b982 0950 c102 30dc b802
00000110: 79f8 b482 709e bf82 3c36 bc02 c576 b202
00000120: dcbc 9202 344c ac02 6694 be82 b00c a902
00000130: e355 a702 f2f2 be02 7c27 b102 065f be82
00000140: 0753 b282 1038 a102 eed6 b482 baff b382
00000150: fcaa c482 a8f4 a182 8123 c002 4e9b 8c02
00000160: 9e9e a402 cd68 a982 ac04 b082 2624 3e82
00000170: a7c2 c402 8ed7 4a03 db81 b202 1ead ac82
00000180: 720b a102 fa07 a282 188f a102 6cd7 bc82
00000190: 9469 a402 2c64 a882 b832 b702 b0ca bb02
000001a0: 7872 b402 206d be02 0a86 9c02 1a8b b102
000001b0: 415a a702 e635 8c82 4e93 a702 3fe4 a082
000001c0: 0498 a602 ae80 6700 5030 b302 468c 1a81
000001d0: 45cf b702 e9e9 9301 440f be82 ebd6 0103
000001e0: 1207 b182 ee66 b102 e046 a902 97a5 a582
000001f0: 1444 5683 167c b102 d971 a682 eee3 b082
00000200: 9754 b682 98d3 ae02 35ee b782 7669 1882
00000210: e6da b102 32f2 bb02 12ee a802 cc21 a602
00000220: ac82 b002 2610 a582 cc7e aa82 dc7a b402
00000230: 5182 ae02 f056 ac82 a297 c782 cba2 be02
00000240: 712f a782 58e5 2781 0335 9201 b3f2 bb82
00000250: e6aa 4002 932b 6702 141e b782 9a85 a182
00000260: 13eb aa82 3858 b582 d2fc c282 6116 9302
00000270: b630 ab82 f876 ac02 a530 af02 bf48 b482
00000280: 0c91 af82 6f14 b902 f23a aa82 781f b302
00000290: b8e3 b682 4a71 c282 1c89 0681 04b6 ab02
000002a0: 870e c102 04ea af82 57a1 6003 ef22 c902
000002b0: e367 be02 cc5d b002 41d9 bd02 5021 9f02
000002c0: 94bf 8e82 0992 a302 0ad9 b902 64cd b382
000002d0: fece 5402 31cd b782 bf21 2a01 5b10 9502
000002e0: cdb1 fe82 906d 9c82 1799 d282 7027 ac82
000002f0: c0a6 c582 430c 0982 2eb8 be02 28c2 b102
00000300: 8932 c982 d869 4602 e00d ae82 e450 6303
00000310: f008 a582 2854 c302 5494 ad82 638e ab82
00000320: 2873 b082 b1fa 9482 bd7d 2703 598e 9e82
00000330: d953 c002 a9c7 b202 78e2 a982 024b 9182
00000340: 4808 3d02 b604 bb02 ea40 b902 cb57 c382
00000350: 5837 9d82 60d4 8b02 dbd9 b302 be1a ae82
00000360: dc22 ac82 eac6 ab02 09a7 a982 009a db81
00000370: 24d4 9682 bea1 ae02 cc65 b202 b33b a302
00000380: 4790 be02 21f8 c502 d818 a882 d73a a202
00000390: ad88 a682 2c8b 7f82 523f b302 d131 1902
000003a0: c04b a482 33ee bb02 ac27 ac82 05ca b282
000003b0: b841 0d01 0c48 b902 32d1 9d82 b0be 6e82
000003c0: 01a9 b702 acde a982 0482 9d02 553a b882
000003d0: 1487 af82 51fd b902 30ac b682 5251 1d82
000003e0: 0446 a902 644e af02 8b37 ad02 3a38 a382
000003f0: 1520 ba82 96fe 9682 f1c0 ba82 166b 9302

Layers.2.bias f4 [256]
-2.5905042e-37 -2.8260583e-37 -2.6595136e-37 -2.9005488e-37 -2.893274e-37 -2.6314242e-37 -2.5061122e-37 -2.262392e-37
-2.7335829e-37 -2.8952739e-37 -2.817298e-37 -2.487088e-37 -2.7765707e-37 -1.664668e-37 -2.6827751e-37 -2.7516e-37
-2.5010169e-37 -2.3588153e-37 -2.6875284e-37 -2.6693491e-37 -2.391167e-37 -2.4602752e-37 -2.7722152e-37 -2.4980735e-37
-2.7861477e-37 -2.5059835e-37 -2.7913776e-37 -2.435516e-37 -2.706171e-37 -2.377646e-37 -2.624022e-37 -2.3470395e-37
-2.3321696e-37 -2.7545541e-37 -2.6452757e-37 -2.5628014e-37 -2.3563078e-37 0.39579114 -2.3075944e-37 -2.7865437e-37
-2.4011366e-37 -0.13056064 -2.8256435e-37 -2.5991163e-37 -2.5629713e-37 -2.7984123e-37 -2.5863203e-37 -3.0165438e-37
-2.5120113e-37 -2.9111283e-37 -2.559197e-37 -2.322821e-37 -2.8742957e-37 -2.5599546e-37 0.566465 -2.7492581e-37
-2.576004e-37 0.96179444 -2.6868849e-37 -2.4767746e-37 -2.589195e-37 -2.6083823e-37 -2.3675153e-37 -2.5114237e-37
-2.7139064e-37 -3.5747586e-37 -2.7802815e-37 -2.5292388e-37 -2.3123925e-37 -2.6599972e-37 -2.7344788e-37 -2.6789174e-37
-2.863933e-37 -2.6089698e-37 -2.7815427e-37 -2.837916e-37 -2.5429359e-37 -2.9049209e-37 -2.5391497e-37 -2.4079866e-37
-2.589979e-37 -9.981384e-38 -2.1438064e-37 -2.5334097e-37 -2.718175e-37 -2.6531611e-37 -2.948203e-37 -3.1295804e-37
-2.3975241e-37 -2.1979147e-37 -3.1136453e-37 -2.4648517e-37 -2.3722759e-37 -2.5790223e-37 -2.4494785e-37 -2.4717865e-37
-2.5688756e-37 -2.4269676e-37 -2.4412234e-37 -2.6317497e-37 -2.5588865e-37 -2.6314899e-37 -2.8329091e-37 -2.5485083e-37
-2.4232235e-37 -2.568793e-37 -2.3558666e-37 -2.7684727e-37 -2.4393127e-37 -2.6366173e-37 -0.5526769 -2.627687e-37
-2.7089122e-37 -2.5734463e-37 -2.8084817e-37 -2.790621e-37 -2.6424536e-37 -2.4327884e-37 -2.7877317e-37 -2.4895735e-37
-2.8087835e-37 1.1054316 -2.4155307e-37 -2.4816471e-37 -2.500432e-37 -2.5620153e-37 -2.5694599e-37 -2.8446397e-37
-2.5356363e-37 -2.5247582e-37 -2.0166537e-37 -2.5305045e-37 -2.772703e-37 -2.694123e-37 -2.6429121e-37 -0.49597275
0.4475534 -2.7916365e-37 -2.6693386e-37 -2.6331371e-37 -2.3475088e-37 -2.6061802e-37 -2.6569482e-37 -3.772517e-37
-2.366451e-37 -0.6676654 -2.430044e-37 -2.4172484e-37 -2.6415546e-37 -2.6909085e-37 -2.997144e-37 -1.2055907e-37
-2.3570876e-37 -2.5448784e-37 -2.5222377e-37 -2.4322138e-37 -2.5944277e-37 -2.7644957e-37 -2.449268e-37 -2.7517058e-37
-2.8072212e-37 -2.5059008e-37 -2.6961034e-37 -2.3875545e-37 -2.7801784e-37 -2.4738104e-37 -2.5621225e-37 -2.895623e-37
-2.8526327e-37 -3.035911e-37 -2.513237e-37 -2.9192652e-37 -2.6083097e-37 -2.5624576e-37 -2.3618823e-37 -2.420708e-37
-2.5166798e-37 -3.0491882e-37 -1.554681 -2.2673072e-37 -2.6337994e-37 -2.8544802e-37 -2.781221e-37 -2.4693623e-37
-2.6448665e-37 -1.7990235e-37 -2.680757e-37 -2.2612117e-37 -2.921088e-37 -2.2027546e-37 -2.596525e-37 -2.716407e-37
-2.4943996e-37 -2.5371385e-37 -2.7285705e-37 -2.6403062e-37 -2.6072286e-37 -2.7303592e-37 -2.6042574e-37 -2.4912818e-37
-2.8870333e-37 -2.6344898e-37 -2.7874053e-37 -2.7681055e-37 -2.9999098e-37 -2.6131028e-37 -2.01619e-37 -2.724707e-37
-3.380365e-37 -2.5328855e-37 -2.3716353e-37 -2.4544198e-37 -2.6491843e-37 -2.5605786e-37 -2.8192755e-37 -2.8567897e-37
-2.5220343e-37 -2.426048e-37 -2.3440934e-37 -2.5080785e-37 -2.4748935e-37 -2.615897e-37 -2.6277951e-37 -2.3732337e-37
-2.5966576e-37 -2.3896116e-37 -2.7211476e-37 -2.504724e-37 -2.1103914e-37 -2.456817e-37 -2.649268e-37 -2.7207602e-37
-2.666503e-37 -2.6012956e-37 -1.7658577e-37 -2.8957526e-37 -2.4753135e-37 -2.6231982e-37 -7.719113e-38 -2.5917194e-37
-3.0294602e-37 -2.7970933e-37 -2.4498188e-37 -2.4972574e-37 -2.8795796e-37 -2.4150144e-37 -2.5635184e-37 -2.701302e-37
-0.4796643 -2.5235293e-37 -2.754335e-37 -2.6762267e-37 -2.391411e-37 -2.7875732e-37 -2.7550093e-37 -2.5383185e-37
00000000: f34c b082 e154 c082 43ff b482 b066 c582
00000010: f1e7 c482 e015 b382 a28e aa82 6ef8 9982
00000020: bb09 ba82 c90a c582 41bc bf82 2f43 a982
00000030: aff6 bc82 3795 6282 8994 b682 a243 bb82
00000040: dc35 aa82 5c88 a082 59e7 b682 9faa b582
00000050: 01bc a282 0a70 a782 cdaa bc82 9402 aa82
00000060: 8a9d bd82 648c aa82 a8f8 bd82 acc0 a582
00000070: 262c b882 70d0 a182 e994 b282 32bb 9f82
00000080: 20b8 9e82 1a77 bb82 3407 b482 4c6a ae82
00000090: ac5c a082 23a5 ca3e f70b 9d82 70a4 bd82
000000a0: b369 a382 b0b1 05be a74d c082 fee2 b082
000000b0: 426d ae82 3873 be82 0e04 b082 9b4b cd82
000000c0: 69f5 aa82 021f c682 802b ae82 4015 9e82
000000d0: 4b9d c382 b338 ae82 da03 113f d51a bb82
000000e0: 5250 af82 2938 763f 23dc b682 808f a882
000000f0: 2436 b082 6e84 b182 ef1f a182 2ceb aa82
00000100: ebb2 b882 1449 f382 5637 bd82 8e21 ac82
00000110: 8f5f 9d82 b007 b582 5719 ba82 5351 b682
00000120: c0e8 c282 aa8e b182 4f4d bd82 7823 c182
00000130: 3110 ad82 dcb2 c582 3ace ac82 0be1 a382
00000140: cc43 b082 0cdc 0782 60e6 9182 396a ac82
00000150: 4afd b882 9690 b482 f1a4 c882 fbfc d482
00000160: c32a a382 1395 9582 5ae7 d382 c6bf a782
00000170: e072 a182 e884 af82 efb3 a682 9838 a882
00000180: 20d4 ae82 bd2b a582 1c24 a682 8c1b b382
00000190: 1726 ae82 0517 b382 3dcc c082 4771 ad82
000001a0: 82ea a482 b0d2 ae82 fc54 a082 9969 bc82
000001b0: d202 a682 5a70 b382 3c7c 0dbf c4d4 b282
000001c0: e85b b882 c223 af82 a722 bf82 7aeb bd82
000001d0: 09d6 b382 2791 a582 23b9 bd82 7d6e a982
000001e0: e927 bf82 c87e 8d3f 7b64 a482 64e4 a882
000001f0: ab2b aa82 9a5c ae82 4ede ae82 9d98 c182
00000200: 0491 ac82 7ed3 ab82 103f 8982 9b37 ac82
00000210: 4db3 bc82 3e5a b782 06de b382 24f0 fdbe
00000220: b825 e53e 2bfd bd82 70aa b582 b833 b382
00000230: 5fc3 9f82 105e b182 91d2 b482 425f 0083
00000240: 640d a182 1fec 2abf 5661 a582 6882 a482
00000250: 5fc6 b382 3d22 b782 9df9 cb82 b418 2482
00000260: 426a a082 0932 ad82 94a7 ab82 2487 a582
00000270: 4e91 b082 4f24 bc82 44b0 a682 7a45 bb82
00000280: b10c bf82 f38a aa82 bf7c b782 117d a282
00000290: 8a35 bd82 db5b a882 785e ae82 de10 c582
000002a0: df23 c282 089d ce82 c40a ab82 c6ac c682
000002b0: 2a83 b182 4f64 ae82 cbbd a082 aebe a482
000002c0: bf46 ab82 5a84 cf82 c9ff c6bf 104e 9a82
000002d0: 423f b382 0f44 c282 b447 bd82 5c0e a882
000002e0: 1300 b482 d2de 7482 6071 b682 dde3 9982
000002f0: 88cc c682 66e9 9582 d8b5 b082 7cde b882
00000300: 92c2 a982 30ab ac82 67b2 b982 9fb0 b382
00000310: 5470 b182 91d1 b982 903c b182 408c a982
00000320: 377b c482 494b b382 73b3 bd82 3363 bc82
00000330: cd29 cc82 acd6 b182 fc36 8982 176f b982
00000340: 440e e682 1761 ac82 b767 a182 060a a782
00000350: 4d4b b482 9243 ae82 b5de bf82 4c6c c282
00000360: 09a4 ab82 b81b a582 de87 9f82 e4b0 aa82
00000370: ba6e a882 5a07 b282 a6d6 b282 9083 a182
00000380: 28b8 b082 e8a0 a282 1431 b982 7276 aa82
00000390: 34a0 8f82 ca33 a782 c24c b482 542a b982
000003a0: 0979 b582 f608 b182 295b 7082 2013 c582
000003b0: 0b76 a882 8f86 b282 5e22 d281 1f62 b082
000003c0: a42c ce82 3d5c be82 ddb9 a682 5cf4 a982
000003d0: 5af9 c382 7c5b a482 ca76 ae82 52d7 b782
000003e0: 8f96 f5be 15be ab82 4973 bb82 7222 b682
000003f0: 41c0 a282 60b6 bd82 087f bb82 bfbf ac82

Layers.3.weight f4 [256, 256]
2.7012436e-37 -6.2563187e-37 -7.5938583e-38 2.5641305e-37 2.5930907e-37 2.5441461e-37 -4.800591e-37 -2.449162e-37
-2.8368122e-37 -2.1484015e-37 -1.1603073e-37 1.480749e-37 -2.619676e-37 2.5998772e-37 -2.561332e-37 -2.8014862e-37
2.7217431e-37 -2.7072894e-37 6.0466975e-37 -2.9463995e-37 9.924578e-38 -1.8771258e-37 -3.061428e-37 -4.7739867e-37
3.0795984e-37 -9.1719614e-38 2.62873e-37 -3.4168138e-37 -2.7257607e-37 2.6881582e-37 -2.0264641e-37 -2.6046937e-37
-1.9784866e-37 -2.656117e-37 2.6081169e-37 -8.4768165e-38 2.5263068e-37 3.250216e-39 -6.58274e-40 2.6005548e-37
-1.5006124e-38 -2.369802e-37 6.5953796e-37 -2.4307076e-37 -2.7461623e-37 2.044387e-37 -2.499639e-37 -2.6606541e-37
-1.5177894e-37 -4.3266514e-37 -1.7097645e-37 -2.1595348e-37 4.5372134e-37 2.719331e-37 -2.376057e-37 2.5832025e-37
2.4271512e-37 -1.8317673e-37 -2.5736674e-37 1.121999e-37 -3.7027462e-37 2.6612355e-37 3.786707e-37 -4.265895e-37
-2.6756787e-37 2.5702946e-37 -5.1256236e-38 -1.9879995e-37 2.794756e-37 2.5688606e-37 3.2763533e-37 3.8624974e-37
-1.6527443e-37 -1.4269029e-37 6.2676932e-37 2.9481959e-37 1.6351927e-37 -2.1393142e-37 2.5578181e-37 -5.2349654e-37
-9.008655e-38 -2.4833977e-37 2.9008069e-37 -3.4465633e-37 -2.399776e-37 6.362793e-37 -2.5204768e-37 4.215676e-37
-2.6768803e-37 -1.5529255e-37 -2.1152607e-37 -3.2288712e-37 2.1159038e-38 -5.723641e-37 -6.2756746e-37 -2.6370265e-37
2.6811786e-37 2.4904892e-37 -2.6689574e-37 -2.7324208e-37 -8.2034086e-38 -2.4090912e-37 2.5759381e-37 5.162566e-37
-2.4909573e-37 -3.5737821e-37 7.5428657e-38 -2.5302235e-37 3.1445346e-37 -2.4263633e-37 -2.7811062e-37 1.5572148e-37
2.6207768e-37 -6.6963628e-37 -2.4532413e-37 2.8088642e-37 2.6227953e-37 -2.462894e-37 1.742503e-39 2.4843668e-37
2.7131324e-37 -2.3523286e-37 8.8261434e-38 -2.7899426e-37 -8.837761e-38 2.800909e-37 2.5520407e-37 2.6416126e-37
-5.200603e-37 -5.0249496e-37 -3.8826455e-38 4.15614e-37 2.5638163e-37 3.7646796e-37 -2.5368273e-37 -2.3371526e-37
-1.934482e-37 -5.912248e-37 -2.6708031e-37 -8.4706205e-38 2.2889791e-37 -3.856625e-37 2.6117464e-37 -2.3832237e-37
1.3072796e-37 -2.8048623e-37 -3.875367e-38 -1.6656406e-37 2.6825494e-37 2.9693268e-37 3.2931126e-37 2.5722217e-37
2.968983e-37 5.1479697e-37 3.6647152e-37 -2.5114871e-37 -1.3211163e-37 6.663832e-38 2.6644116e-37 6.3385875e-38
2.68756e-37 -3.247952e-37 -3.5058385e-37 -3.776796e-37 5.7946037e-37 3.8879983e-37 5.0074165e-37 -1.353072e-37
-2.5016727e-37 -2.3594696e-37 -1.8252451e-37 -9.330851e-38 6.084014e-37 4.0622947e-37 -5.9300153e-37 1.2263725e-37
-5.5057864e-37 5.6929183e-37 -6.74477e-38 2.43969e-37 -2.7701496e-37 -5.0743717e-37 1.2065536e-37 5.297961e-37
-2.4548218e-37 1.0145705e-37 -6.449545e-38 1.4817127e-37 1.5208136e-37 -6.275768e-37 -2.718005e-37 2.8094714e-37
-2.354902e-37 -5.968009e-37 2.5951433e-37 6.424914e-38 1.8178896e-37 -4.699877e-37 -1.3353771e-37 2.6838025e-37
-2.536951e-37 -2.7905675e-37 -2.7395053e-37 1.2651702e-37 -1.7055217e-37 -4.611643e-37 -2.166537e-37 1.2435773e-37
-2.6124351e-37 -2.1224663e-37 -2.0032048e-37 -2.646681e-37 -2.682346e-37 3.5387015e-37 -2.7232987e-37 -2.6078498e-37
-2.5573029e-37 -2.2607922e-37 -5.9921507e-38 1.1875343e-37 -2.4957522e-37 -9.420653e-38 6.135967e-37 -3.3216886e-37
-2.178482e-37 -1.6158415e-37 2.8944118e-37 -3.0070627e-37 7.599172e-38 1.896423e-37 -3.889809e-37 2.2890988e-37
-2.7227971e-37 -6.235202e-37 -2.841731e-37 -7.0013055e-37 -2.5649356e-37 -2.7572449e-37 2.6819454e-37 2.561939e-37
-9.2803536e-38 -6.4816444e-37 -6.3673724e-38 1.4393813e-37 -1.3900309e-37 1.0866314e-37 4.081913e-38 -1.8293937e-37
-2.656408e-37 -1.4579292e-37 -2.708401e-37 2.542247e-39 -2.4066956e-37 -3.5297475e-37 1.2258109e-37 2.6287548e-37
00000000: 4dd6 b702 39e4 5483 78b9 ce81 7481 ae02
00000010: 037a b002 4725 ad02 0c5b 2383 6cae a682
00000020: 3d10 c182 6f36 9282 cfee 1d82 928c 4902
00000030: 3149 b282 40f0 b002 b250 ae82 c6a8 be82
00000040: 743b b902 a23f b882 2ac2 4d03 8585 c882
00000050: 1b16 0702 4a80 7f82 9959 d082 4a73 2283
00000060: 2c96 d102 3eaf f981 f0e6 b202 4b89 e882
00000070: 7381 b982 52f2 b602 fce9 8982 2a44 b182
00000080: 19a6 8682 16c4 b482 ce7f b102 cac2 e681
00000090: 79ee ab02 4864 2300 002b 0780 0efc b002
000000a0: f866 a380 c647 a182 dc6d 6003 e66c a582
000000b0: e5e4 ba82 3f22 8b02 da1d aa82 2213 b582
000000c0: 3e97 4e82 733a 1383 99b8 6882 67f8 9282
000000d0: b464 1a03 6e11 b902 c0b4 a182 bccd af02
000000e0: f02e a502 c653 7982 9c27 af82 f6b7 1802
000000f0: f0fe fb82 431d b502 dfda 0003 3029 1183
00000100: e618 b682 d9ec ae02 6288 8b81 d64b 8782
00000110: 8433 be02 ddd3 ae02 20fa de02 196f 0303
00000120: bcf5 6082 4f38 4282 4f47 5503 d1a4 c802
00000130: 2692 5e02 1c98 9182 7a13 ae02 fb22 3283
00000140: 2a3d f581 e402 a982 2f6b c502 9a8f ea82
00000150: ff51 a382 bf83 5803 e688 ab82 b873 0f03
00000160: d52d b682 8e5f 5382 0af5 8f82 dfbe db82
00000170: ca66 e600 f2c3 4283 d68c 5583 7b77 b382
00000180: b878 b602 717e a902 cca3 b582 7cf5 b982
00000190: 6a51 df81 4af4 a382 2c4f af02 4bac 2f03
000001a0: 9986 a982 1138 f382 1a56 cd01 b632 ac82
000001b0: 8501 d602 3621 a582 b445 bd82 04f5 5302
000001c0: 5f5c b202 8cdd 6383 7ef5 a682 5129 bf02
000001d0: 8a7f b202 aa9d a782 64f9 1200 c613 a902
000001e0: 6fa5 b802 5817 a082 3e45 f001 a8df bd82
000001f0: 3496 f081 b89e be02 d2ae ad02 62c7 b302
00000200: a4f7 3083 7cfd 2a83 2e64 5381 166d 0d03
00000210: fb7b ae02 fc1a 0003 c4a5 ac82 f10e 9f82
00000220: 6ea7 8382 f22e 4983 f4c3 b582 9c97 e681
00000230: a4c7 9b02 f13b 0383 0abf b102 9d31 a282
00000240: 0cf0 3102 98e3 be82 bcfe 5281 1bb7 6282
00000250: 9a90 b602 f814 ca02 1d1e e002 6c0e af02
00000260: fb0e ca02 242d 2f03 5868 f902 47ec aa82
00000270: 2fd2 3382 2268 b501 9954 b502 828d ac01
00000280: e6e7 b602 4e0b dd82 5298 ee82 8984 0083
00000290: 1e2e 4503 3e4d 0403 c064 2a03 ae2b 3882
000002a0: 4941 aa82 c293 a082 8270 7882 8a02 fe81
000002b0: 3d07 4f03 943b 0a03 b8c9 4983 d8ec 2602
000002c0: 2a5a 3b83 50b8 4103 309c b781 6509 a602
000002d0: d086 bc82 03ac 2c83 423a 2402 c047 3403
000002e0: 0711 a782 9f18 0a02 c592 af81 27ae 4902
000002f0: 9f00 4f02 a68d 5583 53fa b882 e533 bf02
00000300: 2e44 a082 b114 4b83 c69d b002 1ee7 ae01
00000310: 3570 7702 b4ed 1f83 1ac3 3582 6fa6 b602
00000320: eca7 ac82 8bea bd82 ea70 ba82 bf34 2c02
00000330: c224 6882 14ed 1c83 6672 9382 5844 2902
00000340: 0acb b182 9472 9082 c054 8882 b01f b482
00000350: 0f8d b682 e0d4 f002 8e56 b982 277b b182
00000360: 800a ae82 8edc 9982 321f a381 88a3 2102
00000370: 23da a982 2f3a 0082 d0cb 5003 fa0f e282
00000380: 8242 9482 dcef 5b82 c4fb c402 6ca6 cc82
00000390: 80de ce01 5910 8102 045d 0483 bac9 9b02
000003a0: d14d b982 452c 5483 f065 c182 f93d 6e83
000003b0: 7b8f ae82 fba5 bb82 1486 b602 465b ae02
000003c0: a0a2 fc81 168f 5c83 1c56 ad81 1eeb 4302
000003d0: 8233 3d82 94e7 1302 903d 5e01 1101 7982
000003e0: 28c9 b482 6b71 4682 0053 b882 c0ae 1b00
000003f0: 8dca a382 e038 f082 47d9 2602 5ee7 b202
