03-simulation/PruningAMR/checkpoints/high_oscillation_dict.ckpt (torch, 798663 bytes, 18 tensors)

Layers.0.weight f4 [256, 2]
00000000: 5a84 7abf 936b 9e3f ac19 0f3f c8af 2dbf
00000010: 58ce cabf 39a0 e7bf 4eca 3140 b23c 1640
00000020: beb8 5fbf 0b55 1bbf bc03 32bf ffad 8abe
00000030: 7084 e63e 5488 62bf fa5d 8bbf 8fb9 80bf
00000040: ee4c fd3e 6fe6 b6be 6a05 a4be 276b cbbe
00000050: d711 7fbe aec5 f43d 64d3 2ebf 3bc7 2bbf
00000060: 9f66 efbf 87b3 04c0 54fe bb3d 12a5 70bf
00000070: a7b8 febf 6191 0dc0 c0da 44be 5c1c dd3e
00000080: aad3 1240 c34c dbc0 7d83 6ebf 8008 86bf
00000090: cc7e 9d3e d2b6 00bf 6696 21bf 4626 133e
000000a0: 9b35 6ebf e777 6cbf d488 2540 2b55 9ec0
000000b0: 7ae5 2cbe f04e 29be 640d 2840 6e4d 28bf
000000c0: 73d6 7abf d1c5 50bf 2fb5 2abf fe29 51bf
000000d0: 7d35 9c3e 3797 b9bf c664 5fbd 4f8e 8f3f
000000e0: a70d 893e bd6c d3be 2547 4ebf 507c 81bf
000000f0: 7ef9 4a40 fbcc 1ac0 2121 1fbf cec3 b93e
00000100: db4a f2bf bb0a 1bc0 706f d53f 60d5 2ac0
00000110: 6d96 3640 6827 48c0 c6b1 8d3f 38b0 953f
00000120: 014e 24bf f2ee 89be aa5c 00bf 8315 25bf
00000130: 958b 23c0 95c6 4740 ded6 01c0 b34b dbbf
00000140: b88f 6dbf eead 463e 7454 c2be 189f e1be
00000150: 84fb 42be 8449 6e3d fd47 5e3e 2291 993f
00000160: ebd4 cabe 7d53 30be 510e 67be 4968 e63d
00000170: f51c 7ebf f2ed 32bf 5e13 6ebe 1708 13bd
00000180: d01d ebbe 06e6 1bbf 5e8a a53d 98ec 89be
00000190: 505a a93d cf28 c53c efdd bfbd d1f0 b0bd
000001a0: 61b6 ebbe 52e1 61bf 4e9a 95be 76ab 09be
000001b0: dd4e 28bf 5ced f43d d54d fabf f670 0ec0
000001c0: f985 7dbd 2ae9 60be 29c8 f93d 5843 283d
000001d0: 3ed8 4ebf 0a03 8dbf 88f2 d0be 0963 b8bc
000001e0: 09f6 103d dd31 8c3f 6f6f fa3f c952 18c0
000001f0: 595b 8b3d 7cd9 993e d675 073c f8a1 8a3e
00000200: 34f1 32ba 16bc 64be dfd7 56bf d586 8dbf
00000210: 065e e3bc 3fe5 e53e 0dcc 99bd 3472 3bbf
00000220: 1b02 62be 1b5c 86bd a749 0740 6867 e8be
00000230: bda7 f9bf eaa2 b9bf 2a24 2bbf 9fed cc3e
00000240: e789 23bf 1d92 05be b0b7 793e 772e 20be
00000250: 24fc 3140 2930 c93e 7693 0dbf fa20 74bf
00000260: 9a75 04c0 8faf 12c0 e3e8 6a3f a936 2b3f
00000270: 57d2 203e 96d1 cbbc 998e 0d3f 65bb b7be
00000280: db7c d13e 6804 6abe 2d02 923f 316c 9e3f
00000290: 7312 db3d a3f2 c6be 329f 10c1 60b2 a83f
000002a0: a3a6 9abf 046c 5a40 c5d1 3b40 746a 1640
000002b0: 04da 3e40 6e03 1940 11b5 2940 2a36 0840
000002c0: 802e b83e 8510 fe3d 09e8 4b3e 7ce7 e4be
000002d0: 793a 11c0 05d8 1dc0 3483 dfbd c8ca bd3e
000002e0: 7fc2 e8be a913 a53e 99e6 54c0 0e9b 3c40
000002f0: 3148 21bf ec24 2fbf 061c d4be 79a3 183f
00000300: 4d3c bcbe 1308 13bf 4fc6 6ebe fba5 d5be
00000310: d693 4f40 ac03 28c0 1c2e 70bf c165 4ebf
00000320: cb86 9f3f 196f 19c1 c7e1 0ac0 5a21 5940
00000330: 4739 bdbe 6c97 9b3e 429b 9f3e b15e c73e
00000340: 9d7b 99be 284d 84be e9db f8bf dc98 01c0
00000350: 17c0 dd3e f85b 843c 8132 163f 593b b23d
00000360: 40d3 d63e 771b afbe 2afb 5740 6cc2 f8bf
00000370: 162e 20c0 91ad 18c0 9072 e3be e270 e33e
00000380: 7850 bd3f f837 04bf cc8d 2e3d 3c0a 963f
00000390: b7a4 17c0 2a2b 11c0 bf14 943e 4e6a 183e
000003a0: f814 c03e fdf6 dbbe 0167 0cc0 d0d6 14c0
000003b0: b6f2 42be 4885 5c3d b8f9 9cbe 0993 acbe
000003c0: 3b17 2d3f 737b e03c 0f16 0fbf 2e8d e1be
000003d0: 6223 a03e 8176 5d40 17d6 5dbf 3114 d13f
000003e0: a4bb 5c3d b481 173f 671c 8e3f 064c 803f
000003f0: 3bed 54c0 be52 1540 fe7b 86c0 ebc7 1c40
-0.978582 1.2376579 0.5589855 -0.67846346 -1.5844221 -1.8095771 2.7779727 2.3474545
-0.8739127 -0.6067664 -0.6953695 -0.27085873 0.45022917 -0.8848927 -1.0888054 -1.0056628
0.49472755 -0.35722682 -0.3203538 -0.39730188 -0.24909149 0.11951767 -0.68291306 -0.67100877
-1.8703192 -2.0734575 0.091793686 -0.9400188 -1.9900101 -2.2119982 -0.19224072 0.431857
2.294169 -6.8531203 -0.93169385 -1.0471344 0.307608 -0.5027896 -0.63120115 0.14370069
-0.93050545 -0.92370456 2.5864763 -4.9478965 -0.16884413 -0.16534019 2.6258173 -0.6574315
-0.97983474 -0.81551844 -0.66682714 -0.817047 0.30509558 -1.4499272 -0.054539464 1.1215304
0.26768228 -0.41293898 -0.8057731 -1.0116062 3.1714778 -2.418761 -0.62159926 0.362822
-1.8929094 -2.42253 1.6674633 -2.6692734 2.8529313 -3.1274052 1.1069877 1.1694403
-0.64181525 -0.26940113 -0.50141394 -0.6448595 -2.5553944 3.1214955 -2.0287395 -1.7132477
-0.9279742 0.19402286 -0.37955058 -0.4406669 -0.19041258 0.05817558 0.21707149 1.1997416
-0.3961557 -0.17219348 -0.22564055 0.112503596 -0.99262935 -0.69894326 -0.23249575 -0.035896387
-0.45921183 -0.6089786 0.08083032 -0.2693832 0.08269179 0.02406731 -0.09368502 -0.08639682
-0.46037582 -0.88234437 -0.29219288 -0.13444313 -0.65745336 0.11959335 -1.9555002 -2.2256446
-0.061895344 -0.21963945 0.12196381 0.04107985 -0.8079871 -1.1016552 -0.40810037 -0.022508161
0.035390887 1.0952717 1.9565257 -2.3800528 0.068045326 0.3004874 0.00826784 0.27076697
-0.0006826103 -0.22337374 -0.83923143 -1.1056772 -0.027754795 0.44901463 -0.07509623 -0.73221135
-0.22071116 -0.065605365 2.1138704 -0.45391393 -1.9504315 -1.4502842 -0.66852057 0.4002504
-0.638823 -0.13044019 0.24386477 -0.15642725 2.7810144 0.39294556 -0.5530313 -0.9536282
-2.0696778 -2.2919652 0.91761607 0.6688028 0.15705238 -0.024880212 0.5529571 -0.35885158
0.4091557 -0.22853243 1.1406914 1.2376767 0.10696878 -0.38856992 -9.038866 1.3179436
-1.2082103 3.4128428 2.9346783 2.3502474 2.9820566 2.3908343 2.6516764 2.128306
0.35972977 0.124054946 0.19912733 -0.4470786 -2.269194 -2.4663098 -0.10913697 0.37068772
-0.4546089 0.32241562 -3.3265746 2.9469638 -0.6300078 -0.68415713 -0.4142763 0.5962444
-0.36764756 -0.57434195 -0.23317836 -0.41728196 3.2433982 -2.625224 -0.9382036 -0.80624014
1.246301 -9.589623 -2.1700304 3.3926606 -0.36957762 0.30388963 0.3117314 0.3893943
-0.29977122 -0.25840116 -1.9442111 -2.0249548 0.43310615 0.016157135 0.5867081 0.08702726
0.41958046 -0.34200642 3.3747048 -1.9434333 -2.5028129 -2.3855937 -0.44423342 0.4442206
1.4790182 -0.516479 0.042615697 1.1721873 -2.3694284 -2.2682595 0.28922078 0.14884302
0.37515998 -0.42961875 -2.1937869 -2.325611 -0.190379 0.053838044 -0.3065927 -0.3370593
0.6761357 0.027402615 -0.55893034 -0.44053024 0.31276995 3.460358 -0.866548 1.6334287
0.053889886 0.59182286 1.1102418 1.00232 -3.3269794 2.3331752 -4.202636 2.449702

Layers.0.bias f4 [256]
00000000: d816 63be 05b0 31bf 0edc bf3e a266 95bd
00000010: ac4f 26bb 1f93 d9be 0eab 78be 847c 133b
00000020: 2936 b5be 3dc3 34bf 9c45 9fbe 2495 03bf
00000030: 604c 703e 84ae 40bd 1855 4e3e 90a4 1fbf
00000040: e74a c5bc ec29 82bb dad3 cdbe cd71 0cbf
00000050: be27 83bb 7f80 06bc 62df 3eba 5fd5 44bd
00000060: 92a5 28ba f691 fa39 8558 23be 8922 56be
00000070: 37a3 10be c90b 633a 1893 cebc 1b5b ffbe
00000080: 4a09 f53d bfb8 92bd 9ed9 64bd 1d5f 9abe
00000090: 6255 32bf 1ebd 0c3a 11e3 5cbd 84be f73e
000000a0: 3542 cdbd 17fa 6d3e 6dc4 f8bc 86b0 0dbf
000000b0: 2663 04bf 005f 75bd b90f 2338 8769 26be
000000c0: 9960 dbbe ea37 9cbe 086d 74bd d039 27bf
000000d0: d9ed 8a3a f811 c5be e3a0 75bd 032a 683e
000000e0: a838 ecbd 595b b3bd 6aba 0b3b a006 05b9
000000f0: 447b 3bbe 6487 29be 0208 d9be aced 11be
00000100: ea3d 1cbe 16a2 513a c889 cfbe 3ebe 41bb
00000110: d583 22bf 20ba 72be 5617 5cbb 5109 29bf
00000120: 28e1 fdbe f27f 09be 567c 49bd c538 de39
00000130: 309c f13e fe4b 1bbf ebdc 06bf d291 cebe
00000140: 51f1 efbe 683b 83be 6aaf e4be 6e74 34b9
00000150: 264a 4ebd 3ab7 95bd 96f0 97bd 9f1b 88bd
00000160: b128 f6be a63a 1bbf 48e1 913e db0d 3fbe
00000170: 9a87 28bf 9b07 30bd bcf6 f4bd 43fa 98be
00000180: 73b7 5039 3d3e b7be 9124 66bd c11d dd3a
00000190: b69d 983c dbb6 07bd 5f82 68be ab25 20bf
000001a0: 69f6 00bf 48bf eb3e a940 6abe a52e 09bf
000001b0: 28a5 31bf d1c4 22bd edcd c33e f13a e4be
000001c0: 6cb2 86be d6e2 5cbe c19c 833b 7557 16bf
000001d0: 9a7b 91be 0d6b 103f d001 cabd 0a2b 0cbf
000001e0: 18ec 27bf a1ba 923e 2b76 25bd 5e49 1dbe
000001f0: 3f2c 14bf 7d4d 2fbf 7598 a6bc 43ae 2bbd
00000200: 2988 05bf 1662 7139 f7c6 8f3d 0bd3 99bd
00000210: 4c23 843d 4bcd 09bd 1334 66bd 5918 1ebd
00000220: a838 9e3e bf97 47be 7186 9bbd ca0e bcbd
00000230: 0116 33bf 5175 7cbe ed1b 7dbe 63a0 13bf
00000240: fcf2 28bb 6829 f5be 409d 5abd ce14 8abe
00000250: fd54 b53a 81d7 9ebe 3f62 3fbe 9d56 89bd
00000260: 95d8 09bf 47d9 16bc 9a72 2f3d 7f73 e0ba
00000270: 8347 c5be 33dc 2ebf 35e9 32bf 7acb c4b8
00000280: cf24 14bf 4870 9a3a d871 d7bc 4283 02be
00000290: ed6c a7ba 8fdd 08bf 7a9c 27bd 4154 d5be
000002a0: 789e c5bc 07f5 8dbd 9a6a 8fbd da15 8cbd
000002b0: 0fb8 23bf e34c 58b7 7acf cfbe 9d9a 24bf
000002c0: 27fd 3ebe 3efb 27be 8097 b9be adc1 7dbe
000002d0: 25b8 92bd a9ec 04bc b709 69be af1b 69be
000002e0: 9765 94bd 79d9 71be a1ee 1dbf 3079 29bf
000002f0: a121 60bb bff5 d6bd d84b b1bd a13e c43e
00000300: 998b 153f b0fd 2ebf 334a 7cbe 3033 89be
00000310: 4c2b 1bbf 4443 3cbe 1b14 11bf 2b93 1abd
00000320: 2094 9fbc ffec 96bd b043 f93e 4817 623a
00000330: 968c 153b ec0c 3ebf 8f65 f4be 0a70 06bf
00000340: f234 09bf 24e4 8939 2207 e2be ecbb b7bd
00000350: b784 1ebe f3d5 92ba 79a1 eebb b6ca 663e
00000360: 96e8 c4bd 15b9 44be 392a 13bf 6f67 4cbd
00000370: 9471 44b9 6a26 c4be 25ad 74bb 4ea2 6cbb
00000380: a559 7abe decb 3cbd 1464 8a3b 9792 42be
00000390: d38a 6fbd 3fe3 8dbe 123c f0be a2da 19bf
000003a0: 9b0c b938 b40a 15be ffe1 25be 1f4e c0be
000003b0: b417 2bbf 616e 23bf e76c a1b8 f140 07bd
000003c0: 352e 17bf 9b1c 45be 01dd 21bf 347d 44bd
000003d0: cc50 ce3a fe17 26be 4d68 013b 2cb1 29be
000003e0: 68aa fbbe 87d0 30bd 395a 0dbf d507 263b
000003f0: c993 87bd c0d1 b8be a780 01bf 41fe ffbe
-0.22176683 -0.6940921 0.37472576 -0.07294966 -0.0025377078 -0.42495057 -0.24284002 0.0022504637
-0.35392883 -0.7061041 -0.31107795 -0.51399446 0.23466635 -0.04704143 0.20149648 -0.6236048
-0.024083568 -0.0039722826 -0.40200692 -0.54861146 -0.0040025404 -0.008209347 -0.00072812114 -0.04805505
-0.00064333633 0.00047792465 -0.15951736 -0.20911612 -0.14124762 0.0008661119 -0.025216624 -0.49874195
0.119646624 -0.07164144 -0.0558716 -0.3015069 -0.69661534 0.0005368757 -0.053927485 0.4838754
-0.100223936 0.23239933 -0.0303671 -0.5534748 -0.5171379 -0.059905052 3.887687e-05 -0.16251193
-0.42847136 -0.3051141 -0.059674293 -0.6532259 0.0010599449 -0.38490272 -0.059967887 0.22672276
-0.11534244 -0.087576576 0.0021320828 -0.00012686336 -0.18308741 -0.16555554 -0.42388922 -0.14250821
-0.15257993 0.000799687 -0.40534806 -0.0029562856 -0.6348241 -0.23703814 -0.0033583245 -0.6602984
-0.49585843 -0.13427714 -0.04919084 0.00042385436 0.47189474 -0.6066283 -0.52680844 -0.40345627
-0.46863797 -0.2563126 -0.4466508 -0.00017209511 -0.050363682 -0.07310338 -0.07418935 -0.06645893
-0.4807792 -0.60636365 0.28492188 -0.18657629 -0.6583191 -0.042976003 -0.11961123 -0.29878435
0.00019904766 -0.35789672 -0.056187216 0.0016869829 0.01862989 -0.03313337 -0.22705983 -0.62557477
-0.5037599 0.46044374 -0.22876228 -0.535868 -0.69392633 -0.03973848 0.38243046 -0.4457622
-0.26308 -0.21570906 0.0040164893 -0.587272 -0.28414613 0.56413347 -0.09863627 -0.5475317
-0.65594625 0.28658012 -0.040395897 -0.15360019 -0.57880014 -0.6847761 -0.020336369 -0.041914236
-0.5216089 0.00023020091 0.070203714 -0.075109564 0.06452045 -0.03364305 -0.056202006 -0.03859744
0.309026 -0.1949148 -0.07594002 -0.09182508 -0.6995545 -0.24654128 -0.24717684 -0.57666606
-0.0025779596 -0.47883153 -0.05337262 -0.26968998 0.0013834533 -0.3102379 -0.18689822 -0.06705973
-0.538461 -0.009207076 0.042833902 -0.0017124264 -0.38531122 -0.6830475 -0.69887096 -9.383909e-05
-0.57868665 0.001178273 -0.026299402 -0.12745383 -0.0012773551 -0.5346307 -0.040920712 -0.41665843
-0.024123415 -0.06931501 -0.070027545 -0.06840105 -0.63952726 -1.2892505e-05 -0.4058798 -0.6429842
-0.18651257 -0.16404435 -0.36248398 -0.24780913 -0.07164029 -0.008113065 -0.22757612 -0.22764467
-0.07245939 -0.23618115 -0.61692244 -0.6620054 -0.0034199732 -0.10496091 -0.08657044 0.38329032
0.58416134 -0.68355846 -0.2463768 -0.26796865 -0.6061294 -0.18385035 -0.56671304 -0.037738007
-0.019479811 -0.07369422 0.48684454 0.0008624685 0.0022819391 -0.7423847 -0.47733733 -0.5251471
-0.53596413 0.00026300654 -0.44146067 -0.0897139 -0.15480314 -0.0011202678 -0.0072824326 0.22538266
-0.09614675 -0.19211228 -0.574863 -0.04990333 -0.00018734328 -0.38310558 -0.0037334647 -0.0036107483
-0.24448259 -0.04609286 0.004223356 -0.19001232 -0.058482002 -0.27712438 -0.4692083 -0.6009923
8.8238354e-05 -0.14554864 -0.16199492 -0.37559602 -0.66833043 -0.638403 -7.697363e-05 -0.033020917
-0.5905488 -0.19249193 -0.6322785 -0.047970966 0.0015740632 -0.1622009 0.0019746006 -0.16571492
-0.49153447 -0.043167617 -0.55215794 0.0025334258 -0.06619985 -0.36097527 -0.5058693 -0.49998668

Layers.1.weight f4 [256, 256]
00000000: edb8 f0bb a014 00bd e3b6 a0bb 0b8a e5bd
00000010: a112 1fbe 44a9 d33c 0c85 92bd ddc3 2d3d
00000020: 50cb 543d 2ca7 11bd f21b 2d3d f492 273d
00000030: c16f b3ba 733d 6c3d 74fe 68bd 6002 1dbb
00000040: ca03 bf3e f28d ae3c 5044 b53c e674 5a3d
00000050: 9fbb 6b3c 60df 803e 6d59 f63c 41f6 b0bb
00000060: 5402 95b9 0e0e 603d dffd f73c 9535 9bbd
00000070: 0cb4 bbbd a9be 72bd 9a19 f53c 56bb 61bd
00000080: 1aed 19be fae4 fdbb a7da 043e 1cf1 a9bd
00000090: e87c 3e3c 7e03 00bd c5d0 813c c667 0dbe
000000a0: 0a02 c3bd 5ed2 34be 469c 8c3c 16d0 33be
000000b0: b621 0fbd 3fc6 473d a639 4abd 7086 42bd
000000c0: 3877 cb3c 94c7 7a3d e6db 61bd b886 ecbc
000000d0: 88b3 003e 80b1 c6ba ff5a cebb 8bc8 edbc
000000e0: f0da e8bc 1b09 243c 0760 29be 5f74 183d
000000f0: 846f 183d d6d4 60bc 18aa 8a3c a896 09be
00000100: 92a3 1a3d 6259 263e 4a4f 69bd 963f 3e3d
00000110: 8cb9 6abd a6d5 c6bd 8735 703e fe0f 573d
00000120: 3845 593d 4cd1 febd 6d45 c1bc 3b4d adbd
00000130: d577 193e f228 39be d0f4 d93b 28b9 02bd
00000140: 9009 ac3b 0733 54be c219 28bd b820 80bc
00000150: 495e e83d 6624 a0bd d612 06be a10f bebd
00000160: 807e 57bc 901d 513d d7d9 a0bc 652a 45bd
00000170: b053 e6bc ce0f c13d ccbb cabc b84b c6bc
00000180: c313 0dbd 9ead 6f3d 2730 383b 8e2e 28bd
00000190: 6c1c b63d 05ae af3d a090 5f3c 6007 4b3c
000001a0: 8459 963c a5ac f13b ff2e f7bd 7009 333c
000001b0: d4ac c63c a07e 873c 796d 4ebd 20e5 c63c
000001c0: 7a13 abbd 2bd9 84bd 7893 6dbc 12d1 40bd
000001d0: 60dd 3b3d b273 1fbe 504e 4c3c 38c1 73bd
000001e0: e817 ae3c 4e85 87be e2a3 3dbd 77c0 87bd
000001f0: 0088 3abb 1397 c2be 388e 393d 035d 983e
00000200: a043 b6bb d574 fdbc 5110 8bbd 9e50 0abd
00000210: 4e02 d8bd 94dd c4bc 9bbd 8dbd f30b 343d
00000220: 8707 3cbd 8704 8fbd 57a5 e2bd 1c6e 3b3d
00000230: 4c1a 77bd aafb 563d fe48 2a3d 18f5 44bd
00000240: d9ee 1fbb c05b 243d fa2e 02bd ef5d 2fbe
00000250: a970 1f3d 941d 87bd 6f53 95bd 16a4 37bd
00000260: b0ce e33b aa52 c33c ac22 48bd 703e 07bd
00000270: f06c b9bb e298 573d e03c 94bc e498 67be
00000280: 0a1e 2d3d 772b 1a3d 520a 1f3d 001b 9fbc
00000290: eda2 06be dab7 22bd ecf1 e93c d447 1e3d
000002a0: 6e7e c83e 11af 69bd 5bc0 08be 155b 8dbd
000002b0: 3b00 9c3d 9c51 38be 42f4 5f3d 103f 72bd
000002c0: c746 a5bd 973d 24be f498 b0bc 02ee 2cbe
000002d0: 68b5 e9bd 64ff 54bc cc92 e23c ac85 9abc
000002e0: c746 febd f413 21bd 3a7a 073d 0ada 0f3d
000002f0: ac9e 323c ba1e 1d3d ae0c 9bbd 3bc7 d83c
00000300: ff01 b6bd 3894 abbc a5c4 06be 605c 99bc
00000310: a04b 803b 606f 00be 8894 d9bc 7aea 6cbd
00000320: 088e e33d 1552 c0bd a2f8 d8bd 4efb 853b
00000330: 547a a2bc 1e4a f2be c05e ce3a 0337 32be
00000340: e17f 83bc 6764 65bd 11bd 99bc cfe5 93bd
00000350: 7fa3 72bd 89fd 21bc 375e 38bd 9cbf e03c
00000360: 55ed 0fbd 916b f4bd c2a5 14bd 6716 023e
00000370: 8376 3bbe 7ee5 0fbd 18a1 88bd 5cd6 56bd
00000380: cac3 9bbd 470e 5ebc 0c9c 813d 0c06 39bd
00000390: 6a9e b0bd de08 4dbe dc97 05bd 103c 41bc
000003a0: 8799 c2bd f19a b0bd 385a 40be 68a0 a2bc
000003b0: e821 32bc a0b0 b6bc 6348 f0bd 4869 5b3d
000003c0: 84fc 0abd 925a 80bd e801 16bc c2ac 1d3c
000003d0: d468 503d 3175 1fbe 98ba 1bbc 406f 3c3b
000003e0: b04d 1dbe ca92 483a fc5b 033d f934 8bbc
000003f0: 874c 33bc 4601 3bbd 1002 b9bb d7b2 83be
-0.0073462636 -0.03126967 -0.0049046143 -0.1120797 -0.1553445 0.025837548 -0.07154283 0.042423118
0.051951706 -0.03555982 0.04226298 0.04091163 -0.0013689921 0.05767579 -0.05688329 -0.0023957714
0.37307578 0.02130792 0.0221273 0.05333414 0.014387994 0.25170422 0.030071938 -0.0054004495
-0.0002842123 0.054700904 0.030272422 -0.07578579 -0.091652006 -0.05926386 0.029919434 -0.055110298
-0.15031853 -0.0077482434 0.12974034 -0.08297941 0.01162646 -0.03125333 0.01584662 -0.13809118
-0.09521873 -0.17658374 0.01716436 -0.17559847 -0.03494426 0.048773047 -0.049371384 -0.04749149
0.024837121 0.06122549 -0.055141352 -0.028872833 0.12568486 -0.00151591 -0.0062974687 -0.02902629
-0.02842471 0.010011937 -0.16540538 0.037220355 0.037215725 -0.013722619 0.01692681 -0.13436377
0.03775365 0.16245034 -0.05696038 0.04644736 -0.057305858 -0.09708719 0.23457919 0.052505486
0.053044528 -0.12442264 -0.023592675 -0.08461996 0.14987119 -0.18082026 0.0066514984 -0.03191486
0.0052501634 -0.2072259 -0.04104019 -0.015640602 0.113461085 -0.078194425 -0.13093123 -0.09280325
-0.013152719 0.051053584 -0.019635124 -0.048136134 -0.028116077 0.09426843 -0.024747752 -0.024206027
-0.034442674 0.058515184 0.0028104873 -0.041060023 0.0889214 0.085781135 0.013645321 0.012391895
0.018353231 0.007375317 -0.12069511 0.010927543 0.024252333 0.016539872 -0.05039737 0.024279177
-0.08353324 -0.06486734 -0.014500491 -0.047074385 0.045865417 -0.15571478 0.012469843 -0.05951044
0.021251634 -0.2646889 -0.04629887 -0.06628507 -0.002846241 -0.38005885 0.045301646 0.29758462
-0.0055622607 -0.030939499 -0.067902215 -0.03376829 -0.105473146 -0.024031438 -0.0692093 0.04395671
-0.045905616 -0.069832854 -0.11066692 0.045759305 -0.060327813 0.0524861 0.041573517 -0.048085302
-0.002440384 0.040126562 -0.03178308 -0.17125677 0.0389258 -0.065974385 -0.07291304 -0.04483422
0.0069521293 0.023843128 -0.04886119 -0.03301853 -0.0056587383 0.052636035 -0.018095434 -0.22616917
0.042264976 0.037639108 0.0388282 -0.019422054 -0.13148089 -0.039726116 0.02855774 0.03864272
0.39158958 -0.057051722 -0.13354628 -0.06902138 0.076172315 -0.17999882 0.0546763 -0.059142172
-0.0807014 -0.1603912 -0.021557309 -0.16887668 -0.114115536 -0.013000343 0.027657889 -0.018862568
-0.124158435 -0.03932567 0.03307555 0.035120048 0.010902088 0.03835938 -0.07570778 0.026462188
-0.088870995 -0.0209447 -0.13160951 -0.018720806 0.003915265 -0.12542486 -0.026560083 -0.0578408
0.11111075 -0.09390656 -0.10594298 0.0040887957 -0.019833721 -0.47322172 0.001574479 -0.17403798
-0.016052188 -0.056003954 -0.018766912 -0.07221567 -0.059237953 -0.009887108 -0.045011725 0.027435116
-0.035138447 -0.11934579 -0.03629089 0.12703858 -0.18306927 -0.03513097 -0.06671351 -0.052450523
-0.07605703 -0.013553209 0.06328592 -0.045171782 -0.08623965 -0.20022914 -0.032615528 -0.011794105
-0.09501939 -0.08623303 -0.18784416 -0.019851878 -0.010872342 -0.022301018 -0.11732557 0.0535672
-0.033932224 -0.06267275 -0.009155728 0.009623708 0.050881222 -0.15572049 -0.009504937 0.0028752834
-0.15361667 0.0007651268 0.032070145 -0.016993033 -0.0109435385 -0.04565551 -0.005645998 -0.2572238

Layers.1.bias f4 [256]
00000000: 5ff6 e7bd 2278 a3bd bdb9 a9be 0ea4 4ebf
00000010: 1514 863c da70 9abd 1e4e 88bd bef4 15bf
00000020: ee01 bcbd 789f 26bf c431 9abd b442 f33a
00000030: 0778 b5be 4d4b f1bc 7427 85bd 5468 04bd
00000040: ac12 9ebc f884 883c ff54 19be c746 6bbd
00000050: 9db1 85bd 3ce8 0bbf e646 56bd c051 9abc
00000060: 33aa 9a3c 9e37 fbbe 4439 90bd 1209 80bd
00000070: 3c40 98bc 6056 18bf dd84 06bd d1a0 22bf
00000080: 0b5c 61bf fda3 6abe 371f 84be d00e b7bd
00000090: b8e2 a5bd c40e 83bd 69ed 19bf d099 03bd
000000a0: 9578 3abf 2c2c 2abd 760d 7dbd e960 78bd
000000b0: 20f0 743b 6bde 32bd 5583 afbd 6f1e 69bd
000000c0: c11f 3bbd eb0c 63bd c248 6abd aab3 69bd
000000d0: a567 1d3b c135 253b 21aa c3bc 8913 57bd
000000e0: 9528 77bc 7bdb 923c 7951 ab3d b4bb e8bc
000000f0: b373 fb3b ae76 33bc 2f7d cdbd 5d55 23bf
00000100: 7b18 b7be 165d 86bc c197 27bf 1e26 a3bd
00000110: 31df 803a 9e9a c1bd 9777 31bd 5afd c63c
00000120: 7d93 083c a88d 44bf 9cf5 0ebc d5c4 bfbe
00000130: ad04 81bd d473 1ebd 67d6 a3bb 1da2 23bd
00000140: e3a2 28bf 3321 39bf 0361 b4bd b665 b9bc
00000150: ac94 d9be ab84 b2bc 70f7 2e3c 0eb9 afbc
00000160: 4368 c43c b29a b5be b13d 3ebf 7c3f 1dbd
00000170: bd52 4dbd 3339 bc3c ef19 49bd eec4 ffbe
00000180: fb28 d73b cb15 2fbf 6da7 42bf 4cf1 16bd
00000190: 9a94 23bf bc51 4f3c 9e15 0fbf 9065 91bd
000001a0: a4b3 edbe 872d b23c 8d3b 51bd 50a7 c1bc
000001b0: 18d1 33bf a94c 94bc 3e5b 043c 4be2 0bbd
000001c0: 9701 2cbf 12ea 4abf 44a1 823b 8ed1 f93c
000001d0: 68a4 79bd 21dd b0bc 6ea7 cabe 1560 c5be
000001e0: 944b 2abd e740 b0bc bcd8 88bd 602f 21bd
000001f0: 326a a6bd f910 89bd 6791 e5be 6351 64bf
00000200: 1ef9 3dbd cecc 50bd 9dfe 463b feeb 9e3b
00000210: 7f54 22bf 0c7b 35bf 812e dabd e51f 843a
00000220: 5cb5 83be 69fe aebd a73c 6ebe c7c7 0a3b
00000230: bd32 19bd e29b 92bd e734 13bd 6436 5b3b
00000240: 4a13 0ebc cc24 7c3c 1b2e 2abc 0313 7c3c
00000250: 0158 a1ba 0d49 c5be 08ae 1dbd 38f5 baba
00000260: ce5f a2be 3062 4cbf 8dc3 06bd ea82 40bf
00000270: e4dd fabe eaea 3dbd bb4e 52bf 68e6 b33c
00000280: e3f3 a0bd fab7 4ebf 9347 05be 9602 053d
00000290: 7bcb efbc 5e1e cb3b 8221 53bf 37f0 3fbf
000002a0: 15e9 773c 61c1 bbbe 4a24 13bf ffee 90bf
000002b0: 9c32 5cbd d145 abbd 56f2 12bf 81b5 4abd
000002c0: dabf 48bf ccea 83bd a488 59bd 3e6b 1ebd
000002d0: 8308 65bf 757f 3ebf 8089 a13c 914f 0dbd
000002e0: 9771 53be e580 07bd 113d 6aba 8b17 b53b
000002f0: b920 46bf 1b2f 36bd 2696 38bc 31d9 edbe
00000300: 421d 2ebf 6008 173a 6bbc 2abf 4ca2 48bf
00000310: 54c9 e63b 84a2 e93b 3fb2 153d dced 82bd
00000320: 4251 46bf 57eb ac3c f6d6 c7bb 1805 2bbd
00000330: a8a5 2abf 0d9e 3bbd 48f7 51bf ec50 4cbf
00000340: ee81 16bf 6277 edbe 7717 513d 6e28 3fbd
00000350: 795b 36bf d43c 7dbd ab32 93bd 874b 39bf
00000360: 3c1b 8ebd eaa8 c8bb c4c7 adbd ba8b 77bd
00000370: e625 49bd 3460 b5bc 4d88 eebe 58c0 4dbd
00000380: cfa8 e3bc 5312 db3b c747 5cbd b827 8e3e
00000390: bc52 b1bd 2b89 11bf e8cf b9be 2905 88be
000003a0: 7f48 7ebd 100d 38bd c7c3 35bf 3912 14bf
000003b0: b19c 8fbd 7656 db3b e3fc 1cbd 38d4 f13c
000003c0: f672 b03b e463 32bd b649 63bd c663 87bd
000003d0: 2b32 5cbf 8bf6 bebc 72c6 93bc efe9 fd3b
000003e0: 0d4f f5be 5a95 a8bd 09b5 88bd e312 71bd
000003f0: 0f9d 8dbd d9c2 a4bb 246a c53c e07a 90bd
-0.113262884 -0.07981898 -0.3314952 -0.8071908 0.016366998 -0.07541056 -0.06655525 -0.5857657
-0.091800556 -0.6508708 -0.07529023 0.0018559308 -0.35443136 -0.029454852 -0.06501666 -0.032326058
-0.019296013 0.016664967 -0.1497383 -0.057440545 -0.06528018 -0.54651237 -0.052313708 -0.01883781
0.018879985 -0.4906587 -0.070421726 -0.0625173 -0.018585317 -0.595068 -0.032841552 -0.63526636
-0.8803107 -0.22914119 -0.25805065 -0.08938372 -0.08099884 -0.06399301 -0.60127884 -0.03212911
-0.72840244 -0.04154603 -0.061780415 -0.060639296 0.003737457 -0.043669146 -0.085699715 -0.05691379
-0.04568458 -0.05543224 -0.057198294 -0.057056107 0.0024018076 0.0025209042 -0.023884835 -0.052508865
-0.015085359 0.017926922 0.08365149 -0.028409816 0.0076737045 -0.010953588 -0.100336425 -0.6380213
-0.35760865 -0.016401809 -0.65465933 -0.07966255 0.0009832141 -0.09453319 -0.04332694 0.02429073
0.008335945 -0.7677865 -0.00872555 -0.37454858 -0.0629972 -0.03868468 -0.004999924 -0.039949525
-0.65873545 -0.72316283 -0.08807566 -0.022631507 -0.4249624 -0.021791777 0.010679111 -0.021450546
0.023975497 -0.35469586 -0.74312884 -0.03839062 -0.050127733 0.022976493 -0.049096998 -0.49954933
0.0065661645 -0.6839263 -0.7603672 -0.036851212 -0.63898623 0.012653764 -0.5589236 -0.0709945
-0.46426117 0.021750225 -0.051082183 -0.023639351 -0.70240927 -0.01810296 0.008078394 -0.034151357
-0.67189926 -0.7926341 0.0039865095 0.030495431 -0.060947806 -0.021589817 -0.39580864 -0.38549867
-0.041575983 -0.021515323 -0.06681964 -0.03935182 -0.08125724 -0.066926904 -0.44837496 -0.89186686
-0.046380155 -0.050976567 0.0030364164 0.00484991 -0.6341018 -0.7089088 -0.10653401 0.0010080306
-0.25724304 -0.08544619 -0.23265325 0.0021176205 -0.037401903 -0.071586385 -0.035939123 0.0033449167
-0.008671591 0.015389632 -0.010386969 0.015385392 -0.0012309552 -0.38532296 -0.038496047 -0.0014263755
-0.31713718 -0.7983732 -0.032901336 -0.7519976 -0.48997414 -0.04636661 -0.82151383 0.021960452
-0.07859018 -0.80749476 -0.13015585 0.03247317 -0.029271832 0.0061986884 -0.82473004 -0.74975914
0.015131255 -0.36670974 -0.5747725 -1.1322936 -0.053759202 -0.08362926 -0.57401025 -0.049489502
-0.7841774 -0.06441268 -0.053108826 -0.038676493 -0.8946611 -0.74413234 0.019718885 -0.03449971
-0.206488 -0.033081908 -0.0008935491 0.005526488 -0.7739368 -0.044478517 -0.011266267 -0.46454766
-0.68013394 0.0005761441 -0.66693753 -0.78372645 0.007043043 0.007129969 0.03654694 -0.06393024
-0.7746774 0.021108313 -0.0060986234 -0.041752905 -0.6665902 -0.045805026 -0.82017946 -0.79810977
-0.58792007 -0.46380144 0.05104777 -0.046669416 -0.71233326 -0.06182559 -0.071873985 -0.7238087
-0.06938788 -0.0061236518 -0.08485368 -0.060435988 -0.04910841 -0.0221406 -0.46588364 -0.05023226
-0.027790455 0.006685534 -0.05377939 0.27764678 -0.086583585 -0.56849927 -0.36291432 -0.26566437
-0.062080856 -0.044934332 -0.7100186 -0.57840306 -0.070123084 0.0066936566 -0.03832711 0.02952014
0.005384798 -0.043552294 -0.055490218 -0.06610827 -0.8601405 -0.02331092 -0.018038962 0.0077488343
-0.47911873 -0.082316115 -0.06675155 -0.058855902 -0.06914722 -0.0050281105 0.024098463 -0.070546865

Layers.2.weight f4 [256, 256]
00000000: c13b 813c 9c09 5b3d 999b 53bd 1030 5dbd
00000010: 2c64 4bbd c671 5fbb 008f bbbb a082 58bd
00000020: c694 7cbd 96dd 02bd d07a e4bb 0d59 243d
00000030: eb0c acbd a4b6 cf3c 1858 9b3c ec6d de3c
00000040: d8d6 853c a823 08bd c060 9cba 907a b83c
00000050: 2a11 1dbd 608c 033d 2845 e8bc 4c28 e23c
00000060: 3400 98bd 86fe 95bd 0000 e838 6a31 043d
00000070: 0096 333c a08b 413b 80fc 3cbc 6074 06bd
00000080: 08c6 7abd 8c81 8cbd 8071 e53b a2d2 7cbd
00000090: 8ace 473d 6910 033d 7ce0 bdbd 040a eb3c
000000a0: f318 143d 8896 71bd 3005 30bc b4c1 d53c
000000b0: 2cf4 58bd 7095 fb3b 41c7 43bc 7e69 e4bc
000000c0: be3a 2cbd 6033 c0bb 8022 cc3b 44b7 033d
000000d0: e034 723c a623 5a3d b8bb f9bc dee1 703d
000000e0: 280c 803c 4944 e63c 6646 bc3b 3098 84bb
000000f0: 80e2 8f3c b8fa 403d d860 dfbc 041e 09bd
00000100: fe38 babd d43e 393d 4672 60bd 80d7 cd3b
00000110: 60e8 debb f9bc 1fbd 2228 4f3d 38bf 26bc
00000120: 1826 95bc 875b 00bd 40d2 0cbd 8136 c5bb
00000130: 6894 77bd 7832 773d 1469 5cbd cc24 bf3c
00000140: e068 2a3b fc9a 8dbc 38a0 1a3d 685d 7d3c
00000150: 7876 08bd d8ae 743c e83b bd3c e019 cdbc
00000160: ca5c 3bbd 91cb 9dbd baa2 61bd 2a7f 093d
00000170: 5e1a bf3c f06f 5fbc 80b8 8dbc 7efc 12bd
00000180: f05c 8cbb 70b2 8bbc 1664 363d 5cd6 5f3d
00000190: 4282 2b3d 5c4b bd3c 1d7f 17bd 5069 38bc
000001a0: 3852 7f3d 5c05 70bd 9846 2a3d 00ad 15ba
000001b0: a26a 5e3d d26e 693d 0842 913c 4dde 4bbd
000001c0: 3cd9 423d 6a53 043c 78a1 633c d81d 11bc
000001d0: 909f 203d f030 ee3c 68e4 47bd 8084 0b3d
000001e0: e0d7 b1bb 8000 b4bc f87b f83c 189f c6bc
000001f0: 98e1 bd3c 0046 14ba 73eb 63bd 7639 463d
00000200: 0eef 553d 8036 bb3c d2e2 6a3d b8f5 38bc
00000210: 0fc1 163c d92e 8abc 18e4 26bd 60c9 e2bc
00000220: d5dc 63bd 58e9 7abc 1fd5 f53b 4c9d 39bd
00000230: 1e95 623d 8852 5a3c 5037 97bb 90ae 6b3c
00000240: 60ed 253b 47e3 b739 1818 883c 6f58 f6bc
00000250: 441a 723d c0fe 57bd dee4 273b c8ee 533d
00000260: 5b95 eebd b088 41bd 35d5 80bc ccd2 9fbc
00000270: faec 00bd 0c13 83bc fcca 64bd d4fa f53c
00000280: c839 5c3d 5609 b5bd 30fc 30bc 95f6 16bd
00000290: d4bd b53c 0620 74bd 1e0e 8a3c e765 72bd
000002a0: 8693 213d ece4 9d3c 408a 733b 6c89 333d
000002b0: 6089 ec3c 2825 08bc 7aae 4ebd 00f7 08bc
000002c0: 0b51 83bc 4208 2f3d 5c02 dfbc e8cd f53c
000002d0: a820 69bd 8f26 af3c 94fb 9bbc 90de b93b
000002e0: 03e2 0d3d b8cf 613d 186e 29bc a15e bf3b
000002f0: a64a 463d 6058 f7bb 2881 6dbd 8e94 293d
00000300: b2a3 123d 83c0 5fbd 36b1 29bd 5cca 0fbd
00000310: 383f 52bd a05f f1bc 74c0 ad3c e67b 543d
00000320: 668c 57bd b453 3abd 88da 08bd 5005 f8bc
00000330: 920f 443d 4085 faba 2d8a bdbd ecf6 90bc
00000340: 7a2c 01bd 8790 c8bc 44fc 72bd 8443 f23c
00000350: 7ca7 e8bc 00a0 54b7 fe34 3a3d a814 4f3d
00000360: 8079 403c c4dc a43c 3c1b 87bd 2038 613c
00000370: f8ff 643c a86e 003c d8ec 7a3d 8a23 7abd
00000380: bfbd 8dbd 80bd bfbc 48cd 4d3d 7a62 04bd
00000390: e0d3 1abb f4c9 bb3c 26cc c6bc 9bfc 5bbd
000003a0: 423d 7b3d 50aa aebb 40c8 3d3b 1073 1a3d
000003b0: d6de 143d b5c1 a1bd e2f6 773d a233 3c3d
000003c0: 4bac 19bd 543d 79bd 3c97 143d f5c7 73bd
000003d0: 10ab 86bb 84d1 7abd e049 30bd 08c8 0e3c
000003e0: ba14 35bc e0c3 6ebb fe5b 0c3d c042 283b
000003f0: 5a8e 31bd 00c7 67bd f006 4fbd 68f8 dfbc
0.015775563 0.05347596 -0.05166206 -0.054000914 -0.04965608 -0.0034094914 -0.005723834 -0.05285895
-0.06166532 -0.031949602 -0.006972648 0.040123988 -0.084009014 0.025355645 0.018962905 0.027152024
0.016337797 -0.03323713 -0.0011930689 0.02251938 -0.038346447 0.032116294 -0.028353289 0.027607106
-0.07421914 -0.07323937 0.00011062622 0.032273687 0.010961056 0.0029532686 -0.01153481 -0.032825828
-0.061224014 -0.068606466 0.0070020556 -0.061724313 0.048780955 0.03199807 -0.092713326 0.0286913
0.036156606 -0.05898145 -0.010743424 0.026093341 -0.052967235 0.0076777264 -0.011949361 -0.027882334
-0.04204821 -0.0058654994 0.0062296987 0.032157198 0.014783114 0.053256653 -0.03048502 0.058809154
0.015630797 0.028108733 0.005745697 -0.0040464625 0.017564058 0.047114104 -0.027267858 -0.03347589
-0.09092902 0.045225933 -0.05479648 0.006281793 -0.0068026036 -0.038998578 0.050575383 -0.010177426
-0.018206641 -0.031337287 -0.034380198 -0.0060184603 -0.060444266 0.060350865 -0.053811148 0.023332976
0.0026002452 -0.017285816 0.037750453 0.015464164 -0.033316106 0.014934264 0.023099855 -0.025036752
-0.045742787 -0.07704843 -0.05508683 0.03356854 0.023328003 -0.013637528 -0.01729989 -0.035885327
-0.00428354 -0.017052859 0.044529043 0.05464779 0.04187227 0.023107223 -0.03698646 -0.011255577
0.06233427 -0.05859886 0.04157123 -0.0005709678 0.05430091 0.056990452 0.017731681 -0.04977255
0.047570452 0.008076528 0.013893478 -0.008857213 0.03921467 0.02907607 -0.04880181 0.03406191
-0.0054273456 -0.021972895 0.03033255 -0.024245784 0.02317886 -0.0005656183 -0.055644464 0.048394643
0.052229933 0.022853136 0.05734522 -0.011289053 0.009201302 -0.016868042 -0.04074487 -0.027683914
-0.055630524 -0.015314423 0.0075022127 -0.045316026 0.05531799 0.013325341 -0.004614748 0.014384881
0.0025318488 0.00035073815 0.016613051 -0.030071465 0.05910708 -0.052733183 0.0025618593 0.05174139
-0.11649581 -0.047249496 -0.015726665 -0.019509695 -0.031476 -0.016000293 -0.055857643 0.03002683
0.053766042 -0.08839671 -0.010802314 -0.036856253 0.022185244 -0.059600852 0.016852435 -0.059179213
0.03944733 0.019274198 0.003716126 0.043832228 0.0288741 -0.00830964 -0.050459363 -0.008359671
-0.016029855 0.042732485 -0.027222805 0.03000541 -0.05691591 0.02138069 -0.01904086 0.0056722835
0.03463937 0.055129737 -0.01034119 0.005840138 0.048411034 -0.007548377 -0.0579845 0.04140144
0.035800643 -0.054626953 -0.041428767 -0.035105094 -0.05132982 -0.029464543 0.021209933 0.05187597
-0.05262413 -0.04548998 -0.033411533 -0.03027597 0.04786641 -0.0019113198 -0.092548706 -0.017695867
-0.031536557 -0.024482979 -0.05932261 0.02957321 -0.028400175 -1.2673438e-05 0.045460694 0.05055681
0.011747718 0.0201248 -0.065969914 0.013746291 0.013977043 0.0078388825 0.061261028 -0.06106905
-0.06920957 -0.02340579 0.0502446 -0.032320477 -0.0023624822 0.022923447 -0.024267267 -0.0537077
0.061337717 -0.0053303614 0.002895847 0.03770739 0.036345325 -0.07898275 0.06053818 0.04594768
-0.037517827 -0.060849503 0.03627704 -0.059516866 -0.0041097477 -0.061234966 -0.043039203 0.008714683
-0.011052305 -0.0036432669 0.034267418 0.0025674552 -0.043348648 -0.056586266 -0.050543725 -0.027340129

Layers.2.bias f4 [256]
00000000: 4d91 97bd 6998 1dbd 26df 28be add3 a2bd
00000010: 94a0 79bd 665d cfbd 39a3 fbbc 82d6 78bf
00000020: 9d4e 54bc e2ce 09bf 187a 43bd 659a 9abd
00000030: 10f3 0ebd 1c79 a9b9 55f2 2dbd e909 61be
00000040: 5d45 cebd 2bda 3bbd 9653 6ebd a394 d1bc
00000050: 308b 81bc 3fa6 7ebd de92 07be bdfe c7bf
00000060: d221 2dbc 5353 42bd eb27 19bd 33e0 2fbd
00000070: 50c4 7fbd 346c 343f 7012 5fbd 03dc 39bc
00000080: 8edf 6bbd 6c45 72bd dca5 1bbd 8b88 e7bc
00000090: 3258 00bf b9d6 243f d5d0 c9bc 91b3 94bd
000000a0: 6f6b 6dbd 1a4f 28bd 7882 6abb 6553 d4bc
000000b0: 09a0 8abd 2531 b9bd 7944 93bc eb27 7ebc
000000c0: 92e0 523f 6eee ecbb c6a2 8bbc ff9c 44be
000000d0: 83c2 a5bd b8a1 96bd 64ef a4bd 97b6 aabd
000000e0: f156 b8bc 2f30 39bc 52e6 c3bc e357 31bd
000000f0: 4c52 fcbc 9628 b8bc 8641 5bbd 6ff0 d0bd
00000100: 3d82 c4bc 3340 b8bd e426 dbbc e243 0bbe
00000110: dc76 eebd e393 68bd cd62 36bd 782d 96bd
00000120: a823 b3bf 00f5 debc b05e 2fbd 0824 9fbd
00000130: 05a3 64be 2832 96bc e2d7 3ebd 4196 9dbd
00000140: 566c ddbd 1b92 0cbf a0b3 9abd 76f0 07bd
00000150: b96e cebd b7d3 6fbc ba73 b2bd abf9 80bd
00000160: 62d1 53be 4caa 14bd c7ad 8ebd bc08 e0bc
00000170: 4223 34bd 1be4 6dbd c837 a6bc 9d0a d8bd
00000180: df0c 48bd 23eb 00bd bebe cebe 59de 07bd
00000190: 5890 68bd 1f43 82bd 8fa3 15bf f462 9cbc
000001a0: 240f d8bf 7a47 20be 5d28 f3bc 258b cfbc
000001b0: 72be 28bd eff4 d6bf 1eb8 c6bc bd96 0ebd
000001c0: 2ce7 34bd 9824 7dbc 8ed5 95bd 2462 87bd
000001d0: f455 0cbd b430 65bd 9567 55be efed ddbd
000001e0: a3cb 17bd f2c4 3ebc cdc4 d0be 2128 89bf
000001f0: 2b42 823f 9897 f2bc d4d1 0bbd d63f 30bd
00000200: c9cb b5bd dbb2 69bd f9fd 3dbd b8c9 2ebe
00000210: f0a4 afbd c261 e6bc ec0c 8bbd 35cc a9be
00000220: 457d 563f 2bc6 6dbf eefe 97bd ec3f 28bd
00000230: 945c 03be 8d94 8abd 97c9 82bd 2d23 41bc
00000240: ad38 8cbc f1f5 26bd 08a7 11bc 3136 afbf
00000250: e88f 5b3d 81af a5bd 8390 8dbd 0239 b3be
00000260: 6131 44be 0566 42bc 0ce3 a3be c851 27bd
00000270: d7ea 88bd ba3b 73bd fb4f aabf 9500 1fbc
00000280: a523 3cbd d393 0fbc 8fc1 9abd 204e 3fbd
00000290: 9daf 43bd b9d4 ffbc 0901 2b3f b2ae fcbd
000002a0: 9ba5 ddbc 5f52 1e3f 51c5 c5be f660 07be
000002b0: f867 e9bc 3093 2ebd 4d04 4abe 6603 82be
000002c0: d05a cfbd 5b16 3ebe fc4a 5bbd 3d37 cabd
000002d0: 2416 2ebc 776d d2bd eed0 adbd e2b5 c9bc
000002e0: af9e c6bc 5552 1cbd 75aa 28bd 2f25 d4bc
000002f0: b3e4 cfbc ad81 34bc e108 f3bc 9470 3abd
00000300: b8a5 743f f4be bdbc 25e3 a5bd 0acf 0fbd
00000310: a962 d5bc 9e1f debc d23a 2cbd 72a6 07bd
00000320: d85b 7abe c718 003e 0854 9bbe d4cd 31bd
00000330: 53bd 3abe 4e9f 82bf 1819 b73e 854f cebc
00000340: 291c 8dbc 0fe8 aebc 5639 9dbd 2a1b c8be
00000350: 1271 4bbe 2972 49bd 48f8 25bd 619b d63d
00000360: 2cf6 33bd c9b0 d1bd 2210 acbd d881 67bf
00000370: 9dc6 2abd b697 91bd 2b92 a4bd c3cb 2dbd
00000380: 1407 c3bb 8186 43bc 7a13 a0bc a5ce c53e
00000390: c290 31bf 1e3c 0fbd 61a8 f0bc b651 8d3f
000003a0: a2ce 24bc 0b14 03bd 55ba c1be e58b 1bbd
000003b0: c09b 90bd afce 5cbd 5b5a 9bbd 3595 45bd
000003c0: 72c5 f2bc bc43 cdbc dec6 30bd 971d f7bc
000003d0: 1943 81bc 4709 a3bc 1485 bcbf 7236 79be
000003e0: 0a80 c83d afec c8bd f282 c4bd c321 e4bc
000003f0: 4f1a c3bc 049d 0bbe 3569 6dbd bac1 debd
-0.07400761 -0.038475428 -0.16491374 -0.0795053 -0.060944155 -0.10125236 -0.030717479 -0.9720231
-0.012958196 -0.53831303 -0.04772386 -0.0754898 -0.03489977 -0.00032324425 -0.042467434 -0.21976437
-0.10071824 -0.045862358 -0.058185183 -0.02558357 -0.01581344 -0.062170263 -0.13239619 -1.5624615
-0.010567145 -0.047442745 -0.037391584 -0.042938422 -0.062443078 0.70477605 -0.054460943 -0.011343959
-0.057586245 -0.059148237 -0.037999973 -0.028263351 -0.50134575 0.6439014 -0.024635712 -0.07260812
-0.057963785 -0.041091062 -0.0035783332 -0.025918672 -0.067688055 -0.09042577 -0.017976986 -0.015512447
0.8237392 -0.0072305715 -0.01704539 -0.19200514 -0.08093741 -0.07355064 -0.08053473 -0.083356075
-0.022502394 -0.011302992 -0.023913536 -0.043296706 -0.030800961 -0.02248029 -0.053529285 -0.10202109
-0.023987884 -0.0899662 -0.026751943 -0.13600114 -0.116437644 -0.05678166 -0.044527818 -0.07332891
-1.3995256 -0.027216434 -0.04281491 -0.07770544 -0.22327812 -0.018334463 -0.0465926 -0.07694674
-0.10811679 -0.5491044 -0.07553792 -0.033188306 -0.100797124 -0.014637879 -0.08713479 -0.062976204
-0.20685342 -0.03629522 -0.06966739 -0.027347915 -0.043978937 -0.058078866 -0.02029027 -0.10548899
-0.0488404 -0.031474244 -0.403799 -0.03317103 -0.056778282 -0.063604586 -0.58452696 -0.019090153
-1.687962 -0.15652266 -0.029682333 -0.025334904 -0.041197248 -1.6793498 -0.024257716 -0.034811724
-0.044165775 -0.015450619 -0.07316123 -0.06610516 -0.03426166 -0.05595465 -0.20840295 -0.10836398
-0.037059437 -0.011643635 -0.40775147 -1.0715371 1.0176443 -0.029613301 -0.034135655 -0.04302963
-0.088767596 -0.057055335 -0.046384785 -0.17069137 -0.08576381 -0.028122786 -0.06789574 -0.3316361
0.83784896 -0.92880505 -0.07421671 -0.041076586 -0.12828285 -0.06766615 -0.063861065 -0.011788172
-0.017116869 -0.04076189 -0.008889921 -1.3688413 0.053604037 -0.08090115 -0.06912329 -0.3500443
-0.19159462 -0.011865144 -0.3200916 -0.040849477 -0.06685417 -0.05938313 -1.3305658 -0.009704729
-0.04593243 -0.008763271 -0.075564496 -0.046705365 -0.0477749 -0.031229364 0.66798455 -0.12338008
-0.027056506 0.6184444 -0.38627103 -0.13220581 -0.028491959 -0.042620838 -0.19728203 -0.25393218
-0.10124743 -0.18563215 -0.053538308 -0.09873817 -0.010625396 -0.10274785 -0.08487116 -0.024622861
-0.024245588 -0.038164455 -0.041178185 -0.025896637 -0.025377607 -0.011017245 -0.02966732 -0.04551752
0.95565367 -0.023162343 -0.08099965 -0.035109557 -0.026048021 -0.027114686 -0.042048283 -0.03311772
-0.24449098 0.12509452 -0.30337548 -0.043409184 -0.18236284 -1.0204866 0.35761333 -0.025184402
-0.017225342 -0.021350889 -0.076769516 -0.39083225 -0.19867352 -0.049181137 -0.040519983 0.10478855
-0.04393594 -0.10238797 -0.084015146 -0.904325 -0.04169332 -0.07109015 -0.08035692 -0.04243065
-0.0059517715 -0.011933924 -0.019540537 0.3863422 -0.6936151 -0.03496944 -0.029377164 1.1040561
-0.010059031 -0.032001536 -0.37837473 -0.03797521 -0.07060957 -0.053908046 -0.07585593 -0.048237998
-0.029635165 -0.025056712 -0.043158405 -0.030165477 -0.015779065 -0.019901885 -1.4728112 -0.24337175
0.097900465 -0.09810769 -0.09595288 -0.02784813 -0.023816256 -0.13634115 -0.05796166 -0.10876794

Layers.3.weight f4 [256, 256]
00000000: 1506 f43c 6088 9f3c cee0 b8bd c6c3 b4bc
00000010: de36 3dbd c8bd cdbd 83ba b8bc a64d f8bb
00000020: dcc9 8abd aa6b 993c d744 4cbd db63 bcbd
00000030: e740 243d 66e9 82bb 1421 80bb 7eed 26bd
00000040: 244a 04bd b84a 4bbc bed6 06bd f225 f4bc
00000050: 91fd e3bc a327 e23c deeb f2bc 88fe 26bd
00000060: bbf4 9f3c 2285 143d b3ca 03bd 303d d5bc
00000070: af13 49bd 0930 44bc a85e 463c e2a8 8f3c
00000080: 4418 373c a2cf 133d fb42 62bd e2ba 113c
00000090: bac4 d9bd 865a aebb 0207 7cbc 5fea 2a3d
000000a0: 76ad eabc 6455 cd3b 8f79 283d 557e 12be
000000b0: 3b50 80bb e112 413b 1cff d33a 50d5 d83c
000000c0: 2291 9bbd 7ba5 89bb 779a a8bc a85f a8bc
000000d0: 61cb 95bd f5b2 34bc 5c73 e53c ee3a d4bc
000000e0: ef64 0c3d e997 743c 9dfe 1abd 289b 0abc
000000f0: 7819 24bd 267e bdbd 4eaa 243d 2b04 5b3d
00000100: 6fd0 0f3d 393c 99bc ca1c 4a3c b15e c03c
00000110: d137 ff3c 602b 0abd 5f1a 0a3b f2e5 44bd
00000120: 2e6a a6ba 802f 76bd 17ed c4bb 021a 2e3d
00000130: 5a24 d7bd 46c6 85bd c86f 0339 f484 063c
00000140: 9c1f 1bbd a44b 28bd eb2c dcbc 6bba a8bd
00000150: ccc6 3ebc 601c 8fbc 1cea 33bd 70c3 573c
00000160: cb19 72bd d862 a5bd fe5c d0bd e24d b0bd
00000170: 5ea4 4bbd 8515 5dbb 87b0 403d 6b90 f4bd
00000180: f513 acbd be61 85bc d101 1bbd 1949 263d
00000190: ede0 52bd d1dd ad3d 2515 4f3c 5a4a f9bc
000001a0: fda6 b4bd a14d dcbc bd46 fe3c 915a 8c3c
000001b0: 24c0 66bd d979 0ebe 43cd a8bc 69e8 b33a
000001c0: 7d11 173d 8e9c ecbc d019 58bd 59f1 8abd
000001d0: df0b 50bc 8018 8cbc f611 12be c082 a2bb
000001e0: 4c5b 03bd 6d1a 67bd 0bee 12bc f000 c7bd
000001f0: d2f2 75bd e0c1 333b 9234 f3bb d9ee 1d3b
00000200: 309e 623c f07a 95bd 5f38 86bc 9a8a 16be
00000210: 0886 303c 46da 27bd e044 963c ae5a 5cbd
00000220: 8bdf 86bd b78c 033a aa0b 16bd e171 1b3c
00000230: 8b0a 1ebd 5c58 a6bd 35ae f23a 875d d5bc
00000240: d496 0d3c 8915 5cbd 121b e0bd aeb1 8dbd
00000250: 4208 61bd f064 8fba 388b db3c 745f fcbc
00000260: c199 903c ff81 81bd 2c4a 08bd 59d2 f23c
00000270: 5c6c 643d 204d fcbb 3a70 253c 3947 423d
00000280: b7de b2bd 3c00 913c c674 4dbd eb07 9bbc
00000290: bdeb d8bc 26a6 f2bc 69a6 8bbd 0007 3f3c
000002a0: a5ed f23b 4c7d fc3b 4ea0 d3bd a818 6fbd
000002b0: a00c 13bb c17c e83c d33e fabd ffc6 573d
000002c0: f0b9 57bc 76ff e1bd 4150 64bd 851e d4bd
000002d0: 4a90 94bd 0344 8ebd 7f94 67bd 80c6 753c
000002e0: 7216 6e3d 7861 413c 24c6 b13c 80eb fdbc
000002f0: 975d a2bc c7e6 503d be14 333d 356c 6dbc
00000300: 3f74 08be bca3 2a3d 0eca 613d 6513 59bc
00000310: 1494 7ebc f73c bdbc b9db 7d3b 5264 1a3d
00000320: c772 46bd 201d 9c3d b65b 85bd b931 3cbd
00000330: e071 a6bd d937 913a b292 c03c bc21 4fbd
00000340: 57b9 083d 3b1f 95bc 58f9 30bd aad3 983b
00000350: 28ff 5abc d032 51bd 6533 8ebc 91e5 08bd
00000360: 0457 02be 943d fc3c 0c6b d83c c34d 6e3b
00000370: 2016 e43c fb24 b8bc 3d51 9cbc 7f78 14bd
00000380: 42e6 d8bb 020c 5c3d d224 353d 6a05 cbbd
00000390: 31d8 4cbc 5611 0b3d bcb9 1f3c b067 75bd
000003a0: b1f9 1e3c 2913 cabb 8c04 01be 3429 1b3d
000003b0: b03a 523c 0dac 3cbd 909c 75bc d0d0 9fbc
000003c0: 7368 f03c f8fc 943c 11d2 fd3c 78d1 64bd
000003d0: 6c42 033d 66f9 babc a37e 4dbd 8a4c 21bd
000003e0: 970c 59ba ee6c 223d f1ff 633d 0acd 043d
000003f0: be3c cc3c 40ee 53bd 5549 88bd 4da4 2abd
0.029788056 0.019474208 -0.09027253 -0.022066008 -0.046194904 -0.100459635 -0.022549873 -0.007577616
-0.06776783 0.018728096 -0.04987034 -0.091987334 0.04010096 -0.0039951084 -0.003910193 -0.040753834
-0.03229727 -0.012407951 -0.032919638 -0.02980325 -0.02783087 0.02760679 -0.029653486 -0.040770084
0.019525876 0.036259778 -0.03217573 -0.026030153 -0.049091037 -0.011974343 0.012107529 0.017536584
0.011175219 0.036086686 -0.05523966 0.008894654 -0.10633226 -0.00532085 -0.01538253 0.04172742
-0.028647166 0.006266283 0.041131552 -0.14306004 -0.003915814 0.0029460716 0.0016174051 0.026468903
-0.07596041 -0.004200635 -0.020581467 -0.020553425 -0.07314182 -0.011028995 0.02800911 -0.025907006
0.034275945 0.014928796 -0.037840474 -0.008459844 -0.04006335 -0.092525765 0.040201478 0.05347077
0.035110887 -0.018705474 0.012335965 0.023482652 0.031154545 -0.033732772 0.0021072847 -0.048070855
-0.0012696439 -0.060103893 -0.0060097086 0.04250527 -0.105049804 -0.06531958 0.00012534775 0.008210409
-0.037871942 -0.04108776 -0.026876887 -0.082386814 -0.011644077 -0.017469585 -0.043924436 0.0131691545
-0.05910663 -0.080754936 -0.10173987 -0.08608605 -0.0497173 -0.003373475 0.04704335 -0.11941608
-0.08402244 -0.016281959 -0.03784353 0.040597055 -0.051484037 0.08489574 0.012639319 -0.030430961
-0.08820913 -0.026892485 0.03103959 0.01713303 -0.056335583 -0.13913669 -0.020605689 0.001372588
0.036881912 -0.028883245 -0.05275899 -0.06784315 -0.012698143 -0.017101526 -0.14264664 -0.0049594343
-0.03206949 -0.056421686 -0.008967887 -0.09716976 -0.060046025 0.002742879 -0.0074220384 0.0024098663
0.01383166 -0.07298839 -0.016384302 -0.1470131 0.010774143 -0.040979646 0.018343389 -0.053797416
-0.06585606 0.00050182216 -0.036632217 0.0094876 -0.038584273 -0.08122322 0.0018515053 -0.026045574
0.008641917 -0.053731475 -0.10942663 -0.06918655 -0.054939516 -0.0010940116 0.026799783 -0.030807234
0.01765144 -0.06323623 -0.03327386 0.029641317 0.055767402 -0.0076996237 0.010097558 0.047431204
-0.08733886 0.017700307 -0.050160192 -0.018924674 -0.026479596 -0.029620241 -0.068188496 0.011659384
0.0074135833 0.0077053662 -0.1033331 -0.058373123 -0.0022437945 0.0283798 -0.12219014 0.05268001
-0.01316689 -0.110350534 -0.0557406 -0.10357384 -0.072540835 -0.06946566 -0.0565381 0.015000939
0.058126874 0.0118030235 0.021700926 -0.030996084 -0.019820018 0.051001336 0.043720953 -0.014491131
-0.13325594 0.041660056 0.055124335 -0.013249253 -0.015538234 -0.02310036 0.0038735701 0.03769333
-0.048449304 0.07622743 -0.06511633 -0.045945857 -0.08127189 0.0011079266 0.02350745 -0.05056928
0.03337988 -0.018203368 -0.043206543 0.004663904 -0.013366498 -0.05107385 -0.017358491 -0.033422057
-0.12728506 0.030791081 0.026418231 0.0036362268 0.027842581 -0.022478571 -0.019081706 -0.036247727
-0.0066192457 0.05372239 0.044224568 -0.09913142 -0.012502716 0.03395208 0.009748872 -0.059913337
0.009703086 -0.006166835 -0.12599391 0.03788109 0.012831375 -0.046062518 -0.014990941 -0.01950875
0.02934668 0.018187031 0.030983957 -0.055863827 0.032045767 -0.022824 -0.0501696 -0.039379634
-0.0008279769 0.039654665 0.055664007 0.032422103 0.024931308 -0.051740885 -0.06654612 -0.041660596
