03-simulation/PruningAMR/checkpoints/high_oscillation_small_dict.ckpt (torch, 18401 bytes, 18 tensors)

Layers.0.weight f4 [32, 2]
00000000: 48cc 8501 d583 1a83 136d dc3f 800f 2540
00000010: d3e9 9bbf b6b6 1e40 11a3 b982 7fde a282
00000020: 456b a582 6813 a582 f283 b682 ffc3 bb82
00000030: 3f65 8c82 1bc6 8082 5022 583f e81a 4b3f
00000040: bca7 6d3f 4dff 93bf 1f6d b282 b03b ae82
00000050: 9bf6 4840 bfad aebd c677 e881 321e 0882
00000060: 062c ad02 8d5f b682 ed6d 9c02 d023 b182
00000070: d111 de82 8045 fb81 a960 4240 e5b7 1ebf
00000080: c006 3a02 6ce5 0302 b3e2 e7bf 5183 dbbf
00000090: 0d77 7dbf 81a9 3040 eeff 9d02 6478 1301
000000a0: 3843 a382 4b2d b682 8221 6d82 88ce 0282
000000b0: 9953 c0bf 9f2f b5bf 78d1 d13e 94bb c13e
000000c0: d42d 8dbf e90f 65bf c6f4 9a82 70e2 bf82
000000d0: fa8c a102 9c12 9e82 e104 ecbf cbed 833f
000000e0: ef12 2c40 4653 ccbf f7c8 21be 8231 4240
000000f0: c510 0ac0 38ae eebf d254 5283 3d47 b182
4.9149613e-38 -4.540787e-37 1.7220787 2.579071 -1.2180732 2.4799018 -2.7276902e-37 -2.3931467e-37
-2.430614e-37 -2.425571e-37 -2.681823e-37 -2.7589677e-37 -2.0629264e-37 -1.8921617e-37 0.84427357 0.7933793
0.9283407 -1.1562287 -2.6217382e-37 -2.560126e-37 3.1400516 -0.08529233 -8.5395207e-38 -1.0000368e-37
2.5445334e-37 -2.679734e-37 2.2985234e-37 -2.6028368e-37 -3.2630194e-37 -9.2302566e-38 3.0371497 -0.6199935
1.3667059e-37 9.690201e-38 -1.8116058 -1.714945 -0.9900978 2.7603457 2.3215973e-37 2.7086012e-38
-2.398928e-37 -2.6768493e-37 -1.7421626e-37 -9.610163e-38 -1.5025512 -1.4155158 0.40980124 0.37838423
-1.1029611 -0.894774 -2.276876e-37 -2.8194896e-37 2.373774e-37 -2.3226695e-37 -1.8438989 1.0306944
2.6886556 -1.5962913 -0.15799318 3.0342717 -2.1572735 -1.8646917 -6.1810822e-37 -2.6048701e-37

Layers.0.bias f4 [32]
00000000: f490 ac81 1d5b cebd bec0 afbd 85fc b982
00000010: 5dce ab82 8416 c982 4159 c482 8829 55be
00000020: dd0c b9bc 373f ab82 1cd8 32bd 45ef 1183
00000030: f2a0 b782 7da8 1183 1c1b 9f82 81fa 99bd
00000040: 3436 5883 34ba 3e3e 3446 f3bc 6812 ed82
00000050: f992 ac82 a8fb a382 f5a5 be3e bef4 dbbd
00000060: 8743 0e3e 944e b682 3a05 ac82 2d11 abbc
00000070: 6d59 9cbd 1904 66bd 06da eb3e 1952 5683
-6.339082e-38 -0.10075972 -0.085816845 -2.7328246e-37 -2.5244638e-37 -2.954722e-37 -2.885084e-37 -0.20816624
-0.022589142 -2.5162475e-37 -0.04366313 -4.288634e-37 -2.6981811e-37 -4.2805085e-37 -2.337851e-37 -0.07518483
-6.3538917e-37 0.18625718 -0.029696561 -3.4834585e-37 -2.5357487e-37 -2.409514e-37 0.3723599 -0.1074004
0.13892947 -2.6787598e-37 -2.5276128e-37 -0.020882213 -0.07634244 -0.05615625 0.46064776 -6.298319e-37

Layers.1.weight f4 [32, 32]
00000000: 6c4b 1a03 8e5f ac82 b7fb 1582 ac2d 4f83
00000010: 6259 2402 68f3 9f82 be8a af82 1201 b002
00000020: 9442 ac82 b28a 2483 ba49 ad82 0ca7 af00
00000030: c2dc 3c03 197e f301 a029 a382 d607 9282
00000040: 9c04 f202 0869 a282 089b 9082 705d 3d81
00000050: 5484 b402 94fd 0900 f603 9f82 246e 9c02
00000060: 5a35 b882 d573 a882 99e0 b082 291e d002
00000070: a843 9982 79a2 3d82 3155 a982 a731 a582
00000080: 5473 7e82 8f41 403f 76d9 c73e dec3 b102
00000090: 407e a702 9697 4702 d801 9402 a378 393d
000000a0: e59f 083f 6d28 9d82 a153 343f ca3d b502
000000b0: 29e9 b402 1ecf 1a82 b968 9382 495f 123f
000000c0: e44f 3001 6dbb 9e3d 6713 183f 96ea e002
000000d0: 363f c702 7911 2d03 35f9 0cbf 6566 ce3c
000000e0: cb72 51bd 81b0 aa82 9caa b782 1eaa f63e
000000f0: fe96 223f 01b8 2e3f 316f 43bf a93a b802
00000100: 604e 0783 e0a0 b582 19dc 9582 c6dd 4e82
00000110: 2c00 8781 09df b882 2b44 3002 8810 ad82
00000120: 9631 9982 4334 6f82 d6d8 b182 4a4c 9d82
00000130: 6e64 7581 8476 1d83 2296 a282 c258 b982
00000140: 3c5a 4a83 2886 8602 04a3 af82 78de eb02
00000150: 8eb1 1983 cb2a 6002 a4da 7780 a47e 9882
00000160: 0473 9802 a14f ce02 60c4 a082 e027 c901
00000170: dbc8 ac02 ce0b b182 b0a0 0f83 3a3d aa82
00000180: dd79 2783 5ad1 aa82 a446 a382 bfa0 e702
00000190: e731 fa02 d62b b482 a415 b582 1378 ac82
000001a0: 7b3e b782 be52 0b01 a400 ad82 eb7b aa82
000001b0: 0432 0902 966e 2402 705b 9d82 7c73 ab82
000001c0: 4e52 6f82 261e a882 8755 a282 9eee 6c82
000001d0: 9e08 6903 6a04 5a83 7590 c082 766f a682
000001e0: dda8 bc82 d74b b882 7c52 b982 9103 dd02
000001f0: c4aa a982 5a04 af82 b2e5 a882 18e5 a282
00000200: 3ca2 4503 ca60 23be abdf b93e 9234 a582
00000210: d090 a782 769f 2182 c578 9a82 4144 e6bd
00000220: 86f1 4d3e f0b4 8e02 16b0 dcbd 7d81 3483
00000230: 2993 0e02 5aae d801 d62a 0e83 96a6 0a3e
00000240: b033 a500 cb17 c481 eba4 ad3e 2ea4 3c83
00000250: 281b a902 5ef5 f682 2ab6 ffbd 1bb2 cbbd
00000260: b68a a302 7529 ae82 b44c 3a02 04a8 113e
00000270: 6596 af3e 4a76 7ebe 7c04 a7bd 9986 4b83
00000280: 9207 1683 57c1 b582 4c8d ee01 5a60 ac02
00000290: acdc 3003 f5b4 a182 5b9d a782 ab90 6582
000002a0: f073 ad82 d82f 7101 c470 9d82 6fbb c302
000002b0: 8550 6983 4eb7 9602 64cd 4182 1aac 8e82
000002c0: f8b8 3183 2657 b382 1a1c 9482 ba4e 8081
000002d0: b120 5882 fc72 d082 62f1 b482 c658 5c81
000002e0: dd67 ae82 6977 a682 c6a1 ae82 6450 4b00
000002f0: 924f a182 0760 0d82 97f8 a982 2b0b c282
00000300: 2081 6382 c69f a282 4a0b b182 26a3 b002
00000310: 480f b002 347d c601 6019 4403 4a13 9482
00000320: 3262 9e82 e951 b682 98c2 a682 3491 8282
00000330: 666f 3a01 a23c 0803 a8d8 0202 63c2 a002
00000340: f813 ed02 4c64 a802 458d d282 9fbd 3303
00000350: 0267 c302 ac6c 9282 b9bb b602 624c 8d82
00000360: 3783 a502 60f3 a502 dd59 6383 4421 af02
00000370: f49b be82 8486 ac82 4f65 af82 6c96 9d82
00000380: 65c6 5e02 ff46 b802 7c13 4682 38c1 a702
00000390: e0c1 be82 b9ec b082 4743 ba82 2421 b402
000003a0: 9f3b a982 9067 b482 2aa3 ab02 8687 1382
000003b0: d5ec b582 6007 3982 9b28 9c82 4479 ac82
000003c0: 54c5 2a83 17a6 b382 8264 6d82 e2a6 2403
000003d0: c227 c502 7c0f 9002 8e40 aa82 ce84 d782
000003e0: 37b3 c182 00e8 c382 428b ae82 7dda e182
000003f0: 1f61 a882 503d 9282 0a01 b182 e8f1 bb82
4.5343113e-37 -2.5327974e-37 -1.101903e-37 -6.088426e-37 1.2074469e-37 -2.3502659e-37 -2.5793573e-37 2.586149e-37
-2.5311343e-37 -4.8354483e-37 -2.5462382e-37 1.6131137e-38 5.550165e-37 8.9445044e-38 -2.397459e-37 -2.145727e-37
3.556135e-37 -2.3864046e-37 -2.1247882e-37 -3.4780856e-38 2.6524576e-37 9.17486e-40 -2.3365224e-37 2.2985357e-37
-2.7066992e-37 -2.4751866e-37 -2.5989788e-37 3.0580164e-37 -2.2520162e-37 -1.3932154e-37 -2.4881216e-37 -2.427307e-37
-1.869407e-37 0.75100034 0.39033097 2.6120235e-37 2.4610909e-37 1.4663714e-37 2.1747704e-37 0.045281064
0.5336898 -2.309228e-37 0.7044011 2.6631025e-37 2.658245e-37 -1.1373573e-37 -2.1659817e-37 0.57176644
3.2383413e-38 0.077505924 0.59404606 3.3048488e-37 2.9276703e-37 5.086019e-37 -0.5506776 0.02519531
-0.051134866 -2.5080563e-37 -2.6987358e-37 0.48176664 0.63511646 0.6824952 -0.7634154 2.707004e-37
-3.9762904e-37 -2.6687897e-37 -2.2019912e-37 -1.5198136e-37 -4.9591415e-38 -2.7164386e-37 1.2950001e-37 -2.5429554e-37
-2.250979e-37 -1.7573945e-37 -2.613227e-37 -2.3112864e-37 -4.5071448e-38 -4.6274203e-37 -2.3889933e-37 -2.7234251e-37
-5.946605e-37 1.9766532e-37 -2.5807505e-37 3.4657837e-37 -4.516648e-37 1.6469202e-37 -1.1006858e-38 -2.240708e-37
2.2400408e-37 3.0314684e-37 -2.36226e-37 7.3892957e-38 2.5388414e-37 -2.6014588e-37 -4.2208383e-37 -2.5014397e-37
-4.921678e-37 -2.5099417e-37 -2.3991243e-37 3.4034663e-37 3.676284e-37 -2.6473783e-37 -2.660798e-37 -2.5342048e-37
-2.6925295e-37 2.5589633e-38 -2.5420433e-37 -2.505038e-37 1.0079524e-37 1.2080554e-37 -2.312156e-37 -2.5192477e-37
-1.7582567e-37 -2.4702686e-37 -2.385285e-37 -1.7407021e-37 6.848244e-37 -6.406951e-37 -2.8294779e-37 -2.4455483e-37
-2.772104e-37 -2.70799e-37 -2.723065e-37 3.2475078e-37 -2.4930333e-37 -2.5716437e-37 -2.481722e-37 -2.3935254e-37
5.8079333e-37 -0.15954891 0.36303458 -2.4274745e-37 -2.4621563e-37 -1.1874175e-37 -2.2697585e-37 -0.11243487
0.20111665 2.0968878e-37 -0.10775773 -5.304589e-37 1.0474745e-37 7.959605e-38 -4.1779223e-37 0.1354011
1.5171399e-38 -7.203317e-38 0.33914885 -5.5436704e-37 2.4847905e-37 -3.6287285e-37 -0.12485917 -0.0994608
2.4030314e-37 -2.5590797e-37 1.3687135e-37 0.14224249 0.3429443 -0.24849811 -0.08155152 -5.981085e-37
-4.408973e-37 -2.6706531e-37 8.7630143e-38 2.5328432e-37 5.197507e-37 -2.3760688e-37 -2.4628762e-37 -1.6865781e-37
-2.548661e-37 4.4299035e-38 -2.31338e-37 2.8760256e-37 -6.856498e-37 2.214573e-37 -1.4238345e-37 -2.0963806e-37
-5.222796e-37 -2.6351707e-37 -2.1762775e-37 -4.713274e-38 -1.5878556e-37 -3.062885e-37 -2.658717e-37 -4.047131e-38
-2.5626617e-37 -2.4460046e-37 -2.5659856e-37 6.916501e-39 -2.3702495e-37 -1.0386602e-37 -2.4975002e-37 -2.8512148e-37
-1.6714383e-37 -2.3895466e-37 -2.6014292e-37 2.5954518e-37 2.5869647e-37 7.291337e-38 5.7628352e-37 -2.1757717e-37
-2.3272375e-37 -2.678951e-37 -2.45032e-37 -1.9185126e-37 3.424273e-38 4.003641e-37 9.613069e-38 2.362146e-37
3.4835482e-37 2.474295e-37 -3.0937811e-37 5.2821047e-37 2.8711798e-37 -2.1515146e-37 2.6850244e-37 -2.076193e-37
2.4319885e-37 2.4384261e-37 -6.6812462e-37 2.5733032e-37 -2.8007504e-37 -2.5350337e-37 -2.5772087e-37 -2.3155415e-37
1.636692e-37 2.707712e-37 -1.4552334e-37 2.4649347e-37 -2.802927e-37 -2.5996748e-37 -2.736886e-37 2.6467645e-37
-2.486654e-37 -2.6508065e-37 2.5219843e-37 -1.0838748e-37 -2.6731495e-37 -1.359377e-37 -2.2945446e-37 -2.5342732e-37
-5.018503e-37 -2.6397017e-37 -1.7440854e-37 4.838684e-37 2.8969368e-37 2.1167786e-37 -2.5016308e-37 -3.1667637e-37
-2.8461665e-37 -2.8785836e-37 -2.5646932e-37 -3.3186185e-37 -2.4741126e-37 -2.1487964e-37 -2.600841e-37 -2.7616028e-37

Layers.1.bias f4 [32]
00000000: 2041 a882 e1e3 1fbe b61f b482 a1e0 b082
00000010: 6090 04be fe0d bc82 ccdd b582 c339 b682
00000020: da4e 963d 1248 913e 88f4 c13d 41f0 bc82
00000030: 73f8 03bf c20e 063f 879d 01be 2711 f4be
00000040: 1ef4 b682 c9f9 0cbf a70c 9082 20e3 ebbe
00000050: 60e0 a382 60f9 d182 423b b7bd 594e ac82
00000060: 6f20 15bf 788b c382 f0ea d5be 4567 02bf
00000070: 3728 77bd aac7 a882 1696 48bf 834f af82
-2.4722761e-37 -0.15614273 -2.6466824e-37 -2.5989806e-37 -0.129457 -2.7632148e-37 -2.6722865e-37 -2.677565e-37
0.073392585 0.28375298 0.09470469 -2.7762016e-37 -0.5155098 0.5236627 -0.12657748 -0.47669336
-2.6882613e-37 -0.5506864 -2.116616e-37 -0.4607172 -2.4079482e-37 -3.0852924e-37 -0.089468494 -2.5318098e-37
-0.58252615 -2.8732726e-37 -0.41780806 -0.50938827 -0.060341086 -2.4799983e-37 -0.7835401 -2.5759576e-37

Layers.2.weight f4 [32, 32]
00000000: a20b 2d03 34bc b782 282a 2603 643b 0982
00000010: 4f59 5603 e445 1603 08d0 b082 4a3d 8f82
00000020: 3070 a882 4465 b982 042d a882 6a3b ef00
00000030: a204 1782 d954 c482 dc26 a082 5ba9 9782
00000040: 889e b302 4f50 8a82 d9e6 9482 750d 7b82
00000050: 2378 2402 1e00 1e82 124c 3a02 325e a882
00000060: 5421 6a82 9a72 bd01 6b57 9982 e574 8c82
00000070: ff8e b282 6875 4d82 5cc6 9b82 fb3c ee02
00000080: f3f3 b002 a5c9 623e 8e09 b502 5141 b182
00000090: 739c 8cbe aa12 ad82 cd0b ae02 aacb b902
000000a0: 24ab fc3e 5d22 cb3e 4c27 963e c203 b382
000000b0: 18a1 e9be 53f6 903e f025 b3bb 467c d7be
000000c0: 713f b002 63c7 11bf dc20 ef00 a654 90be
000000d0: 4736 6e82 5ae7 ae82 af96 7cbe 46e2 a682
000000e0: b126 0fbf 4c99 b402 62a3 2c3e 094f 0cbf
000000f0: 12f9 bd3e 14ce a582 5ee4 6ebf ea49 b782
00000100: 80dd b382 85e7 54bf 7019 ea80 5703 b882
00000110: 4e12 93b4 4a3e 9c82 d233 b282 6c9f a182
00000120: 8cd6 923e c6c5 a602 de59 6f3e 197a 9e02
00000130: be03 c9a5 d093 84bf a141 d13c 7255 6eba
00000140: fe8e a382 6324 a03b 7b32 b182 59df 943a
00000150: 563d 9a82 0387 a202 0195 07bd 8ff7 be82
00000160: 01a2 283a f030 b882 981c 52be 0381 c83b
00000170: c009 23bf 5e5d b402 79c3 4129 46b4 aa02
00000180: 91ca be82 b197 a482 7c4c ac02 fd8a b802
00000190: f010 ab82 1e7e a002 fd47 bf02 bc92 bd02
000001a0: 5106 a402 48d1 cd3f 7db7 9e02 4895 ba82
000001b0: 6fbb af82 2449 563f 3084 17bd 1c98 b282
000001c0: ff0a c682 e3c0 b282 5ed2 4e02 1125 bb82
000001d0: 48c6 7c02 ae35 bc82 8f86 c282 1d51 bb02
000001e0: ec33 bb82 f66f 8f82 c7c7 aa82 7562 a382
000001f0: 9252 a382 b382 b302 03df b382 1958 ba82
00000200: 901f d501 ca6b 8602 6047 6301 5c41 0603
00000210: 9cd8 3083 9887 ea02 a24c f881 aa7f a482
00000220: c625 f981 04ce aa82 a27d a382 f515 a481
00000230: 2ec9 2c83 1ad5 ae82 06b1 7082 6270 0902
00000240: 6739 1f03 4fff a002 16e2 c981 fe07 6a02
00000250: fa5f f481 b7f5 bf81 a77a cb02 1b6c 1082
00000260: 0d49 9901 b293 1882 023f 0b81 b074 bc02
00000270: 1338 2d82 aafe 8202 9e6c 1c83 0d9e 0e03
00000280: 8c2d b782 ae7b c482 e475 0e02 3c55 b402
00000290: 0cd7 ce01 081b 0282 2c44 bc02 6dc4 8902
000002a0: 3ca6 b002 407b d682 9aa1 a582 d799 8182
000002b0: 2aa0 9f82 c0ec ab82 d0c4 a382 177a a382
000002c0: af06 b382 d828 a182 a74e af82 46d7 ad82
000002d0: 5f5a 8702 8c61 b002 c0c5 9a82 edaf 4c03
000002e0: e07a b582 89e1 9f02 fc28 a282 dd32 ac82
000002f0: 2d5d ad02 9317 be82 b300 ad82 a5a6 b502
00000300: 945c 8880 14f1 a982 833f 0203 707d 9502
00000310: 9623 2583 0557 9882 7c87 a482 e46f a782
00000320: aee2 ba82 6c35 3b02 6ddd bd82 84d4 c282
00000330: c3ce a282 e825 a982 49b5 ac82 77bd bd82
00000340: 1b40 bf02 2a27 9f82 ea0b b202 1dee b202
00000350: f539 3482 cec8 b282 7ebc 9d82 3a92 1202
00000360: 63ef ad02 064c b582 2e93 b802 24f2 c082
00000370: 3cea a782 0173 0b02 468a 6a01 240c 0283
00000380: f8ea b002 d518 b182 aef7 9802 e6ff c282
00000390: a87c 7b82 3eed 1e81 d2a2 a882 69dd ad82
000003a0: f67e b382 0f94 a082 d4ba ad82 94a0 b782
000003b0: c31c a982 b8ed b882 5405 b482 fdb3 a982
000003c0: 2264 bc82 672c a682 943a ac82 4487 ae82
000003d0: fa2f ef81 bd72 b282 f45f c982 aa86 0f82
000003e0: ea45 a982 eaf0 bb82 08c0 a182 02df b182
000003f0: 35b6 a882 2c76 6f83 2dcd b682 8add e782
5.0853484e-37 -2.6997457e-37 4.883141e-37 -1.0082215e-37 6.299147e-37 4.416127e-37 -2.598028e-37 -2.104714e-37
-2.4749774e-37 -2.724143e-37 -2.471122e-37 2.1969997e-38 -1.1095057e-37 -2.8848312e-37 -2.3532191e-37 -2.2284661e-37
2.6392679e-37 -2.0323372e-37 -2.1879146e-37 -1.844443e-37 1.2083295e-37 -1.160804e-37 1.3686953e-37 -2.4739447e-37
-1.720117e-37 6.959208e-38 -2.2531505e-37 -2.0638245e-37 -2.6236825e-37 -1.5094715e-37 -2.2889056e-37 3.5005958e-37
2.6000896e-37 0.22147234 2.6601044e-37 -2.6045302e-37 -0.2746311 -2.5430778e-37 2.5573775e-37 2.7300204e-37
0.4934932 0.39674655 0.29326856 -2.6303843e-37 -0.45630717 0.2831293 -0.005467169 -0.42087
2.589729e-37 -0.56944865 2.1960471e-38 -0.28189582 -1.7501055e-37 -2.5699791e-37 -0.24666856 -2.4521382e-37
-0.55918413 2.653661e-37 0.168592 -0.548081 0.37104088 -2.4362854e-37 -0.9331721 -2.6931858e-37
-2.642882e-37 -0.8316577 -2.1498631e-38 -2.7038287e-37 -2.7394202e-07 -2.2957892e-37 -2.6184493e-37 -2.3748327e-37
0.2867931 2.4505024e-37 0.23374125 2.3286094e-37 -3.4870478e-16 -1.0357609 0.02554399 -0.0009091712
-2.403277e-37 0.00488715 -2.6036787e-37 0.0011358067 -2.2663471e-37 2.3881254e-37 -0.033101086 -2.8060082e-37
0.0006432832 -2.7064459e-37 -0.2051872 0.006118895 -0.6368675 2.6502213e-37 4.3024154e-14 2.5082727e-37
-2.8034258e-37 -2.41847e-37 2.5317028e-37 2.7116145e-37 -2.5135913e-37 2.3582275e-37 2.8106247e-37 2.7855275e-37
2.410126e-37 1.6079493 2.332133e-37 -2.7415927e-37 -2.582152e-37 0.83705354 -0.0369913 -2.6242056e-37
-2.9099797e-37 -2.626546e-37 1.5194862e-37 -2.7498456e-37 1.857094e-37 -2.7654928e-37 -2.858297e-37 2.7523737e-37
-2.7506982e-37 -2.1076224e-37 -2.5093922e-37 -2.400721e-37 -2.399809e-37 2.6376704e-37 -2.6429689e-37 -2.738081e-37
7.828913e-38 1.9751398e-37 4.1744524e-38 3.945409e-37 -5.1970407e-37 3.4461037e-37 -9.1210775e-38 -2.417091e-37
-9.1522356e-38 -2.5097502e-37 -2.4022807e-37 -6.027559e-38 -5.07772e-37 -2.5689316e-37 -1.7683218e-37 1.0097423e-37
4.6791795e-37 2.3656427e-37 -7.4160156e-38 1.7193899e-37 -8.9769164e-38 -7.05149e-38 2.9898568e-37 -1.0610474e-37
5.6308146e-38 -1.1209583e-37 -2.5575474e-38 2.7691093e-37 -1.2726125e-37 1.9247953e-37 -4.5968966e-37 4.1911483e-37
-2.6915576e-37 -2.88706e-37 1.0466345e-37 2.6497545e-37 7.5981026e-38 -9.558649e-38 2.7663246e-37 2.0243084e-37
2.595629e-37 -3.1515216e-37 -2.4337326e-37 -1.9043146e-37 -2.345488e-37 -2.526208e-37 -2.4063662e-37 -2.4020774e-37
-2.6305522e-37 -2.3680267e-37 -2.5759083e-37 -2.5543626e-37 1.9888338e-37 2.5916865e-37 -2.274177e-37 6.0152165e-37
-2.6666086e-37 2.34924e-37 -2.3827284e-37 -2.5302323e-37 2.5473546e-37 -2.7931522e-37 -2.5420467e-37 2.669121e-37
-1.2522838e-38 -2.497069e-37 3.8276474e-37 2.196558e-37 -4.8529993e-37 -2.238434e-37 -2.4175398e-37 -2.4602667e-37
-2.7460351e-37 1.3753922e-37 -2.7898146e-37 -2.8627716e-37 -2.3922436e-37 -2.4854075e-37 -2.537718e-37 -2.7879802e-37
2.8101722e-37 -2.338543e-37 2.6161588e-37 2.629142e-37 -1.3240944e-37 -2.6270006e-37 -2.3177266e-37 1.0768351e-37
2.5557467e-37 -2.6639195e-37 2.7120847e-37 -2.8350846e-37 -2.4672889e-37 1.0245112e-37 4.3078219e-38 -3.8217503e-37
2.5995741e-37 -2.6022065e-37 2.2476554e-37 -2.8652617e-37 -1.8476342e-37 -2.919023e-38 -2.4778836e-37 -2.5547149e-37
-2.6374558e-37 -2.3594868e-37 -2.55273e-37 -2.69816e-37 -2.4848827e-37 -2.7172814e-37 -2.645168e-37 -2.4935626e-37
-2.768159e-37 -2.4416993e-37 -2.530675e-37 -2.564464e-37 -8.786358e-38 -2.6220606e-37 -2.958937e-37 -1.0544627e-37
-2.4872447e-37 -2.7615458e-37 -2.3767044e-37 -2.6135813e-37 -2.4789963e-37 -7.037144e-37 -2.6860262e-37 -3.4069557e-37

Layers.2.bias f4 [32]
00000000: 6657 c982 ecf2 03bf 67ad 253f 4e0d 2abf
00000010: 4cd8 a282 e26a 9b82 d7f6 b382 7ef3 aa82
00000020: 39f3 a182 a0e1 a982 40e2 b282 5e19 303d
00000030: a023 9982 8a8c 30bf 6a08 a282 52a8 a082
00000040: ea9e a582 50e9 b882 f3bd 4c82 873d b882
00000050: 3665 bb82 2eb1 a282 7039 d3be ae14 9f82
00000060: 4544 ab82 992b b882 4928 b182 864e 03bf
00000070: 6e1e ac82 6895 3f3f fd34 3183 ea90 a882
-2.958446e-37 -0.51542544 0.64717716 -0.6642655 -2.392791e-37 -2.283655e-37 -2.6443365e-37 -2.5119013e-37
-2.3796427e-37 -2.496182e-37 -2.628461e-37 0.042992942 -2.2501777e-37 -0.68964446 -2.380859e-37 -2.3606498e-37
-2.4335783e-37 -2.7170285e-37 -1.5042066e-37 -2.7071685e-37 -2.7535273e-37 -2.3905457e-37 -0.4125476 -2.337482e-37
-2.5165377e-37 -2.7061394e-37 -2.6030935e-37 -0.5129169 -2.5290594e-37 0.7483735 -5.2076453e-37 -2.4768558e-37

Layers.3.weight f4 [32, 32]
00000000: 5e92 1583 4233 ad82 611a b582 ae47 ba82
00000010: 5351 1203 4536 b482 d495 0d82 50a4 fc01
00000020: 9836 0800 bf3a b282 dc39 c482 826d ba82
00000030: a6f5 6e80 980d ac82 19f6 2582 af58 aa82
00000040: 18d6 bd82 9aa1 b582 930d b982 7d19 c382
00000050: 61c3 bc82 762d bf82 1ed7 b382 70d9 9080
00000060: 18d3 1000 5292 bb82 bf97 b782 6b74 b982
00000070: a621 6d02 2441 ae82 1813 0902 6b6c ac82
00000080: 889e b382 6abc b782 4e65 ad82 c19b 9582
00000090: a472 a902 86cf 8882 7ca2 9e02 4549 b482
000000a0: b9bb 4002 c270 9c82 ec2a aa82 a8f6 a882
000000b0: b356 b802 b72c b282 263c a182 4d06 1602
000000c0: fb91 9382 ad60 a702 d30f ce82 ea25 b002
000000d0: 0e77 8902 3992 a402 ff01 9f82 2e17 9b02
000000e0: 0ce6 9b02 8b8d d302 7d42 b302 507a a702
000000f0: aefc a302 db06 ab82 568d 3502 ff99 a402
00000100: 521d b682 0e3e e53e a5c8 87bd aea2 6c82
00000110: d543 ae82 ae98 a582 6677 5f82 0ea5 b382
00000120: a0f3 7182 0a59 9102 a691 b402 6a08 9e3e
00000130: 4537 5b03 22f5 a13e 760a aa82 ff94 b502
00000140: db3e a782 14cd bd82 7658 6c83 40eb a602
00000150: a3a9 2003 da74 9382 05d8 90be e0cc b502
00000160: c3ac a781 5c81 a302 dc09 b802 bd16 d23d
00000170: 0477 af02 4b11 a602 6289 5001 61ff c082
00000180: 0d10 1683 aa25 9502 ac8a 3083 6db9 2883
00000190: d0b5 9002 d9da 9d82 b152 1983 a4bc f882
000001a0: 2ec1 3902 57e4 9e82 78b9 8102 16e2 a482
000001b0: ea30 f902 79f9 1701 abf3 8082 e89b 8082
000001c0: 9dba 2502 ec89 6982 0853 9b82 424b e001
000001d0: ca53 7082 7aef f681 c1d0 9382 1039 8b80
000001e0: 0a29 ad02 acf2 1d81 be25 de02 efa1 b081
000001f0: 2455 d600 e043 3082 74b6 5281 f869 1d82
00000200: 5144 b802 20cc 78bd ec5a d8be 24d1 09bf
00000210: 90bd 7200 5a58 a002 2836 e382 9211 bd82
00000220: bd6a e982 9438 8d82 caa7 ac02 93d0 aabd
00000230: 4974 c582 d0b5 e83d 0a4e 9c82 b0d0 b682
00000240: 9629 b202 0e85 aa82 af3b 4983 76ea aa02
00000250: c7c2 ac02 d974 ce82 13d7 66bd 7b74 ac02
00000260: a6ae a202 5236 b082 caa4 b802 4dac 043c
00000270: ec80 af02 5913 273e fa3e 0f82 d071 af02
00000280: 84f0 a182 78c7 c002 7aa1 b682 9a60 9c82
00000290: 03b5 8102 0ed6 b482 7b32 9582 fb42 c482
000002a0: 34ae b182 bcdd ba82 fd7d 9282 d821 b182
000002b0: 9c21 4503 f540 c082 b296 9b82 c148 c082
000002c0: 26d1 cc82 8f9a b782 08e0 ac02 7bf7 b782
000002d0: e411 b582 782d 9d02 7a74 b182 9cd3 9802
000002e0: 5ca8 9002 d7b9 b982 0933 9d02 2408 a282
000002f0: 7ded b202 5879 c780 b033 e381 1605 b382
00000300: d2d9 a882 cd3d 7fbc dc6a 11bf d5af 07be
00000310: d21f ad82 f0e4 9e82 d96f f102 acdd ac02
00000320: e144 8102 1599 b002 c436 9f02 6f7f 8abe
00000330: 0d86 8f82 56b2 f43c 84cd 6782 f807 b102
00000340: a5f3 b082 0a6f b382 420c 2b83 413a ac02
00000350: 76bd af82 9d0d 9902 35fc e6be 318f 9c02
00000360: f30a 1502 529c 9602 5e48 a202 2fc4 30c0
00000370: a926 9882 9567 05bf a2e2 b902 e885 c502
00000380: 8ff9 c382 f491 ac82 8b8d 2b02 fee4 0802
00000390: b451 eb02 9ef2 b502 b19a 8182 e0c2 bf82
000003a0: d7c3 cf02 3879 aa82 3e6c 8802 5593 be82
000003b0: 7555 4c81 91ce b082 3719 9682 4e4d b282
000003c0: 96e4 fa02 9bba b482 7292 c482 f8e2 9882
000003d0: 0844 ac82 3ddb 9802 b01b c982 9963 4902
000003e0: 94b1 af02 d484 b682 848d 9302 d908 9782
000003f0: 7342 6f02 a947 ad82 de6e 0383 5ae5 b182
-4.3955186e-37 -2.5449486e-37 -2.66107e-37 -2.7371386e-37 4.29989e-37 -2.6479772e-37 -1.0402043e-37 9.2805957e-38
7.54269e-40 -2.6188468e-37 -2.8832821e-37 -2.7393098e-37 -1.0190027e-38 -2.528093e-37 -1.2192912e-37 -2.5030157e-37
-2.7893938e-37 -2.6688314e-37 -2.7191098e-37 -2.8667304e-37 -2.773626e-37 -2.809102e-37 -2.6425157e-37 -1.3302313e-38
1.545094e-39 -2.7561164e-37 -2.6976531e-37 -2.7250127e-37 1.7421667e-37 -2.560439e-37 1.007065e-37 -2.5335357e-37
-2.6392679e-37 -2.6997578e-37 -2.5478211e-37 -2.198298e-37 2.4898119e-37 -2.0102517e-37 2.3309275e-37 -2.6490678e-37
1.4159806e-37 -2.298686e-37 -2.500389e-37 -2.4826955e-37 2.7086133e-37 -2.6180414e-37 -2.3691347e-37 1.1022068e-37
-2.1683497e-37 2.4593934e-37 -3.0278062e-37 2.5882637e-37 2.0198675e-37 2.4181562e-37 -2.3364096e-37 2.2788508e-37
2.2907243e-37 3.1084905e-37 2.6339849e-37 2.4608649e-37 2.4095728e-37 -2.5130127e-37 1.3338341e-37 2.4186024e-37
-2.6759326e-37 0.44773906 -0.06630067 -1.7385228e-37 -2.5605936e-37 -2.4332205e-37 -1.6417718e-37 -2.6396423e-37
-1.7775801e-37 2.135694e-37 2.653222e-37 0.30865794 6.442176e-37 0.31632334 -2.498526e-37 2.668108e-37
-2.4574522e-37 -2.7888763e-37 -6.9455715e-37 2.4526535e-37 4.7214507e-37 -2.1666778e-37 -0.2828981 2.6713152e-37
-6.159401e-38 2.4024946e-37 2.704203e-37 0.10258243 2.578225e-37 2.4401433e-37 3.8302134e-38 -2.8358445e-37
-4.4099464e-37 2.19152e-37 -5.188094e-37 -4.958362e-37 2.1263254e-37 -2.319469e-37 -4.5057584e-37 -3.65486e-37
1.3647093e-37 -2.3347074e-37 1.90613e-37 -2.4227401e-37 3.6615337e-37 2.7913308e-38 -1.8947768e-37 -1.8897395e-37
1.2175841e-37 -1.7157718e-37 -2.282286e-37 8.2392594e-38 -1.7656462e-37 -9.070976e-38 -2.1719528e-37 -1.2785604e-38
2.544362e-37 -2.9010454e-38 3.2641631e-37 -6.488455e-38 1.9683339e-38 -1.2949917e-37 -3.8701812e-38 -1.156495e-37
2.7075582e-37 -0.060741544 -0.42256868 -0.5383475 1.0537249e-38 2.3560598e-37 -3.3385736e-37 -2.778114e-37
-3.4297538e-37 -2.0750562e-37 2.5369435e-37 -0.083405636 -2.9013293e-37 0.11362803 -2.2966932e-37 -2.6862277e-37
2.6178618e-37 -2.5055625e-37 -5.9137105e-37 2.511383e-37 2.5384925e-37 -3.0336047e-37 -0.056357455 2.5339985e-37
2.3904004e-37 -2.5892054e-37 2.7130954e-37 0.00809772 2.5787936e-37 0.16315974 -1.0524054e-37 2.5779264e-37
-2.3794873e-37 2.8326354e-37 -2.683518e-37 -2.2977586e-37 1.9058742e-37 -2.6571484e-37 -2.1922557e-37 -2.8838056e-37
-2.61078e-37 -2.7457513e-37 -2.1525086e-37 -2.6027238e-37 5.793168e-37 -2.8249148e-37 -2.2861698e-37 -2.8253623e-37
-3.0095151e-37 -2.6978146e-37 2.5401716e-37 -2.703148e-37 -2.6605828e-37 2.3095174e-37 -2.6074667e-37 2.245585e-37
2.1255532e-37 -2.7289974e-37 2.309837e-37 -2.3808433e-37 2.629106e-37 -1.8318794e-38 -8.34608e-38 -2.6304605e-37
-2.4810404e-37 -0.015578699 -0.5680368 -0.13250668 -2.543833e-37 -2.3347417e-37 3.5475965e-37 2.5400362e-37
1.899438e-37 2.594874e-37 2.3394384e-37 -0.2705035 -2.1088903e-37 0.029870193 -1.703018e-37 2.6012386e-37
-2.600072e-37 -2.636542e-37 -5.0266455e-37 2.5306565e-37 -2.5822684e-37 2.2489143e-37 -0.45114294 2.3004328e-37
1.0949933e-37 2.2130243e-37 2.3845297e-37 -2.761974 -2.2356583e-37 -0.5211118 2.7313388e-37 2.9023407e-37
-2.8795914e-37 -2.5356902e-37 1.2603717e-37 1.005742e-37 3.4577042e-37 2.6734815e-37 -1.9043635e-37 -2.817678e-37
3.0528323e-37 -2.504883e-37 2.0045532e-37 -2.8002555e-37 -3.7530195e-38 -2.597944e-37 -2.2054992e-37 -2.619912e-37
3.68654e-37 -2.655573e-37 -2.8883667e-37 -2.2464666e-37 -2.5312177e-37 2.246023e-37 -2.9550187e-37 1.4795731e-37
2.5815864e-37 -2.6818736e-37 2.1680935e-37 -2.2192534e-37 1.7578017e-37 -2.5461196e-37 -3.862471e-37 -2.6139454e-37

Layers.3.bias f4 [32]
00000000: c1c1 b982 80c3 9a82 b668 eabe f3ce 6e82
00000010: 5111 7b3e 90ba a682 57bb 0b3f 80a2 a082
00000020: 32f1 2983 d8f4 12bf 0e31 9f82 e029 8c82
00000030: 6db5 9c82 f14d 27bf 4a14 083f fd42 bc82
00000040: 72fb 9382 0bf0 80be 7d70 cf3e 7444 af82
00000050: b582 dc82 ebeb 57be 1f2a 183f bb4f ae82
00000060: cf4c fabe ae53 b182 4ea7 9782 e9a2 e482
00000070: bf90 54bf b973 6b82 9660 b182 7454 d53e
-2.7294516e-37 -2.2740478e-37 -0.45783013 -1.754487e-37 0.24518324 -2.449859e-37 0.5458273 -2.3603157e-37
-4.9941515e-37 -0.5740485 -2.3391106e-37 -2.0595186e-37 -2.3026273e-37 -0.65353304 0.5315596 -2.7662567e-37
-2.1744031e-37 -0.25183138 0.4051551 -2.575323e-37 -3.2401117e-37 -0.2108609 0.5943927 -2.5612765e-37
-0.48886725 -2.6055842e-37 -2.2283484e-37 -3.3595095e-37 -0.83033365 -1.7298284e-37 -2.606325e-37 0.41665995

Layers.4.weight f4 [1, 32]
00000000: b775 b182 b824 d982 b69b c2be e49a ab02
00000010: 4d66 6e3e a4d1 c402 1608 e8bf 4397 b802
00000020: 6a17 3c03 301a d0be 866c b882 38a9 a502
00000030: d834 cf82 34a9 b2be dd32 653f a29d c282
00000040: d670 bd82 1951 8f3f 68b9 87be 7a85 c182
00000050: 5e88 d882 810e ca3d 0d86 49bf 90ff c982
00000060: a7db bebe 9ffd b402 5ae6 aa02 52ab 2002
00000070: b4a2 0dc0 2894 3182 8f6e b682 546f ad3f
-2.6075378e-37 -3.190636e-37 -0.38009423 2.5215095e-37 0.23281212 2.891994e-37 -1.8127468 2.712319e-37
5.5275113e-37 -0.4064498 -2.709866e-37 2.4341698e-37 -3.0446247e-37 -0.34894717 0.89530736 -2.8596215e-37
-2.7835819e-37 1.1196624 -0.2650864 -2.8435413e-37 -3.1816618e-37 0.09866048 -0.7872017 -2.9680981e-37
-0.37276956 2.6594194e-37 2.511147e-37 1.180411e-37 -2.2130556 -1.3046425e-37 -2.6805954e-37 1.35496

weights_list.0 f4 [32, 2]
00000000: 48cc 8501 d583 1a83 136d dc3f 800f 2540
00000010: d3e9 9bbf b6b6 1e40 11a3 b982 7fde a282
00000020: 456b a582 6813 a582 f283 b682 ffc3 bb82
00000030: 3f65 8c82 1bc6 8082 5022 583f e81a 4b3f
00000040: bca7 6d3f 4dff 93bf 1f6d b282 b03b ae82
00000050: 9bf6 4840 bfad aebd c677 e881 321e 0882
00000060: 062c ad02 8d5f b682 ed6d 9c02 d023 b182
00000070: d111 de82 8045 fb81 a960 4240 e5b7 1ebf
00000080: c006 3a02 6ce5 0302 b3e2 e7bf 5183 dbbf
00000090: 0d77 7dbf 81a9 3040 eeff 9d02 6478 1301
000000a0: 3843 a382 4b2d b682 8221 6d82 88ce 0282
000000b0: 9953 c0bf 9f2f b5bf 78d1 d13e 94bb c13e
000000c0: d42d 8dbf e90f 65bf c6f4 9a82 70e2 bf82
000000d0: fa8c a102 9c12 9e82 e104 ecbf cbed 833f
000000e0: ef12 2c40 4653 ccbf f7c8 21be 8231 4240
000000f0: c510 0ac0 38ae eebf d254 5283 3d47 b182
4.9149613e-38 -4.540787e-37 1.7220787 2.579071 -1.2180732 2.4799018 -2.7276902e-37 -2.3931467e-37
-2.430614e-37 -2.425571e-37 -2.681823e-37 -2.7589677e-37 -2.0629264e-37 -1.8921617e-37 0.84427357 0.7933793
0.9283407 -1.1562287 -2.6217382e-37 -2.560126e-37 3.1400516 -0.08529233 -8.5395207e-38 -1.0000368e-37
2.5445334e-37 -2.679734e-37 2.2985234e-37 -2.6028368e-37 -3.2630194e-37 -9.2302566e-38 3.0371497 -0.6199935
1.3667059e-37 9.690201e-38 -1.8116058 -1.714945 -0.9900978 2.7603457 2.3215973e-37 2.7086012e-38
-2.398928e-37 -2.6768493e-37 -1.7421626e-37 -9.610163e-38 -1.5025512 -1.4155158 0.40980124 0.37838423
-1.1029611 -0.894774 -2.276876e-37 -2.8194896e-37 2.373774e-37 -2.3226695e-37 -1.8438989 1.0306944
2.6886556 -1.5962913 -0.15799318 3.0342717 -2.1572735 -1.8646917 -6.1810822e-37 -2.6048701e-37

weights_list.1 f4 [32, 32]
00000000: 6c4b 1a03 8e5f ac82 b7fb 1582 ac2d 4f83
00000010: 6259 2402 68f3 9f82 be8a af82 1201 b002
00000020: 9442 ac82 b28a 2483 ba49 ad82 0ca7 af00
00000030: c2dc 3c03 197e f301 a029 a382 d607 9282
00000040: 9c04 f202 0869 a282 089b 9082 705d 3d81
00000050: 5484 b402 94fd 0900 f603 9f82 246e 9c02
00000060: 5a35 b882 d573 a882 99e0 b082 291e d002
00000070: a843 9982 79a2 3d82 3155 a982 a731 a582
00000080: 5473 7e82 8f41 403f 76d9 c73e dec3 b102
00000090: 407e a702 9697 4702 d801 9402 a378 393d
000000a0: e59f 083f 6d28 9d82 a153 343f ca3d b502
000000b0: 29e9 b402 1ecf 1a82 b968 9382 495f 123f
000000c0: e44f 3001 6dbb 9e3d 6713 183f 96ea e002
000000d0: 363f c702 7911 2d03 35f9 0cbf 6566 ce3c
000000e0: cb72 51bd 81b0 aa82 9caa b782 1eaa f63e
000000f0: fe96 223f 01b8 2e3f 316f 43bf a93a b802
00000100: 604e 0783 e0a0 b582 19dc 9582 c6dd 4e82
00000110: 2c00 8781 09df b882 2b44 3002 8810 ad82
00000120: 9631 9982 4334 6f82 d6d8 b182 4a4c 9d82
00000130: 6e64 7581 8476 1d83 2296 a282 c258 b982
00000140: 3c5a 4a83 2886 8602 04a3 af82 78de eb02
00000150: 8eb1 1983 cb2a 6002 a4da 7780 a47e 9882
00000160: 0473 9802 a14f ce02 60c4 a082 e027 c901
00000170: dbc8 ac02 ce0b b182 b0a0 0f83 3a3d aa82
00000180: dd79 2783 5ad1 aa82 a446 a382 bfa0 e702
00000190: e731 fa02 d62b b482 a415 b582 1378 ac82
000001a0: 7b3e b782 be52 0b01 a400 ad82 eb7b aa82
000001b0: 0432 0902 966e 2402 705b 9d82 7c73 ab82
000001c0: 4e52 6f82 261e a882 8755 a282 9eee 6c82
000001d0: 9e08 6903 6a04 5a83 7590 c082 766f a682
000001e0: dda8 bc82 d74b b882 7c52 b982 9103 dd02
000001f0: c4aa a982 5a04 af82 b2e5 a882 18e5 a282
00000200: 3ca2 4503 ca60 23be abdf b93e 9234 a582
00000210: d090 a782 769f 2182 c578 9a82 4144 e6bd
00000220: 86f1 4d3e f0b4 8e02 16b0 dcbd 7d81 3483
00000230: 2993 0e02 5aae d801 d62a 0e83 96a6 0a3e
00000240: b033 a500 cb17 c481 eba4 ad3e 2ea4 3c83
00000250: 281b a902 5ef5 f682 2ab6 ffbd 1bb2 cbbd
00000260: b68a a302 7529 ae82 b44c 3a02 04a8 113e
00000270: 6596 af3e 4a76 7ebe 7c04 a7bd 9986 4b83
00000280: 9207 1683 57c1 b582 4c8d ee01 5a60 ac02
00000290: acdc 3003 f5b4 a182 5b9d a782 ab90 6582
000002a0: f073 ad82 d82f 7101 c470 9d82 6fbb c302
000002b0: 8550 6983 4eb7 9602 64cd 4182 1aac 8e82
000002c0: f8b8 3183 2657 b382 1a1c 9482 ba4e 8081
000002d0: b120 5882 fc72 d082 62f1 b482 c658 5c81
000002e0: dd67 ae82 6977 a682 c6a1 ae82 6450 4b00
000002f0: 924f a182 0760 0d82 97f8 a982 2b0b c282
00000300: 2081 6382 c69f a282 4a0b b182 26a3 b002
00000310: 480f b002 347d c601 6019 4403 4a13 9482
00000320: 3262 9e82 e951 b682 98c2 a682 3491 8282
00000330: 666f 3a01 a23c 0803 a8d8 0202 63c2 a002
00000340: f813 ed02 4c64 a802 458d d282 9fbd 3303
00000350: 0267 c302 ac6c 9282 b9bb b602 624c 8d82
00000360: 3783 a502 60f3 a502 dd59 6383 4421 af02
00000370: f49b be82 8486 ac82 4f65 af82 6c96 9d82
00000380: 65c6 5e02 ff46 b802 7c13 4682 38c1 a702
00000390: e0c1 be82 b9ec b082 4743 ba82 2421 b402
000003a0: 9f3b a982 9067 b482 2aa3 ab02 8687 1382
000003b0: d5ec b582 6007 3982 9b28 9c82 4479 ac82
000003c0: 54c5 2a83 17a6 b382 8264 6d82 e2a6 2403
000003d0: c227 c502 7c0f 9002 8e40 aa82 ce84 d782
000003e0: 37b3 c182 00e8 c382 428b ae82 7dda e182
000003f0: 1f61 a882 503d 9282 0a01 b182 e8f1 bb82
4.5343113e-37 -2.5327974e-37 -1.101903e-37 -6.088426e-37 1.2074469e-37 -2.3502659e-37 -2.5793573e-37 2.586149e-37
-2.5311343e-37 -4.8354483e-37 -2.5462382e-37 1.6131137e-38 5.550165e-37 8.9445044e-38 -2.397459e-37 -2.145727e-37
3.556135e-37 -2.3864046e-37 -2.1247882e-37 -3.4780856e-38 2.6524576e-37 9.17486e-40 -2.3365224e-37 2.2985357e-37
-2.7066992e-37 -2.4751866e-37 -2.5989788e-37 3.0580164e-37 -2.2520162e-37 -1.3932154e-37 -2.4881216e-37 -2.427307e-37
-1.869407e-37 0.75100034 0.39033097 2.6120235e-37 2.4610909e-37 1.4663714e-37 2.1747704e-37 0.045281064
0.5336898 -2.309228e-37 0.7044011 2.6631025e-37 2.658245e-37 -1.1373573e-37 -2.1659817e-37 0.57176644
3.2383413e-38 0.077505924 0.59404606 3.3048488e-37 2.9276703e-37 5.086019e-37 -0.5506776 0.02519531
-0.051134866 -2.5080563e-37 -2.6987358e-37 0.48176664 0.63511646 0.6824952 -0.7634154 2.707004e-37
-3.9762904e-37 -2.6687897e-37 -2.2019912e-37 -1.5198136e-37 -4.9591415e-38 -2.7164386e-37 1.2950001e-37 -2.5429554e-37
-2.250979e-37 -1.7573945e-37 -2.613227e-37 -2.3112864e-37 -4.5071448e-38 -4.6274203e-37 -2.3889933e-37 -2.7234251e-37
-5.946605e-37 1.9766532e-37 -2.5807505e-37 3.4657837e-37 -4.516648e-37 1.6469202e-37 -1.1006858e-38 -2.240708e-37
2.2400408e-37 3.0314684e-37 -2.36226e-37 7.3892957e-38 2.5388414e-37 -2.6014588e-37 -4.2208383e-37 -2.5014397e-37
-4.921678e-37 -2.5099417e-37 -2.3991243e-37 3.4034663e-37 3.676284e-37 -2.6473783e-37 -2.660798e-37 -2.5342048e-37
-2.6925295e-37 2.5589633e-38 -2.5420433e-37 -2.505038e-37 1.0079524e-37 1.2080554e-37 -2.312156e-37 -2.5192477e-37
-1.7582567e-37 -2.4702686e-37 -2.385285e-37 -1.7407021e-37 6.848244e-37 -6.406951e-37 -2.8294779e-37 -2.4455483e-37
-2.772104e-37 -2.70799e-37 -2.723065e-37 3.2475078e-37 -2.4930333e-37 -2.5716437e-37 -2.481722e-37 -2.3935254e-37
5.8079333e-37 -0.15954891 0.36303458 -2.4274745e-37 -2.4621563e-37 -1.1874175e-37 -2.2697585e-37 -0.11243487
0.20111665 2.0968878e-37 -0.10775773 -5.304589e-37 1.0474745e-37 7.959605e-38 -4.1779223e-37 0.1354011
1.5171399e-38 -7.203317e-38 0.33914885 -5.5436704e-37 2.4847905e-37 -3.6287285e-37 -0.12485917 -0.0994608
2.4030314e-37 -2.5590797e-37 1.3687135e-37 0.14224249 0.3429443 -0.24849811 -0.08155152 -5.981085e-37
-4.408973e-37 -2.6706531e-37 8.7630143e-38 2.5328432e-37 5.197507e-37 -2.3760688e-37 -2.4628762e-37 -1.6865781e-37
-2.548661e-37 4.4299035e-38 -2.31338e-37 2.8760256e-37 -6.856498e-37 2.214573e-37 -1.4238345e-37 -2.0963806e-37
-5.222796e-37 -2.6351707e-37 -2.1762775e-37 -4.713274e-38 -1.5878556e-37 -3.062885e-37 -2.658717e-37 -4.047131e-38
-2.5626617e-37 -2.4460046e-37 -2.5659856e-37 6.916501e-39 -2.3702495e-37 -1.0386602e-37 -2.4975002e-37 -2.8512148e-37
-1.6714383e-37 -2.3895466e-37 -2.6014292e-37 2.5954518e-37 2.5869647e-37 7.291337e-38 5.7628352e-37 -2.1757717e-37
-2.3272375e-37 -2.678951e-37 -2.45032e-37 -1.9185126e-37 3.424273e-38 4.003641e-37 9.613069e-38 2.362146e-37
3.4835482e-37 2.474295e-37 -3.0937811e-37 5.2821047e-37 2.8711798e-37 -2.1515146e-37 2.6850244e-37 -2.076193e-37
2.4319885e-37 2.4384261e-37 -6.6812462e-37 2.5733032e-37 -2.8007504e-37 -2.5350337e-37 -2.5772087e-37 -2.3155415e-37
1.636692e-37 2.707712e-37 -1.4552334e-37 2.4649347e-37 -2.802927e-37 -2.5996748e-37 -2.736886e-37 2.6467645e-37
-2.486654e-37 -2.6508065e-37 2.5219843e-37 -1.0838748e-37 -2.6731495e-37 -1.359377e-37 -2.2945446e-37 -2.5342732e-37
-5.018503e-37 -2.6397017e-37 -1.7440854e-37 4.838684e-37 2.8969368e-37 2.1167786e-37 -2.5016308e-37 -3.1667637e-37
-2.8461665e-37 -2.8785836e-37 -2.5646932e-37 -3.3186185e-37 -2.4741126e-37 -2.1487964e-37 -2.600841e-37 -2.7616028e-37

weights_list.2 f4 [32, 32]
00000000: a20b 2d03 34bc b782 282a 2603 643b 0982
00000010: 4f59 5603 e445 1603 08d0 b082 4a3d 8f82
00000020: 3070 a882 4465 b982 042d a882 6a3b ef00
00000030: a204 1782 d954 c482 dc26 a082 5ba9 9782
00000040: 889e b302 4f50 8a82 d9e6 9482 750d 7b82
00000050: 2378 2402 1e00 1e82 124c 3a02 325e a882
00000060: 5421 6a82 9a72 bd01 6b57 9982 e574 8c82
00000070: ff8e b282 6875 4d82 5cc6 9b82 fb3c ee02
00000080: f3f3 b002 a5c9 623e 8e09 b502 5141 b182
00000090: 739c 8cbe aa12 ad82 cd0b ae02 aacb b902
000000a0: 24ab fc3e 5d22 cb3e 4c27 963e c203 b382
000000b0: 18a1 e9be 53f6 903e f025 b3bb 467c d7be
000000c0: 713f b002 63c7 11bf dc20 ef00 a654 90be
000000d0: 4736 6e82 5ae7 ae82 af96 7cbe 46e2 a682
000000e0: b126 0fbf 4c99 b402 62a3 2c3e 094f 0cbf
000000f0: 12f9 bd3e 14ce a582 5ee4 6ebf ea49 b782
00000100: 80dd b382 85e7 54bf 7019 ea80 5703 b882
00000110: 4e12 93b4 4a3e 9c82 d233 b282 6c9f a182
00000120: 8cd6 923e c6c5 a602 de59 6f3e 197a 9e02
00000130: be03 c9a5 d093 84bf a141 d13c 7255 6eba
00000140: fe8e a382 6324 a03b 7b32 b182 59df 943a
00000150: 563d 9a82 0387 a202 0195 07bd 8ff7 be82
00000160: 01a2 283a f030 b882 981c 52be 0381 c83b
00000170: c009 23bf 5e5d b402 79c3 4129 46b4 aa02
00000180: 91ca be82 b197 a482 7c4c ac02 fd8a b802
00000190: f010 ab82 1e7e a002 fd47 bf02 bc92 bd02
000001a0: 5106 a402 48d1 cd3f 7db7 9e02 4895 ba82
000001b0: 6fbb af82 2449 563f 3084 17bd 1c98 b282
000001c0: ff0a c682 e3c0 b282 5ed2 4e02 1125 bb82
000001d0: 48c6 7c02 ae35 bc82 8f86 c282 1d51 bb02
000001e0: ec33 bb82 f66f 8f82 c7c7 aa82 7562 a382
000001f0: 9252 a382 b382 b302 03df b382 1958 ba82
00000200: 901f d501 ca6b 8602 6047 6301 5c41 0603
00000210: 9cd8 3083 9887 ea02 a24c f881 aa7f a482
00000220: c625 f981 04ce aa82 a27d a382 f515 a481
00000230: 2ec9 2c83 1ad5 ae82 06b1 7082 6270 0902
00000240: 6739 1f03 4fff a002 16e2 c981 fe07 6a02
00000250: fa5f f481 b7f5 bf81 a77a cb02 1b6c 1082
00000260: 0d49 9901 b293 1882 023f 0b81 b074 bc02
00000270: 1338 2d82 aafe 8202 9e6c 1c83 0d9e 0e03
00000280: 8c2d b782 ae7b c482 e475 0e02 3c55 b402
00000290: 0cd7 ce01 081b 0282 2c44 bc02 6dc4 8902
000002a0: 3ca6 b002 407b d682 9aa1 a582 d799 8182
000002b0: 2aa0 9f82 c0ec ab82 d0c4 a382 177a a382
000002c0: af06 b382 d828 a182 a74e af82 46d7 ad82
000002d0: 5f5a 8702 8c61 b002 c0c5 9a82 edaf 4c03
000002e0: e07a b582 89e1 9f02 fc28 a282 dd32 ac82
000002f0: 2d5d ad02 9317 be82 b300 ad82 a5a6 b502
00000300: 945c 8880 14f1 a982 833f 0203 707d 9502
00000310: 9623 2583 0557 9882 7c87 a482 e46f a782
00000320: aee2 ba82 6c35 3b02 6ddd bd82 84d4 c282
00000330: c3ce a282 e825 a982 49b5 ac82 77bd bd82
00000340: 1b40 bf02 2a27 9f82 ea0b b202 1dee b202
00000350: f539 3482 cec8 b282 7ebc 9d82 3a92 1202
00000360: 63ef ad02 064c b582 2e93 b802 24f2 c082
00000370: 3cea a782 0173 0b02 468a 6a01 240c 0283
00000380: f8ea b002 d518 b182 aef7 9802 e6ff c282
00000390: a87c 7b82 3eed 1e81 d2a2 a882 69dd ad82
000003a0: f67e b382 0f94 a082 d4ba ad82 94a0 b782
000003b0: c31c a982 b8ed b882 5405 b482 fdb3 a982
000003c0: 2264 bc82 672c a682 943a ac82 4487 ae82
000003d0: fa2f ef81 bd72 b282 f45f c982 aa86 0f82
000003e0: ea45 a982 eaf0 bb82 08c0 a182 02df b182
000003f0: 35b6 a882 2c76 6f83 2dcd b682 8add e782
5.0853484e-37 -2.6997457e-37 4.883141e-37 -1.0082215e-37 6.299147e-37 4.416127e-37 -2.598028e-37 -2.104714e-37
-2.4749774e-37 -2.724143e-37 -2.471122e-37 2.1969997e-38 -1.1095057e-37 -2.8848312e-37 -2.3532191e-37 -2.2284661e-37
2.6392679e-37 -2.0323372e-37 -2.1879146e-37 -1.844443e-37 1.2083295e-37 -1.160804e-37 1.3686953e-37 -2.4739447e-37
-1.720117e-37 6.959208e-38 -2.2531505e-37 -2.0638245e-37 -2.6236825e-37 -1.5094715e-37 -2.2889056e-37 3.5005958e-37
2.6000896e-37 0.22147234 2.6601044e-37 -2.6045302e-37 -0.2746311 -2.5430778e-37 2.5573775e-37 2.7300204e-37
0.4934932 0.39674655 0.29326856 -2.6303843e-37 -0.45630717 0.2831293 -0.005467169 -0.42087
2.589729e-37 -0.56944865 2.1960471e-38 -0.28189582 -1.7501055e-37 -2.5699791e-37 -0.24666856 -2.4521382e-37
-0.55918413 2.653661e-37 0.168592 -0.548081 0.37104088 -2.4362854e-37 -0.9331721 -2.6931858e-37
-2.642882e-37 -0.8316577 -2.1498631e-38 -2.7038287e-37 -2.7394202e-07 -2.2957892e-37 -2.6184493e-37 -2.3748327e-37
0.2867931 2.4505024e-37 0.23374125 2.3286094e-37 -3.4870478e-16 -1.0357609 0.02554399 -0.0009091712
-2.403277e-37 0.00488715 -2.6036787e-37 0.0011358067 -2.2663471e-37 2.3881254e-37 -0.033101086 -2.8060082e-37
0.0006432832 -2.7064459e-37 -0.2051872 0.006118895 -0.6368675 2.6502213e-37 4.3024154e-14 2.5082727e-37
-2.8034258e-37 -2.41847e-37 2.5317028e-37 2.7116145e-37 -2.5135913e-37 2.3582275e-37 2.8106247e-37 2.7855275e-37
2.410126e-37 1.6079493 2.332133e-37 -2.7415927e-37 -2.582152e-37 0.83705354 -0.0369913 -2.6242056e-37
-2.9099797e-37 -2.626546e-37 1.5194862e-37 -2.7498456e-37 1.857094e-37 -2.7654928e-37 -2.858297e-37 2.7523737e-37
-2.7506982e-37 -2.1076224e-37 -2.5093922e-37 -2.400721e-37 -2.399809e-37 2.6376704e-37 -2.6429689e-37 -2.738081e-37
7.828913e-38 1.9751398e-37 4.1744524e-38 3.945409e-37 -5.1970407e-37 3.4461037e-37 -9.1210775e-38 -2.417091e-37
-9.1522356e-38 -2.5097502e-37 -2.4022807e-37 -6.027559e-38 -5.07772e-37 -2.5689316e-37 -1.7683218e-37 1.0097423e-37
4.6791795e-37 2.3656427e-37 -7.4160156e-38 1.7193899e-37 -8.9769164e-38 -7.05149e-38 2.9898568e-37 -1.0610474e-37
5.6308146e-38 -1.1209583e-37 -2.5575474e-38 2.7691093e-37 -1.2726125e-37 1.9247953e-37 -4.5968966e-37 4.1911483e-37
-2.6915576e-37 -2.88706e-37 1.0466345e-37 2.6497545e-37 7.5981026e-38 -9.558649e-38 2.7663246e-37 2.0243084e-37
2.595629e-37 -3.1515216e-37 -2.4337326e-37 -1.9043146e-37 -2.345488e-37 -2.526208e-37 -2.4063662e-37 -2.4020774e-37
-2.6305522e-37 -2.3680267e-37 -2.5759083e-37 -2.5543626e-37 1.9888338e-37 2.5916865e-37 -2.274177e-37 6.0152165e-37
-2.6666086e-37 2.34924e-37 -2.3827284e-37 -2.5302323e-37 2.5473546e-37 -2.7931522e-37 -2.5420467e-37 2.669121e-37
-1.2522838e-38 -2.497069e-37 3.8276474e-37 2.196558e-37 -4.8529993e-37 -2.238434e-37 -2.4175398e-37 -2.4602667e-37
-2.7460351e-37 1.3753922e-37 -2.7898146e-37 -2.8627716e-37 -2.3922436e-37 -2.4854075e-37 -2.537718e-37 -2.7879802e-37
2.8101722e-37 -2.338543e-37 2.6161588e-37 2.629142e-37 -1.3240944e-37 -2.6270006e-37 -2.3177266e-37 1.0768351e-37
2.5557467e-37 -2.6639195e-37 2.7120847e-37 -2.8350846e-37 -2.4672889e-37 1.0245112e-37 4.3078219e-38 -3.8217503e-37
2.5995741e-37 -2.6022065e-37 2.2476554e-37 -2.8652617e-37 -1.8476342e-37 -2.919023e-38 -2.4778836e-37 -2.5547149e-37
-2.6374558e-37 -2.3594868e-37 -2.55273e-37 -2.69816e-37 -2.4848827e-37 -2.7172814e-37 -2.645168e-37 -2.4935626e-37
-2.768159e-37 -2.4416993e-37 -2.530675e-37 -2.564464e-37 -8.786358e-38 -2.6220606e-37 -2.958937e-37 -1.0544627e-37
-2.4872447e-37 -2.7615458e-37 -2.3767044e-37 -2.6135813e-37 -2.4789963e-37 -7.037144e-37 -2.6860262e-37 -3.4069557e-37

weights_list.3 f4 [32, 32]
00000000: 5e92 1583 4233 ad82 611a b582 ae47 ba82
00000010: 5351 1203 4536 b482 d495 0d82 50a4 fc01
00000020: 9836 0800 bf3a b282 dc39 c482 826d ba82
00000030: a6f5 6e80 980d ac82 19f6 2582 af58 aa82
00000040: 18d6 bd82 9aa1 b582 930d b982 7d19 c382
00000050: 61c3 bc82 762d bf82 1ed7 b382 70d9 9080
00000060: 18d3 1000 5292 bb82 bf97 b782 6b74 b982
00000070: a621 6d02 2441 ae82 1813 0902 6b6c ac82
00000080: 889e b382 6abc b782 4e65 ad82 c19b 9582
00000090: a472 a902 86cf 8882 7ca2 9e02 4549 b482
000000a0: b9bb 4002 c270 9c82 ec2a aa82 a8f6 a882
000000b0: b356 b802 b72c b282 263c a182 4d06 1602
000000c0: fb91 9382 ad60 a702 d30f ce82 ea25 b002
000000d0: 0e77 8902 3992 a402 ff01 9f82 2e17 9b02
000000e0: 0ce6 9b02 8b8d d302 7d42 b302 507a a702
000000f0: aefc a302 db06 ab82 568d 3502 ff99 a402
00000100: 521d b682 0e3e e53e a5c8 87bd aea2 6c82
00000110: d543 ae82 ae98 a582 6677 5f82 0ea5 b382
00000120: a0f3 7182 0a59 9102 a691 b402 6a08 9e3e
00000130: 4537 5b03 22f5 a13e 760a aa82 ff94 b502
00000140: db3e a782 14cd bd82 7658 6c83 40eb a602
00000150: a3a9 2003 da74 9382 05d8 90be e0cc b502
00000160: c3ac a781 5c81 a302 dc09 b802 bd16 d23d
00000170: 0477 af02 4b11 a602 6289 5001 61ff c082
00000180: 0d10 1683 aa25 9502 ac8a 3083 6db9 2883
00000190: d0b5 9002 d9da 9d82 b152 1983 a4bc f882
000001a0: 2ec1 3902 57e4 9e82 78b9 8102 16e2 a482
000001b0: ea30 f902 79f9 1701 abf3 8082 e89b 8082
000001c0: 9dba 2502 ec89 6982 0853 9b82 424b e001
000001d0: ca53 7082 7aef f681 c1d0 9382 1039 8b80
000001e0: 0a29 ad02 acf2 1d81 be25 de02 efa1 b081
000001f0: 2455 d600 e043 3082 74b6 5281 f869 1d82
00000200: 5144 b802 20cc 78bd ec5a d8be 24d1 09bf
00000210: 90bd 7200 5a58 a002 2836 e382 9211 bd82
00000220: bd6a e982 9438 8d82 caa7 ac02 93d0 aabd
00000230: 4974 c582 d0b5 e83d 0a4e 9c82 b0d0 b682
00000240: 9629 b202 0e85 aa82 af3b 4983 76ea aa02
00000250: c7c2 ac02 d974 ce82 13d7 66bd 7b74 ac02
00000260: a6ae a202 5236 b082 caa4 b802 4dac 043c
00000270: ec80 af02 5913 273e fa3e 0f82 d071 af02
00000280: 84f0 a182 78c7 c002 7aa1 b682 9a60 9c82
00000290: 03b5 8102 0ed6 b482 7b32 9582 fb42 c482
000002a0: 34ae b182 bcdd ba82 fd7d 9282 d821 b182
000002b0: 9c21 4503 f540 c082 b296 9b82 c148 c082
000002c0: 26d1 cc82 8f9a b782 08e0 ac02 7bf7 b782
000002d0: e411 b582 782d 9d02 7a74 b182 9cd3 9802
000002e0: 5ca8 9002 d7b9 b982 0933 9d02 2408 a282
000002f0: 7ded b202 5879 c780 b033 e381 1605 b382
00000300: d2d9 a882 cd3d 7fbc dc6a 11bf d5af 07be
00000310: d21f ad82 f0e4 9e82 d96f f102 acdd ac02
00000320: e144 8102 1599 b002 c436 9f02 6f7f 8abe
00000330: 0d86 8f82 56b2 f43c 84cd 6782 f807 b102
00000340: a5f3 b082 0a6f b382 420c 2b83 413a ac02
00000350: 76bd af82 9d0d 9902 35fc e6be 318f 9c02
00000360: f30a 1502 529c 9602 5e48 a202 2fc4 30c0
00000370: a926 9882 9567 05bf a2e2 b902 e885 c502
00000380: 8ff9 c382 f491 ac82 8b8d 2b02 fee4 0802
00000390: b451 eb02 9ef2 b502 b19a 8182 e0c2 bf82
000003a0: d7c3 cf02 3879 aa82 3e6c 8802 5593 be82
000003b0: 7555 4c81 91ce b082 3719 9682 4e4d b282
000003c0: 96e4 fa02 9bba b482 7292 c482 f8e2 9882
000003d0: 0844 ac82 3ddb 9802 b01b c982 9963 4902
000003e0: 94b1 af02 d484 b682 848d 9302 d908 9782
000003f0: 7342 6f02 a947 ad82 de6e 0383 5ae5 b182
-4.3955186e-37 -2.5449486e-37 -2.66107e-37 -2.7371386e-37 4.29989e-37 -2.6479772e-37 -1.0402043e-37 9.2805957e-38
7.54269e-40 -2.6188468e-37 -2.8832821e-37 -2.7393098e-37 -1.0190027e-38 -2.528093e-37 -1.2192912e-37 -2.5030157e-37
-2.7893938e-37 -2.6688314e-37 -2.7191098e-37 -2.8667304e-37 -2.773626e-37 -2.809102e-37 -2.6425157e-37 -1.3302313e-38
1.545094e-39 -2.7561164e-37 -2.6976531e-37 -2.7250127e-37 1.7421667e-37 -2.560439e-37 1.007065e-37 -2.5335357e-37
-2.6392679e-37 -2.6997578e-37 -2.5478211e-37 -2.198298e-37 2.4898119e-37 -2.0102517e-37 2.3309275e-37 -2.6490678e-37
1.4159806e-37 -2.298686e-37 -2.500389e-37 -2.4826955e-37 2.7086133e-37 -2.6180414e-37 -2.3691347e-37 1.1022068e-37
-2.1683497e-37 2.4593934e-37 -3.0278062e-37 2.5882637e-37 2.0198675e-37 2.4181562e-37 -2.3364096e-37 2.2788508e-37
2.2907243e-37 3.1084905e-37 2.6339849e-37 2.4608649e-37 2.4095728e-37 -2.5130127e-37 1.3338341e-37 2.4186024e-37
-2.6759326e-37 0.44773906 -0.06630067 -1.7385228e-37 -2.5605936e-37 -2.4332205e-37 -1.6417718e-37 -2.6396423e-37
-1.7775801e-37 2.135694e-37 2.653222e-37 0.30865794 6.442176e-37 0.31632334 -2.498526e-37 2.668108e-37
-2.4574522e-37 -2.7888763e-37 -6.9455715e-37 2.4526535e-37 4.7214507e-37 -2.1666778e-37 -0.2828981 2.6713152e-37
-6.159401e-38 2.4024946e-37 2.704203e-37 0.10258243 2.578225e-37 2.4401433e-37 3.8302134e-38 -2.8358445e-37
-4.4099464e-37 2.19152e-37 -5.188094e-37 -4.958362e-37 2.1263254e-37 -2.319469e-37 -4.5057584e-37 -3.65486e-37
1.3647093e-37 -2.3347074e-37 1.90613e-37 -2.4227401e-37 3.6615337e-37 2.7913308e-38 -1.8947768e-37 -1.8897395e-37
1.2175841e-37 -1.7157718e-37 -2.282286e-37 8.2392594e-38 -1.7656462e-37 -9.070976e-38 -2.1719528e-37 -1.2785604e-38
2.544362e-37 -2.9010454e-38 3.2641631e-37 -6.488455e-38 1.9683339e-38 -1.2949917e-37 -3.8701812e-38 -1.156495e-37
2.7075582e-37 -0.060741544 -0.42256868 -0.5383475 1.0537249e-38 2.3560598e-37 -3.3385736e-37 -2.778114e-37
-3.4297538e-37 -2.0750562e-37 2.5369435e-37 -0.083405636 -2.9013293e-37 0.11362803 -2.2966932e-37 -2.6862277e-37
2.6178618e-37 -2.5055625e-37 -5.9137105e-37 2.511383e-37 2.5384925e-37 -3.0336047e-37 -0.056357455 2.5339985e-37
2.3904004e-37 -2.5892054e-37 2.7130954e-37 0.00809772 2.5787936e-37 0.16315974 -1.0524054e-37 2.5779264e-37
-2.3794873e-37 2.8326354e-37 -2.683518e-37 -2.2977586e-37 1.9058742e-37 -2.6571484e-37 -2.1922557e-37 -2.8838056e-37
-2.61078e-37 -2.7457513e-37 -2.1525086e-37 -2.6027238e-37 5.793168e-37 -2.8249148e-37 -2.2861698e-37 -2.8253623e-37
-3.0095151e-37 -2.6978146e-37 2.5401716e-37 -2.703148e-37 -2.6605828e-37 2.3095174e-37 -2.6074667e-37 2.245585e-37
2.1255532e-37 -2.7289974e-37 2.309837e-37 -2.3808433e-37 2.629106e-37 -1.8318794e-38 -8.34608e-38 -2.6304605e-37
-2.4810404e-37 -0.015578699 -0.5680368 -0.13250668 -2.543833e-37 -2.3347417e-37 3.5475965e-37 2.5400362e-37
1.899438e-37 2.594874e-37 2.3394384e-37 -0.2705035 -2.1088903e-37 0.029870193 -1.703018e-37 2.6012386e-37
-2.600072e-37 -2.636542e-37 -5.0266455e-37 2.5306565e-37 -2.5822684e-37 2.2489143e-37 -0.45114294 2.3004328e-37
1.0949933e-37 2.2130243e-37 2.3845297e-37 -2.761974 -2.2356583e-37 -0.5211118 2.7313388e-37 2.9023407e-37
-2.8795914e-37 -2.5356902e-37 1.2603717e-37 1.005742e-37 3.4577042e-37 2.6734815e-37 -1.9043635e-37 -2.817678e-37
3.0528323e-37 -2.504883e-37 2.0045532e-37 -2.8002555e-37 -3.7530195e-38 -2.597944e-37 -2.2054992e-37 -2.619912e-37
3.68654e-37 -2.655573e-37 -2.8883667e-37 -2.2464666e-37 -2.5312177e-37 2.246023e-37 -2.9550187e-37 1.4795731e-37
2.5815864e-37 -2.6818736e-37 2.1680935e-37 -2.2192534e-37 1.7578017e-37 -2.5461196e-37 -3.862471e-37 -2.6139454e-37

weights_list.4 f4 [1, 32]
00000000: b775 b182 b824 d982 b69b c2be e49a ab02
00000010: 4d66 6e3e a4d1 c402 1608 e8bf 4397 b802
00000020: 6a17 3c03 301a d0be 866c b882 38a9 a502
00000030: d834 cf82 34a9 b2be dd32 653f a29d c282
00000040: d670 bd82 1951 8f3f 68b9 87be 7a85 c182
00000050: 5e88 d882 810e ca3d 0d86 49bf 90ff c982
00000060: a7db bebe 9ffd b402 5ae6 aa02 52ab 2002
00000070: b4a2 0dc0 2894 3182 8f6e b682 546f ad3f
-2.6075378e-37 -3.190636e-37 -0.38009423 2.5215095e-37 0.23281212 2.891994e-37 -1.8127468 2.712319e-37
5.5275113e-37 -0.4064498 -2.709866e-37 2.4341698e-37 -3.0446247e-37 -0.34894717 0.89530736 -2.8596215e-37
-2.7835819e-37 1.1196624 -0.2650864 -2.8435413e-37 -3.1816618e-37 0.09866048 -0.7872017 -2.9680981e-37
-0.37276956 2.6594194e-37 2.511147e-37 1.180411e-37 -2.2130556 -1.3046425e-37 -2.6805954e-37 1.35496

bias_list.0 f4 [32]
00000000: f490 ac81 1d5b cebd bec0 afbd 85fc b982
00000010: 5dce ab82 8416 c982 4159 c482 8829 55be
00000020: dd0c b9bc 373f ab82 1cd8 32bd 45ef 1183
00000030: f2a0 b782 7da8 1183 1c1b 9f82 81fa 99bd
00000040: 3436 5883 34ba 3e3e 3446 f3bc 6812 ed82
00000050: f992 ac82 a8fb a382 f5a5 be3e bef4 dbbd
00000060: 8743 0e3e 944e b682 3a05 ac82 2d11 abbc
00000070: 6d59 9cbd 1904 66bd 06da eb3e 1952 5683
-6.339082e-38 -0.10075972 -0.085816845 -2.7328246e-37 -2.5244638e-37 -2.954722e-37 -2.885084e-37 -0.20816624
-0.022589142 -2.5162475e-37 -0.04366313 -4.288634e-37 -2.6981811e-37 -4.2805085e-37 -2.337851e-37 -0.07518483
-6.3538917e-37 0.18625718 -0.029696561 -3.4834585e-37 -2.5357487e-37 -2.409514e-37 0.3723599 -0.1074004
0.13892947 -2.6787598e-37 -2.5276128e-37 -0.020882213 -0.07634244 -0.05615625 0.46064776 -6.298319e-37
